saved_models/pytorch_dqn_model_16.04;23.33_-6.pt (torch, 214818 bytes, 48 tensors)

fc1.weight f4 [24, 10]
0.22733858 -0.020425975 0.052655347 0.015311168 0.20657365 -0.19761789 -0.12327161 -0.27503577
0.013452064 -0.2843052 -0.033276916 -0.044917494 0.15686727 -0.19553122 -0.2913123 -0.30123246
0.01780492 -0.18593666 -0.01660648 -0.11225574 0.24905787 0.123036556 -0.23781824 0.26681072
-0.14080065 -0.18021262 0.2926845 0.16107903 0.28348592 -0.02317138 0.28135175 -0.31044292
0.303398 -0.026864361 0.10910673 -0.2680944 -0.2796398 0.034626506 -0.09642765 0.2707949
0.20257898 0.25835553 0.18211158 0.16323091 -0.24847198 0.2994511 -0.20459735 0.14426717
0.015839364 -0.24228723 0.13596196 -0.27910358 -0.28725088 -0.10677589 -0.2871785 0.016692713
-0.1437488 0.27191764 -0.17372562 -0.043484483 -0.28623837 -0.10701926 -0.20903276 0.23032764
-0.10869022 0.04903554 0.017580431 -0.1790573 -0.31001154 -0.0334082 0.28900588 -0.22513801
-0.100810155 0.17129332 -0.08803054 0.30882132 -0.009664007 -0.12957275 0.14762665 0.115317665
-0.26932183 -0.054533385 0.02811479 0.30464455 0.16753939 0.26492283 0.1457741 -0.1610768
-0.1549194 0.16660796 -0.19839488 -0.032083564 -0.12802884 -0.28905675 -0.30128896 0.15452197
0.2407533 0.042882115 0.28621936 0.094864726 -0.03378622 0.08407572 -0.29851106 0.042222764
-0.28708157 0.124447666 -0.11530787 0.2608652 -0.2654135 -0.14286388 -0.06600161 0.24763857
0.09903052 0.14348286 0.14784415 0.2525634 0.28941706 0.100345254 -0.29223385 -0.100586794
0.061602958 0.2108999 0.1397228 -0.11144559 -0.13352789 0.04931101 0.06338838 0.05078248
0.12124964 0.2958561 0.29829082 -0.1375106 0.23303527 -0.24569772 -0.28524497 -0.31355917
-0.2962131 -0.118199125 -0.054093737 0.24712393 -0.0020109909 -0.05488036 -0.21705404 0.24297783
0.12776154 0.15403225 0.00026527143 -0.2836189 -0.28846857 0.027759606 0.25233287 -0.2119752
-0.032921735 0.12574576 0.12748222 -0.22238573 0.26091066 0.24868715 -0.087611936 0.17191832
-0.049012396 0.23981073 0.044899736 -0.18247469 -0.07327584 -0.2195625 -0.1994826 0.006129547
-0.053305026 -0.17278995 0.023320405 -0.022895547 -0.2948354 -0.1236541 -0.10836903 -0.01661701
-0.074094556 0.29087204 -0.114247225 -0.27944702 0.1136725 0.031167237 -0.27813593 -0.27397442
-0.008466321 0.2284575 0.046427898 0.06905259 -0.23479113 -0.28247252 -0.28881568 0.1870107
0.23261242 -0.10861891 -0.15230705 0.2977986 0.13629968 -0.06464675 0.30953217 -0.11995855
0.3113436 -0.247595 0.2406226 -0.015316826 -0.07492382 -0.13704625 -0.19065967 -0.21789809
0.19237548 0.18834673 -0.10583602 -0.27502373 0.26599324 0.096134976 0.12084267 0.13641001
0.19381803 0.21325096 0.2597521 -0.20806254 0.14723794 -0.23747444 0.19613056 0.052406225
-0.02096864 0.022519138 0.12170805 0.04303249 -0.14641158 0.27012232 -0.060962923 -0.014299202
0.12315191 0.044274338 -0.24339584 -0.24488492 0.12157829 0.012211463 -0.1999766 0.09726023
00000000: 72cb 683e 6054 a7bc 22ad 573d b1db 7a3c
00000010: 0b88 533e 585c 4abe d375 fcbd 7dd1 8cbe
00000020: 0c66 5c3c 7490 91be 604d 08bd 68fb 37bd
00000030: d0a1 203e 5639 48be e326 95be 243b 9abe
00000040: a0db 913c 2e66 3ebe 500a 88bc 56e6 e5bd
00000050: 0709 7f3e 97fa fb3d a086 73be 6a9b 883e
00000060: 0c2e 10be a889 38be beda 953e e7f1 243e
00000070: 1125 913e e8d1 bdbc 560d 903e 60f2 9ebe
00000080: fc56 9b3e a612 dcbc 5973 df3d ab43 89be
00000090: f32c 8fbe 86d4 0d3d dc7b c5bd a1a5 8a3e
000000a0: dd70 4f3e 2d47 843e 757b 3a3e 0126 273e
000000b0: 706f 7ebe a851 993e f881 51be c6ba 133e
000000c0: 8ec1 813c 251a 78be 9d39 0b3e aae6 8ebe
000000d0: 8c12 93be 51ad dabd 0f09 93be 28bf 883c
000000e0: e332 13be ca38 8b3e 21e5 31be c91c 32bd
000000f0: d68d 92be ea2c dbbd af0c 56be 02db 6b3e
00000100: fa98 debd 7ed9 483d d604 903c cc5a 37be
00000110: d5b9 9ebe 09d7 08bd 94f8 933e 948a 66be
00000120: 8e75 cebd 8467 2f3e 5b49 b4bd d41d 9e3e
00000130: c955 1ebc b8ae 04be 712b 173e ab2b ec3d
00000140: 8de4 89be 665e 5fbd fd50 e63c 5ffa 9b3e
00000150: 728f 2b3e f7a3 873e ce45 153e 51f1 24be
00000160: 31a3 1ebe 479b 2a3e 0728 4bbe 0e6a 03bd
00000170: fe19 03be 3fff 93be 8c42 9abe 023b 1e3e
00000180: 0888 763e 28a5 2f3d 588b 923e 7048 c23d
00000190: 6b63 0abd e42f ac3d 71d6 98be c7f1 2c3d
000001a0: 5bfc 92be 6bde fe3d 8826 ecbd 2090 853e
000001b0: 47e4 87be e94a 12be da2b 87bd f794 7d3e
000001c0: 83d0 ca3d 2ced 123e 7564 173e fd4f 813e
000001d0: 792e 943e d081 cd3d ad9f 95be 7300 cebd
000001e0: 6253 7c3d 25f6 573e 7e13 0f3e 963d e4bd
000001f0: 89bb 08be 57fa 493d c4d1 813d 4a01 503d
00000200: bb51 f83d 737a 973e 93b9 983e 94cf 0cbe
00000210: cca0 6e3e 2f98 7bbe a10b 92be d48a a0be
00000220: 3ea9 97be 6212 f2bd 6591 5dbd 0e0e 7d3e
00000230: d4ca 03bb 3aca 60bd 6a43 5ebe 2ecf 783e
00000240: ecd3 023e a1ba 1d3e 2114 8b39 7f36 91be
00000250: 27b2 93be 1d68 e33c c631 813e 0710 59be
00000260: f1d8 06bd 7fc3 003e b38a 023e 16b9 63be
00000270: 1596 853e d8a7 7e3e e36d b3bd 5b0b 303e
00000280: 39c1 48bd f290 753e c9e8 373d a5da 3abe
00000290: a511 96bd fed4 60be 2b45 4cbe 5eda c83b
000002a0: 5f56 5abd d9ef 30be 6f0a bf3c 718f bbbc
000002b0: aaf4 96be 5c3e fdbd 95f0 ddbd 6520 88bc
000002c0: e3be 97bd 2eed 943e 73fa e9bd ae13 8fbe
000002d0: 21cd e83d 6f52 ff3c d567 8ebe 6046 8cbe
000002e0: 53b6 0abc c3f0 693e 2e2b 3e3d 726b 8d3d
000002f0: 166d 70be 3da0 90be a6df 93be bc7f 3f3e
00000300: f331 6e3e 9773 debd 61f6 1bbe 0f79 983e
00000310: 2592 0b3e 8465 84bd 007b 9e3e d4ac f5bd
00000320: 6e68 9f3e 8b89 7dbe c565 763e 6df3 7abc
00000330: a971 99bd da55 0cbe 4a3c 43be ad20 5fbe
00000340: 14fe 443e f7dd 403e 8ec0 d8bd e9cf 8cbe
00000350: 4430 883e 6ae2 c43d 5d7c f73d 11af 0b3e
00000360: 3c78 463e 765e 5a3e 3afe 843e 590e 55be
00000370: 8bc5 163e 802c 73be 73d6 483e e9a7 563d
00000380: 6dc6 abbc 0e7a b83c 1242 f93d d642 303d
00000390: ebec 15be 794d 8a3e 42b4 79bd 3347 6abc
000003a0: 1237 fc3d 0259 353d c23c 79be 1dc3 7abe
000003b0: 0afe f83d 9712 483c aac6 4cbe 5f30 c73d

fc1.bias f4 [24]
0.15225647 -0.014368683 -0.2469638 -0.2568242 0.08171686 0.30462343 -0.17897284 0.2650898
0.14197014 -0.22582433 -0.26258317 -0.23379122 0.29513943 -0.2703445 -0.26111338 -0.24694893
-0.027230162 -0.13513818 0.057682816 -0.2982708 0.067963 0.06965705 0.2926545 -0.26487702
00000000: 1fe9 1b3e a06a 6bbc 14e4 7cbe 767e 83be
00000010: 2b5b a73d 9af7 9b3e a844 37be dab9 873e
00000020: 9f60 113e 7e3e 67be 4d71 86be f766 6fbe
00000030: 841c 973e 986a 8abe a7b0 85be 2ee0 7cbe
00000040: ca11 dfbc aa61 0abe d144 6c3d f3b6 98be
00000050: 2f30 8b3d 5ba8 8e3d d0d6 953e f69d 87be

fc2.weight f4 [48, 24]
-0.12549256 -0.02826795 -0.17047513 0.059695695 0.19651102 0.18034434 0.07227239 0.1938507
-0.06719213 -0.09797641 -0.054826096 -0.12132015 0.09066875 0.1684832 -0.007373054 -0.07400794
0.11071191 -0.13588232 0.10678593 -0.11455684 -0.11063836 -0.064850636 0.11986135 -0.023233399
-0.14911944 -0.0071876794 0.15742925 -0.04180905 0.084437795 0.14021686 0.01400192 -0.19457497
-0.105416514 -0.18594773 0.18974914 0.18688194 -0.07861429 -0.19747789 0.16767317 0.018376825
-0.11907567 0.11992296 0.015451098 0.05281693 -0.028204422 0.20174424 -0.026626118 0.07308419
-0.09062441 0.13449258 -0.17261846 -0.031094527 0.04422376 -0.016290933 0.12283706 -0.20354076
0.123421915 -0.053178065 -0.06554261 0.0972743 -0.07711467 0.12707627 -0.051829055 0.12643418
0.1206344 0.1356161 -0.18111359 0.08880555 0.14723766 -0.04812713 -0.077626355 0.10081208
-0.057627536 -0.050409153 -0.105906434 -0.18585137 0.06697796 0.19330403 0.06773186 0.014340383
-0.14395224 0.11941643 -0.097295366 -0.1285955 0.10877703 -0.027723862 0.014371246 -0.0010396012
-0.15697975 -0.19901352 -0.010193184 -0.006496415 0.11390179 -0.057824433 0.10336372 0.15721959
0.11737248 0.012774885 -0.017796084 -0.003163308 -0.16014212 -0.01656279 -0.01114133 0.09776506
-0.04947394 0.12685117 -0.027713 -0.09076036 -0.097149484 0.15467629 0.16268617 0.006185353
-0.15364814 -0.02572228 -0.2028611 0.016780764 -0.11573565 -0.20410974 0.025470898 -0.18099098
0.1952456 -0.15832448 0.0939883 -0.1163379 -0.16044176 -0.13122699 -0.11235117 0.1231729
0.19761696 -0.16673598 -0.08221325 -0.08026254 0.15565285 -0.192378 0.12498014 0.13600639
0.04578915 -0.18535158 0.024144655 0.17726123 0.16615376 0.1907994 0.1220279 0.18747441
0.099430725 -0.10077123 0.120158955 0.034569867 -0.07367049 0.052340332 -0.084228456 0.2032722
-0.17338733 -0.009366764 0.09411324 -0.19902697 -0.04389683 -0.15479492 0.0017075485 0.16181025
-0.14823888 0.12459427 0.107846 -0.09223572 -0.07568997 0.16173095 -0.061014544 0.104825765
-0.05456 -0.012786478 -0.1776481 -0.19185667 0.1125432 -0.027394995 0.013487279 -0.0037978874
-0.09548609 0.05851057 -0.13541728 0.16348986 -0.030795392 -0.024596617 0.12471479 -0.11861456
-0.06557278 -0.10748185 -0.1655112 -0.1390264 -0.01956261 -0.14511669 0.11312422 0.1702689
0.13629311 0.1375727 0.106916055 -0.017567798 0.05780978 0.07753712 -0.18959168 0.11476976
-0.044382595 -0.049834453 -0.19474569 -0.11599472 0.16938819 0.046940986 0.038115047 -0.17397928
0.03163323 -0.16230558 -0.1662556 -0.08778807 -0.029960858 -0.01660087 0.070759445 0.007266825
0.09543424 -0.16338103 -0.11315194 0.07494048 0.14535093 0.07950527 0.021656128 -0.1259277
0.06315874 -0.06860642 0.19220243 0.009012555 0.06865538 -0.11265614 -0.06364381 0.09471387
0.10262722 -0.1362809 0.17397442 0.16941397 0.16840476 0.04663666 0.004646206 -0.02903558
0.072931625 -0.08118352 0.0660512 0.20272776 0.046491615 -0.018407078 0.096546546 -0.19379713
0.050643396 -0.006047356 0.036253374 -0.038527347 -0.023147741 -0.07401172 0.19547564 0.16091055
00000000: 1f81 00be 3092 e7bc 0891 2ebe 7983 743d
00000010: 2f3a 493e 30ac 383e 8c03 943d cc80 463e
00000020: 079c 89bd dba7 c8bd 5491 60bd b376 f8bd
00000030: 8ab0 b93d dc86 2c3e a999 f1bb 7a91 97bd
00000040: edbc e23d bc24 0bbe 95b2 da3d c79c eabd
00000050: 5d96 e2bd 69d0 84bd de79 f53d f853 bebc
00000060: c4b2 18be a086 ebbb 2235 213e f73f 2bbd
00000070: b9ed ac3d 0295 0f3e 4f68 653c a93e 47be
00000080: 9de4 d7bd 1569 3ebe 994d 423e fb5d 3f3e
00000090: 8700 a1bd a537 4abe 84b2 2b3e ff8a 963c
000000a0: f2dd f3bd 2b9a f53d 9a26 7d3c 9156 583d
000000b0: f60c e7bc 0b96 4e3e 041f dabc 2aad 953d
000000c0: 4a99 b9bd 6cb8 093e e5c2 30be f3b9 febc
000000d0: f923 353d 9074 85bc ff91 fb3d fd6c 50be
000000e0: a1c4 fc3d 3ed1 59bd 343b 86bd c037 c73d
000000f0: 4cee 9dbd 4820 023e b44a 54bd f677 013e
00000100: 2b0f f73d f2de 0a3e d775 39be afdf b53d
00000110: 78c5 163e f420 45bd 91fa 9ebd 9076 ce3d
00000120: da0a 6cbd d479 4ebd 79e5 d8bd d24f 3ebe
00000130: be2b 893d 7ef1 453e 00b7 8a3d edf3 6a3c
00000140: 3768 13be 9a90 f43d cb42 c7bd 8aae 03be
00000150: 7ec6 de3d 271d e3bc 6075 6b3c 3a43 88ba
00000160: 4dbf 20be 33ca 4bbe 5001 27bc e1df d4bb
00000170: 5745 e93d 50d9 6cbd 5cb0 d33d 2cfe 203e
00000180: fc60 f03d c04d 513c 18c9 91bc 804f 4fbb
00000190: 4cfc 23be b0ae 87bc 208a 36bc 0c39 c83d
000001a0: 30a5 4abd 46e5 013e 6006 e3bc 91e0 b9bd
000001b0: 4ff6 c6bd 7663 1e3e 3497 263e 80ae ca3b
000001c0: f055 1dbe 88b7 d2bc d2ba 4fbe d077 893c
000001d0: d006 edbd 2502 51be 58a8 d03c b355 39be
000001e0: 76ee 473e d01f 22be f07c c03d 9142 eebd
000001f0: d84a 24be 5e60 06be 5f18 e6bd 1342 fc3d
00000200: 1a5c 4a3e d6bc 2abe 6c5f a8bd b060 a4bd
00000210: 7663 1f3e bdfe 44be 96f5 ff3d 4245 0b3e
00000220: 678d 3b3d cecc 3dbe 03cb c53c f883 353e
00000230: 3624 2a3e eb60 433e c3e9 f93d 4bf9 3f3e
00000240: 56a2 cb3d 2661 cebd e615 f63d 2299 0d3d
00000250: 8ee0 96bd d162 563d f87f acbd 9626 503e
00000260: 738c 31be 0e77 19bc 71be c03d bacd 4bbe
00000270: 2acd 33bd 8f82 1ebe d2cf df3a 96b1 253e
00000280: efcb 17be 482b ff3d 5dde dc3d 15e6 bcbd
00000290: 5803 9bbd cc9c 253e 63ea 79bd e4ae d63d
000002a0: 4e7a 5fbd 607e 51bc 62e9 35be 1376 44be
000002b0: 0d7d e63d 786b e0bc c0f9 5c3c fae5 78bb
000002c0: 368e c3bd c8a8 6f3d d4aa 0abe e369 273e
000002d0: 9e46 fcbc d87e c9bc 786a ff3d 31ec f2bd
000002e0: 064b 86bd 721f dcbd c57b 29be f05c 0ebe
000002f0: c441 a0bc 7899 14be acad e73d f85a 2e3e
00000300: 6c90 0b3e dcdf 0c3e cef6 da3d 58ea 8fbc
00000310: f3c9 6c3d c8cb 9e3d 5224 42be 680c eb3d
00000320: 86ca 35bd 361f 4cbd 6a6b 47be a48e edbd
00000330: 1974 2d3e 3145 403d 861e 1c3d a027 32be
00000340: d991 013d 6f33 26be e83e 2abe 3bca b3bd
00000350: 7970 f5bc 8cfe 87bc 54ea 903d 8c1e ee3b
00000360: 0773 c33d 5b4d 27be 34bc e7bd 657a 993d
00000370: e0d6 143e a9d3 a23d 3168 b13c 31f3 00be
00000380: 5f59 813d 8681 8cbd b7d0 443e 65a9 133c
00000390: 319b 8c3d 43b8 e6bd b057 82bd 58f9 c13d
000003a0: 382e d23d 388d 0bbe 5a26 323e db7a 2d3e
000003b0: 4c72 2c3e 1506 3f3d 333f 983b 06dc edbc
000003c0: 2d5d 953d 8c43 a6bd da45 873d de97 4f3e
000003d0: fe6d 3e3d 71ca 96bc 32ba c53d c172 46be
000003e0: 736f 4f3d e628 c6bb 6b7e 143d dace 1dbd
000003f0: 55a0 bdbc 7593 97bd c42a 483e bcc5 243e

fc2.bias f4 [48]
0.0015138601 -0.20130853 -0.010260242 -0.19632691 -0.0035242885 0.11724762 0.1452452 -0.14228131
0.09172826 -0.022693101 0.05837817 -0.17703158 -0.10290832 0.044413555 0.0064267665 -0.09897919
-0.10134351 0.09338376 0.14412537 0.18742016 0.01992868 0.16335231 -0.06807576 -0.032690316
-0.045357082 -0.16814609 -0.021671608 -0.010669892 -0.07119783 -0.06845369 0.112974845 0.14517376
-0.13232113 -0.03297371 -0.17406447 -0.1592547 -0.14272153 -0.20098141 -0.12306728 0.19911502
0.09416999 0.091934524 0.18814342 0.026810588 -0.19072737 0.019229949 0.0051895534 -0.055679608
00000000: b76c c63a d323 4ebe 931a 28bc ec09 49be
00000010: c0f7 66bb 851f f03d 28bb 143e 31b2 11be
00000020: 07dc bb3d e2e6 b9bc f31d 6f3d c447 35be
00000030: 99c1 d2bd fdea 353d a097 d23b 9ab5 cabd
00000040: 308d cfbd fc3f bf3d 9a95 133e 12eb 3f3e
00000050: 7941 a33c d445 273e 4e6b 8bbd 48e6 05bd
00000060: 59c8 39bd 7d2e 2cbe a888 b1bc c5d0 2ebc
00000070: 2bd0 91bd 7331 8cbd 5b5f e73d 6ea8 143e
00000080: 317f 07be 710f 07bd f53d 32be aa13 23be
00000090: 9825 12be 12ce 4dbe b30a fcbd cfe4 4b3e
000000a0: 32dc c03d 2b48 bc3d aba8 403e e1a1 db3c
000000b0: 094e 43be 2088 9d3c 210d aa3b 4d10 64bd

fc3.weight f4 [96, 48]
0.13920474 0.10731602 -0.12283097 -0.12302548 -0.010682464 0.12165883 0.10389376 0.015828948
-0.11553289 -0.028692825 0.11010144 0.034368247 -0.057110302 0.12708014 -0.14082935 -0.06583802
-0.0069167577 -0.06609896 -0.07378701 -0.0014553815 0.044799693 0.020747703 0.066289976 -0.06758079
0.11203917 -0.12166612 -0.0072894692 -0.07647622 -0.12966895 0.046846826 0.0108862575 0.050774653
0.115654536 -0.008623272 -0.0488623 -0.06851413 0.07849455 -0.13422272 -0.02565053 0.088674515
-0.0799115 0.068914354 0.07706665 0.072800174 -0.049308077 0.06886342 0.050013583 -0.07511126
-0.08859603 0.047205754 -0.0329713 -0.06549212 -0.13174714 -0.03521492 0.104109034 -0.11509628
0.005288288 0.035739716 0.07817352 -0.065097824 -0.061571095 -0.14150265 -0.008926377 -0.027277317
0.06690875 0.118014604 -0.08035035 0.035007775 0.012973192 -0.11704071 -0.033342004 0.057351217
-0.053878605 0.1203942 0.11537085 0.11285644 -0.0011152547 -0.011924395 0.11759004 0.07289163
-0.113699384 -0.084523596 -0.058488544 0.09137594 0.111200675 -0.027373904 -0.015343642 0.12269064
0.07169502 -0.12095937 0.09636385 0.007987124 0.017448343 -0.113226466 0.010883373 0.073555805
-0.04925923 0.0067848414 0.039988145 -0.034330577 -0.054603636 -0.13125713 -0.12128616 0.09707227
0.00223656 -0.0056399405 0.009946525 -0.0002643466 0.09228453 -0.028050475 0.011253417 -0.027274244
-0.13344117 0.05024621 0.057417944 -0.045322016 0.14267474 0.041859165 -0.021431424 0.083654016
-0.112065 0.1434617 -0.096130006 0.06410165 -0.14246488 0.09648132 -0.107868195 0.021402135
-0.10151013 0.050848424 0.11621502 -0.08549993 -0.13526528 0.100015864 -0.094390705 -0.1231168
0.023627803 -0.037238717 0.0032430887 -0.030536793 -0.06143546 -0.13001117 -0.10072939 0.057784066
0.10398704 -0.056933895 -0.10357395 0.004525736 0.05769296 -0.029269926 0.061652616 0.061582953
0.10758293 -0.12341087 0.0152358115 -0.08998683 -0.1394121 -0.08410989 -0.13882673 0.031441092
-0.13880911 0.041990876 -0.07508282 0.11488488 -0.034513295 0.06304173 0.0946801 -0.14276044
-0.03030391 -0.04254403 0.03757462 -0.00465858 0.049302936 -0.068480924 0.037425593 -0.06714954
-0.0124908835 -0.04454045 -0.02781631 0.1421496 0.0075728 -0.13593009 -0.05206994 0.07183793
-0.13235106 -0.022253543 0.02101411 -0.072495274 0.0045140833 0.072555885 -0.13170421 -0.0989969
-0.11632354 0.029401373 0.13791817 -0.04972797 -0.06097307 -0.06933034 0.059463557 0.02295135
0.014998352 -0.12841691 -0.12639934 0.034163076 -0.1351921 -0.08950536 -0.010653704 -0.14324524
0.001528427 0.103578225 -0.1266365 -0.045560874 -0.11270629 0.025082719 -0.07050248 -0.033084765
0.0482758 -0.079100445 -0.04150574 0.012413976 0.10812444 0.10570329 -0.0033689886 0.054840416
0.018014446 0.13785188 -0.01222493 -0.02002707 -0.09690023 0.13286874 0.06902702 0.07634318
0.14043996 -0.08009035 -0.10902664 -0.046727307 -0.0010868019 0.09644185 0.066980354 -0.08654087
0.11720991 -0.0011445731 -0.029473767 0.086551234 -0.02129487 -0.08500837 -0.13128258 -0.0007842779
0.031953156 0.034176067 -0.07355682 0.10126889 -0.06604274 0.093536854 0.020792216 -0.11499716
00000000: b08b 0e3e 80c8 db3d ce8e fbbd c8f4 fbbd
00000010: 8005 2fbc 4428 f93d 40c6 d43d b6ab 813c
00000020: 829c ecbd 370d ebbc dd7c e13d b8c5 0c3d
00000030: 7eec 69bd 4c21 023e 9235 10be 15d6 86bd
00000040: f8a5 e2bb e45e 87bd a51d 97bd 80c2 beba
00000050: e27f 373d 16f7 a93c 0ac3 873d cc67 8abd
00000060: cb74 e53d 162c f9bd 80dc eebb 909f 9cbd
00000070: f0c7 04be 75e2 3f3d 465c 323c 15f9 4f3d
00000080: 49dc ec3d a048 0dbc d623 48bd 2351 8cbd
00000090: c0c1 a03d ae71 09be 0f21 d2bc fc9a b53d
000000a0: a4a8 a3bd f822 8d3d 1fd5 9d3d 4218 953d
000000b0: 44f7 49bd 4408 8d3d 0bdb 4c3d efd3 99bd
000000c0: d671 b5bd d25a 413d ea0c 07bd bc20 86bd
000000d0: b9e8 06be 853d 10bd 1e37 d53d 99b7 ebbd
000000e0: 6049 ad3b cf63 123d 7019 a03d 0252 85bd
000000f0: f931 7cbd 12e6 10be f03f 12bc ae74 dfbc
00000100: 7407 893d a4b1 f13d b98e a4bd 5064 0f3d
00000110: 838d 543c 0ab3 efbd a091 08bd 1ce9 6a3d
00000120: d0af 5cbd 3c91 f63d 8d47 ec3d 4721 e73d
00000130: bd2d 92ba 8a5e 43bc 0cd3 f03d 3548 953d
00000140: 39db e8bd b51a adbd af91 6fbd 4f23 bb3d
00000150: 2ebd e33d 3d3f e0bc e663 7bbc 3b45 fb3d
00000160: d7d4 923d 8cb9 f7bd 695a c53d 6ddc 023c
00000170: d4ef 8e3c 47e3 e7bd 2d50 323c 6da4 963d
00000180: 0cc4 49bd 6053 de3b 9cca 233d 389e 0cbd
00000190: 10a8 5fbd 4568 06be e164 f8bd d4cd c63d
000001a0: 4093 123b 40cf b8bb c0f6 223c 0098 8ab9
000001b0: acff bc3d 1cca e5bc 4060 383c 3c6e dfbc
000001c0: cda4 08be f8ce 4d3d 142f 6b3d 94a3 39bd
000001d0: 5419 123e 8474 2b3d f490 afbc cc52 ab3d
000001e0: 5682 e5bd a0e7 123e cfdf c4bd ba47 833d
000001f0: 50e2 11be 0098 c53d 00ea dcbd 8853 af3c
00000200: 8be4 cfbd 7046 503d 2402 ee3d 961a afbd
00000210: fb82 0abe 1ed5 cc3d ea4f c1bd a924 fcbd
00000220: 188f c13c a087 18bd 008a 543b 4c28 fabc
00000230: c0a3 7bbd a621 05be 364b cebd fcae 6c3d
00000240: 28f7 d43d 8433 69bd 941e d4bd a04c 943b
00000250: 744f 6c3d 7cc7 efbc 7487 7c3d 683e 7c3d
00000260: 7054 dc3d d7be fcbd a09f 793c 044b b8bd
00000270: 0cc2 0ebe ce41 acbd 9828 0ebe 60c8 003d
00000280: fa23 0ebe a0fe 2b3d 06c5 99bd c448 eb3d
00000290: d05d 0dbd 061c 813d a4e7 c13d cb2f 12be
000002a0: e83f f8bc a642 2ebd d8e7 193d 00a7 98bb
000002b0: e0f1 493d ba3f 8cbd 944b 193d b385 89bd
000002c0: 90a6 4cbc 0c70 36bd 08df e3bc aa8f 113e
000002d0: 4025 f83b 4231 0bbe 4a47 55bd c41f 933d
000002e0: 0987 07be 104d b6bc c825 ac3c 6778 94bd
000002f0: e0ea 933b 2e98 943d 78dd 06be e3be cabd
00000300: 093b eebd 26db f03c 6c3a 0d3e 8eaf 4bbd
00000310: e6be 79bd 11fd 8dbd 0f90 733d 7804 bc3c
00000320: a6bb 753c b97f 03be d46e 01be 95ee 0b3d
00000330: cc6f 0abe 964e b7bd e08c 2ebc e1ae 12be
00000340: 8055 c83a d220 d43d 00ad 01be 0a9e 3abd
00000350: 8ed2 e6bd 467a cd3c 9b63 90bd e483 07bd
00000360: d8bc 453d 6aff a1bd ec01 2abd fd63 4b3c
00000370: 5970 dd3d f77a d83d 40ca 5cbb 58a0 603d
00000380: 0893 933c 0b29 0d3e 134b 48bc cf0f a4bc
00000390: a173 c6bd be0e 083e 0a5e 8d3d d059 9c3d
000003a0: 7ecf 0f3e 6906 a4bd 5c49 dfbd 2265 3fbd
000003b0: 0573 8eba 4e83 c53d ff2c 893d 573c b1bd
000003c0: c00b f03d 8005 96ba f872 f1bc c641 b13d
000003d0: 9472 aebc de18 aebd f16e 06be 0098 4dba
000003e0: 50e1 023d 34fc 0b3d f5a4 96bd 1066 cf3d
000003f0: 6b41 87bd 4090 bf3d 7054 aa3c a283 ebbd

fc3.bias f4 [96]
-0.08403232 0.12821527 0.0479922 -0.033386342 -0.09321837 0.07394533 -0.13913544 0.08472713
0.10852067 -0.13144727 -0.13727872 -0.0863082 0.009504973 -0.07488897 -0.040935107 -0.012442708
0.05553835 -0.11401136 0.09299771 -0.011499509 -0.0514926 0.09866072 0.08710469 0.020565389
0.060354535 0.0153546445 -0.11333165 0.107239276 -0.116102606 -0.039803736 0.020334465 -0.03291375
0.04487443 -0.14002682 0.009841495 -0.03583863 0.03975144 -0.022336671 -0.06890295 -0.11687699
0.035235625 0.04906247 -0.010859042 -0.05538498 0.009533065 0.03413804 0.09894988 -0.058017302
-0.06734432 -0.060890555 -0.10156562 -0.1330253 0.008222704 0.11753461 -0.14413077 -0.07773268
-0.03281065 -0.067846544 0.01058759 -0.020119857 -0.056453016 0.0036991476 0.09330551 -0.027544256
-0.036817852 -0.047704056 -0.114572264 0.05236236 0.120969504 0.025866125 0.023285773 -0.108808845
0.12794004 -0.029587204 0.113779485 -0.006499138 -0.101466864 0.09172218 0.081377976 0.03995706
0.11498213 -0.13953722 -0.057711896 0.109088525 -0.048468903 0.055626795 0.1038279 0.114643976
-0.10333002 0.109878935 -0.09874573 0.12071131 -0.022550628 -0.12941974 0.074309155 -0.10162962
00000000: 2319 acbd dd4a 033e 7893 443d 1ec0 08bd
00000010: 46e9 bebd a670 973d 8579 0ebe 6b85 ad3d
00000020: 1640 de3d 1d9a 06be cb92 0cbe 5bc2 b0bd
00000030: bfba 1b3c 635f 99bd 92ab 27bd 80dc 4bbc
00000040: 2e7c 633d ca7e e9bd 9575 be3d 7068 3cbc
00000050: e8e9 52bd a20e ca3d f263 b23d bf78 a83c
00000060: 5136 773d 0c92 7b3c 6d1a e8bd 44a0 db3d
00000070: 34c7 edbd 3e09 23bd 7794 a63c 91d0 06bd
00000080: 40ce 373d 3163 0fbe 393e 213c 87cb 12bd
00000090: 68d2 223d 65fb b6bc fd1c 8dbd 345d efbd
000000a0: 3b53 103d bbf5 483d 20ea 31bc 5cdb 62bd
000000b0: 9330 1c3c 54d4 0b3d 3ca6 ca3d 8da3 6dbd
000000c0: d2eb 89bd 6068 79bd a301 d0bd c937 08be
000000d0: 85b8 063c fcb5 f03d 0497 13be 5032 9fbd
000000e0: 7664 06bd 21f3 8abd 9277 2d3c 66d2 a4bc
000000f0: 473b 67bd 666d 723b f616 bf3d 7ea4 e1bc
00000100: 51ce 16bd 5465 43bd dda4 eabd ea79 563d
00000110: dcbe f73d 32e5 d33c cec1 be3c 2cd7 debd
00000120: b702 033e dd60 f2bc 3805 e93d b9f6 d4bb
00000130: dccd cfbd d7d8 bb3d 7fa9 a63d 04aa 233d
00000140: c07b eb3d d8e2 0ebe 4f63 6cbd ce69 df3d
00000150: 5487 46bd ecd8 633d b9a3 d43d 76ca ea3d
00000160: b19e d3bd 3508 e13d 343b cabd 7e37 f73d
00000170: 18bc b8bc 9c86 04be 662f 983d 3123 d0bd

fc4.weight f4 [48, 96]
0.06761137 0.09241424 -0.05021534 0.08082485 -0.03041253 0.008150391 0.04252729 0.0036922186
0.009267009 -0.04398909 -0.035081387 -0.061711814 0.05326203 -0.04033982 -0.03582877 0.029391438
0.053646326 -0.056608617 0.02859118 0.017096542 0.0047521302 -0.05074753 -0.09873619 0.07406907
0.0784993 -0.06799104 0.0034147978 -0.10075026 0.025404064 0.05802355 0.060124177 0.027833832
0.020137072 0.016211715 0.06790029 -0.054580253 -0.0152545385 -0.08238184 -0.051833168 -0.06881636
-0.023144975 -0.057015195 0.018559868 0.04890562 0.08332685 0.0210822 0.002393384 0.007345412
0.10068874 -0.0003717823 0.011932136 -0.050731834 -0.012351941 0.0059196427 -0.060439043 0.015062332
-0.08692014 0.02937367 0.002804859 -0.015857447 0.037445966 -0.08271898 -0.05491475 -0.02214099
-0.02416342 0.09514196 0.09372334 -0.007852626 0.013356827 -0.0851872 -0.06578497 0.08163542
0.07426183 0.016503064 -0.025480619 -0.072007515 0.04520805 0.015518664 0.028847944 0.054052792
0.022860356 0.010110389 -0.011166402 0.07587118 0.046439365 0.02067991 0.06428401 -0.06889979
0.028715173 -0.082397036 -0.012485473 0.096669964 -0.007669419 0.028123882 -0.03306619 -0.06397609
-0.019167908 0.047393486 -0.0050576106 -0.0793339 -0.08673483 -0.025067002 -0.017341025 -0.06915614
-0.03926229 0.017050883 0.05153011 -0.07651299 0.014515755 -0.017110877 0.041346237 -0.080737926
0.09751653 -0.034841698 0.0027235525 0.015970886 0.05853154 -0.031529576 -0.07984145 0.061083168
-0.013868526 -0.07154421 -0.08136474 -0.06394039 -0.009968895 -0.045638815 -0.047490433 -0.09646577
-0.095511295 -0.09427491 -0.07073933 -0.09139471 -0.036680084 -0.019518826 0.047530517 -0.05508312
-0.044031642 -0.09261677 -0.055589624 -0.064792074 0.09021516 -0.09495699 -0.022991583 -0.06429215
-0.08053309 -0.072834454 0.008884295 -0.027976647 -0.019872997 -0.032773726 0.018372953 -0.029476075
-0.012854621 0.09601448 0.032432877 0.028641215 0.09438015 -0.030580543 0.012793824 -0.035629246
0.06488362 0.07240831 -0.0411933 0.093219325 0.035870224 -0.08354181 -0.05894915 0.0069418405
0.07700806 0.07076743 -0.084052965 0.04000206 0.07581326 0.0879789 0.08967938 0.019729009
-0.052578732 -0.08738522 0.01843913 0.06992198 -0.016073287 -0.06998098 0.005259868 0.08538713
0.058259487 0.089956306 -0.018615587 -0.023321576 0.027996346 0.0938282 -0.01278498 -0.025527343
-0.017974304 -0.03215097 -0.09404114 0.06617929 -0.056876045 -0.026108064 0.0688445 0.004455773
-0.0957975 -0.08004978 0.0229235 -0.007523708 0.01345596 0.022473847 0.05138202 0.077893645
-0.063235484 0.01150143 0.05797113 -0.060766734 0.011127731 0.05816409 0.049186796 0.01029538
0.011865921 -0.069664925 0.045696173 0.035787433 -0.033503853 0.08797484 -0.023829333 -0.025682984
-0.07020593 0.010545952 -0.07548416 -0.005787251 -0.065416545 0.080707215 0.07853284 0.054596968
-0.016647536 -0.09888704 0.044492364 0.012727379 -0.051093355 -0.042991422 -0.051212367 -0.101838894
0.003341563 0.026428552 -0.08339413 -0.038517185 0.08266198 0.05182703 -0.08506738 0.046417035
0.043438584 -0.081403896 0.004501085 0.0082918955 0.06873636 -0.00511061 0.053129256 -0.030423174
00000000: d477 8a3d ad43 bd3d 9aae 4dbd 8087 a53d
00000010: b323 f9bc 3889 053c 1831 2e3d 26f9 713b
00000020: a7d4 173c e72d 34bd 80b1 0fbd 87c5 7cbd
00000030: 4929 5a3d 5e3b 25bd 30c1 12bd 50c6 f03c
00000040: 40bc 5b3d 70de 67bd 0d38 ea3c 0c0e 8c3c
00000050: c2b7 9b3b a4dc 4fbd 3336 cabd 86b1 973d
00000060: 3ec4 a03d e33e 8bbd cdca 5f3b 2756 cebd
00000070: 2f1c d03c 1aaa 6d3d c544 763d c703 e43c
00000080: 80f6 a43c 6ece 843c 4f0f 8b3d 8b8f 5fbd
00000090: 2cee 79bc cfb7 a8bd 044f 54bd 97ef 8cbd
000000a0: 889a bdbc c488 69bd dd0a 983c 4251 483d
000000b0: 44a7 aa3d 94b4 ac3c 52da 1c3b c8b1 f03b
000000c0: e635 ce3d c7eb c2b9 017f 433c 2fcc 4fbd
000000d0: cc5f 4abc 90f9 c13b ee8e 77bd 00c8 763c
000000e0: 3003 b2bd 0da1 f03c bad1 373b 7ae7 81bc
000000f0: f160 193d 9268 a9bd 4aee 60bd 0561 b5bc
00000100: 5df2 c5bc cad9 c23d 06f2 bf3d 4da8 00bc
00000110: 98d6 5a3c a076 aebd 45ba 86bd 7930 a73d
00000120: 9616 983d 6f31 873c bbbc d0bc ad78 93bd
00000130: 142c 393d ff41 7e3c 8652 ec3c 7666 5d3d
00000140: a445 bb3c 0ca6 253c 49f3 36bc 5962 9b3d
00000150: 3437 3e3d ea68 a93c 56a7 833d 551b 8dbd
00000160: 153c eb3c c7bf a8bd df8f 4cbc e7fa c53d
00000170: c04f fbbb 0e64 e63c 6a70 07bd e505 83bd
00000180: 0406 9dbc ac1f 423d 50ba a5bb d079 a2bd
00000190: 08a2 b1bd 5059 cdbc c40e 8ebc bca1 8dbd
000001a0: 7fd1 20bd 4bae 8b3c 3d11 533d d8b2 9cbd
000001b0: 7dd3 6d3c 1c2c 8cbc ac5a 293d ed59 a5bd
000001c0: bfb6 c73d 2bb6 0ebd a17d 323b 60d5 823c
000001d0: c5be 6f3d 2825 01bd ea83 a3bd 5832 7a3d
000001e0: d038 63bc c585 92bd 8fa2 a6bd 2ef3 82bd
000001f0: 9454 23bc c4ef 3abd 5485 42bd d88f c5bd
00000200: 6d9b c3bd 3413 c1bd c8df 90bd 262d bbbd
00000210: db3d 16bd f2e5 9fbc 5caf 423d d69e 61bd
00000220: 865a 34bd dcad bdbd f2b1 63bd b5b1 84bd
00000230: bac2 b83d cf78 c2bd d858 bcbc 9aab 83bd
00000240: 88ee a4bd 3b2a 95bd 6f8f 113c 482f e5bc
00000250: b2cc a2bc be3d 06bd e082 963c cf77 f1bc
00000260: 309c 52bc 3da3 c43d 56d8 043d fba0 ea3c
00000270: 614a c13d 0c84 fabc 309d 513c f9ef 11bd
00000280: b4e1 843d cf4a 943d 4eba 28bd c6e9 be3d
00000290: a8ec 123d f817 abbd aa74 71bd 6178 e33b
000002a0: 67b6 9d3d 84ee 903d f623 acbd 33d9 233d
000002b0: fc43 9b3d 482e b43d d3a9 b73d bb9e a13c
000002c0: cc5c 57bd 06f7 b2bd a90d 973c 4133 8f3d
000002d0: 20ac 83bc 3052 8fbd f95a ac3b 73df ae3d
000002e0: 80a1 6e3d 033b b83d b77f 98bc e40c bfbc
000002f0: 9858 e53c 0029 c03d 1878 51bc b81e d1bc
00000300: d93e 93bc bcb0 03bd a498 c0bd 0289 873d
00000310: dbf6 68bd 94e0 d5bc 58fe 8c3d bc01 923b
00000320: 7b31 c4bd 24f1 a3bd 10ca bb3c 7089 f6bb
00000330: 6376 5c3c 131b b83c f475 523d b486 9f3d
00000340: 9b81 81bd 7e70 3c3c 2373 6d3d 8ae6 78bd
00000350: 1651 363c 783d 6e3d 1878 493d f4ad 283c
00000360: 4869 423c 7cac 8ebd e92b 3b3d d895 123d
00000370: 563b 09bd 272c b43d bc35 c3bc 1f65 d2bc
00000380: 20c8 8fbd eec8 2c3c 7097 9abd fba2 bdbb
00000390: 1cf9 85bd d349 a53d d3d5 a03d 12a1 5f3d
000003a0: 6a60 88bc 4a85 cabd a03d 363d 7f86 503c
000003b0: 4447 51bd c617 30bd 0fc4 51bd e990 d0bd
000003c0: 20fe 5a3b b180 d83c 8bca aabd 32c4 1dbd
000003d0: af4a a93d 9448 543d ce37 aebd ca1f 3e3d
000003e0: a8ec 313d 16b7 a6bd d67d 933b bbda 073c
000003f0: a6c5 8c3d e776 a7bb 109e 593d 053a f9bc

fc4.bias f4 [48]
0.0992194 -0.043217976 0.03683092 -0.08392119 -0.068935126 -0.047481373 -0.08424368 -0.07704567
0.03130325 -0.0654487 0.05999349 -0.034008063 -0.06694693 0.101036064 0.03875054 -0.040880084
-0.0604879 -0.06202871 -0.016561426 0.06480673 0.0020385727 -0.0251067 -0.019535817 0.03634924
-0.076756224 0.04511046 0.011835225 -0.056306086 -0.022813248 -0.008974984 -0.08033998 -0.065472424
0.014724774 -0.06473396 -0.03229488 0.029331096 0.05534147 -0.04402112 -0.00086093746 0.08782888
0.015980162 0.07390639 0.08923866 -0.044825528 0.07966664 0.03479837 -0.039001796 -0.024199972
00000000: 8a33 cb3d 5505 31bd 05dc 163d dfde abbd
00000010: dc2d 8dbd d47b 42bd f387 acbd 1fca 9dbd
00000020: d637 003d f809 86bd bcbb 753d 0a4c 0bbd
00000030: 791b 89bd ffeb ce3d e3b8 1e3d e071 27bd
00000040: 29c2 77bd d111 7ebd d4ab 87bc 64b9 843d
00000050: 9399 053b 91ac cdbc 9409 a0bc f1e2 143d
00000060: 5e32 9dbd bfc5 383d 88e8 413c 36a1 66bd
00000070: d9e2 babc d00b 13bc 4a89 a4bd 6816 86bd
00000080: 2e40 713c 3d93 84bd a347 04bd c447 f03c
00000090: bdad 623d 7d4f 34bd 89b0 61ba a1df b33d
000000a0: d4e8 823c 3c5c 973d c2c2 b63d f99a 37bd
000000b0: 4328 a33d bc88 0e3d 59c0 1fbd 053f c6bc

fc5.weight f4 [24, 48]
0.043582942 -0.04870721 0.02891196 0.090231724 0.038096726 0.0013238899 -0.0388113 -0.03750468
0.027337937 0.02341511 -0.11792216 0.043423027 -0.10353845 0.033919387 0.10555857 -0.118710406
0.12045464 0.10043453 0.099099964 -0.024879219 0.09837153 -0.06432868 -0.12997505 -0.011938616
0.10070922 -0.112226136 -0.10593909 0.012343508 0.088235326 -0.0683781 0.034912348 -0.01609753
0.009257472 -0.07920919 0.1165072 0.10198993 -0.0090251975 -0.00036914647 0.08609385 0.09464162
0.108970374 -0.00082857907 -0.0007250458 -0.007284201 -0.09447171 0.031133475 0.059072565 -0.033135068
0.08804702 -0.06991596 0.03219557 0.004276558 0.06191336 -0.026000243 0.100033015 0.04113743
-0.11337015 -0.051928334 -0.062432677 -0.08977714 -0.10180453 -0.012902249 -0.04665695 0.044085026
-0.14237769 -0.061165404 -0.033815216 0.02850548 0.08252016 -0.06880724 -0.096793935 0.12971807
0.10132986 -0.0120176505 0.08026697 0.09603571 -0.0028410014 -0.035870083 -0.04941112 0.09777336
0.13332282 0.12183329 0.12916231 -0.041032195 0.05130722 -0.08540608 0.02285344 -0.015619587
-0.031326883 -0.0022172332 0.0594642 0.04113168 -0.0015410534 0.08895269 0.078221746 -0.1069869
0.12491526 -0.018310886 -0.11833994 -0.0042757345 0.11030402 0.084202774 0.12648624 0.02362491
-0.05889209 0.10194099 0.044849068 -0.141076 -0.060170926 -0.08550512 -0.08306744 0.108726546
0.00813593 0.00788161 -0.017878778 -0.08047728 0.04317289 -0.09219472 0.13657226 0.0997534
0.0372523 0.0638526 -0.074799486 0.14377251 -0.11420986 0.075000465 0.10562253 0.040136993
0.06093969 -0.12715507 -0.13911077 -0.070094064 0.02792867 -0.12275266 0.104865976 -0.04138812
-0.12137361 -0.08594619 -0.037317827 0.0019607279 0.019166095 -0.039049037 -0.081696674 -0.11269613
0.022206381 0.017974354 0.1209565 -0.0018059912 -0.027300604 -0.081621915 -0.089605324 -0.08068599
0.047019042 0.016703151 -0.031978346 -0.0528083 -0.13585526 0.04385097 -0.12559888 0.012021614
0.04305324 0.098868206 -0.015118006 -0.049062178 0.12889855 -0.07852227 -0.028246446 -0.117811985
-0.065263 0.060114298 0.06821409 -0.065270804 -0.03116657 0.104674175 -0.08191739 0.07089512
-0.01190167 -0.124125935 0.015534968 -0.04786269 0.046465673 -0.07330762 -0.14295842 0.123980656
-0.1346771 0.05728616 0.03761241 0.073348835 0.11949488 -0.0459017 -0.0011484383 0.033370778
-0.07170488 0.009520932 -0.11217676 -0.106268756 0.004986764 -0.09806296 -0.1316483 0.038170367
-0.08840563 0.11655774 -0.08815032 0.11315927 0.13819581 -0.0026186407 -0.05002314 -0.107298836
-0.04131776 -0.035298742 -0.083161086 -0.019369148 0.006818543 -0.01642485 0.038638026 -0.11271613
0.1299288 -0.027895024 -0.03347549 -0.063572034 -0.10429413 -0.06971228 0.068489656 -0.0970197
0.107375026 0.13035375 0.01842615 0.0539395 -0.065989256 -0.13325079 -0.09336393 -0.06327738
-0.1417973 0.07289247 -0.13338807 0.07169499 -0.0065173744 -0.121370874 0.11020185 0.1277914
0.020973258 0.07586428 -0.11808393 -0.07920422 -0.06748422 0.098541185 -0.006041375 -0.09042748
-0.1242556 -0.13570602 -0.07915574 0.12653801 0.07541622 -0.09278206 0.0972004 0.102752835
00000000: 0784 323d 3681 47bd c6d8 ec3c 69cb b83d
00000010: 500b 1c3d 6086 ad3a 99f8 1ebd 829e 19bd
00000020: cff3 df3c 0bd1 bf3c 2c81 f1bd 58dc 313d
00000030: f80b d4bd 0eef 0a3d 172f d83d 711e f3bd
00000040: ecb0 f63d 9eb0 cd3d ecf4 ca3d 81cf cbbc
00000050: 0377 c93d c1be 83bd 2e18 05be 2f9a 43bc
00000060: a340 ce3d d1d6 e5bd 98f6 d8bd 6d3c 4a3c
00000070: b9b4 b43d d109 8cbd 4000 0f3d f8de 83bc
00000080: a7ac 173c 6e38 a2bd 549b ee3d 19e0 d03d
00000090: 6cde 13bc 008a c1b9 f951 b03d 77d3 c13d
000000a0: dc2b df3d 0035 59ba 0011 3eba 4fb0 eebb
000000b0: 627a c1bd a10b ff3c 13f6 713d a3b8 07bd
000000c0: ff51 b43d 1930 8fbd 81df 033d 5e22 8c3b
000000d0: dd98 7d3d 76fe d4bc 1cde cc3d b97f 283d
000000e0: 9c2e e8bd ceb2 54bd 68b9 7fbd 14dd b7bd
000000f0: e57e d0bd f463 53bc 5c1b 3fbd 8092 343d
00000100: 75cb 11be 9388 7abd d381 0abd 5384 e93c
00000110: 5400 a93d cfea 8cbd e63b c6bd d0d4 043e
00000120: 0886 cf3d aee5 44bc 0263 a43d 5fae c43d
00000130: 1830 3abb 82ec 12bd 5163 4abd 663d c83d
00000140: c785 083e bb83 f93d 2043 043e 6011 28bd
00000150: 8527 523d 62e9 aebd 2337 bb3c 4ce9 7fbc
00000160: 9e50 00bd 004f 11bb bc90 733d b179 283d
00000170: 2cfd c9ba d42c b63d b932 a03d f31b dbbd
00000180: 92d3 ff3d b600 96bc 365c f2bd 761b 8cbb
00000190: 13e7 e13d 8172 ac3d 9c85 013e 0789 c13c
000001a0: d538 71bd 70c6 d03d a8b3 373d 3a76 10be
000001b0: ca75 76bd 4f1d afbd 431f aabd 06ac de3d
000001c0: 904c 053c de21 013c 8476 92bc 46d1 a4bd
000001d0: 0ed6 303d 96d0 bcbd 99d9 0b3e 834b cc3d
000001e0: de95 183d 27c5 823d 7930 99bd 1a39 133e
000001f0: dce6 e9bd d899 993d a050 d83d b066 243d
00000200: e59b 793d f034 02be 0e73 0ebe 7a8d 8fbd
00000210: abca e43c bf65 fbbd f9c3 d63d 9786 29bd
00000220: ba92 f8bd 8e04 b0bd 94da 18bd 8e7f 003b
00000230: 3702 9d3c e2f1 1fbd 9650 a7bd 3bcd e6bd
00000240: 28ea b53c f43e 933c 0bb8 f73d 02b7 ecba
00000250: 84a5 dfbc 6429 a7bd ff82 b7bd b23e a5bd
00000260: 0a97 403d 0cd5 883c bafb 02bd 844d 58bd
00000270: a41d 0bbe 139d 333d fe9c 00be 4ef6 443c
00000280: 9858 303d 6a7b ca3d 83b1 77bc 6cf5 48bd
00000290: fbfd 033e 49d0 a0bd 1765 e7bc 6947 f1bd
000002a0: 9ca8 85bd 693a 763d d4b3 8b3d b3ac 85bd
000002b0: 0951 ffbc 6a5f d63d 4ec4 a7bd 7631 913d
000002c0: 39ff 42bc bd35 febd 6186 7e3c ab0b 44bd
000002d0: ca52 3e3d 4e22 96bd b163 12be 92e9 fd3d
000002e0: cbe8 09be e4a4 6a3d 780f 1a3d ea37 963d
000002f0: bbb9 f43d 6c03 3cbd 3287 96ba ccaf 083d
00000300: 02da 92bd affd 1b3c eebc e5bd 6fa3 d9bd
00000310: 0268 a33b 3cd5 c8bd d0ce 06be 8858 1c3d
00000320: 030e b5bd d3b5 ee3d 2888 b4bd 0cc0 e73d
00000330: 3483 0d3e 809d 2bbb 10e5 4cbd 7ebf dbbd
00000340: d03c 29bd 6a95 10bd 5c50 aabd 0cac 9ebc
00000350: 166e df3b 688d 86bc e842 1e3d b7d7 e6bd
00000360: 0e0c 053e 1b84 e4bc 981d 09bd 0e32 82bd
00000370: 2998 d5bd 50c5 8ebd 4e44 8c3d 44b2 c6bd
00000380: 70e7 db3d 747b 053e 70f2 963c aaef 5c3d
00000390: 6025 87bd e572 08be 9735 bfbd 9297 81bd
000003a0: 5033 11be a648 953d e296 08be d3d4 923d
000003b0: b38f d5bb 4b91 f8bd 82b1 e13d c0db 023e
000003c0: 1cd0 ab3c bb5e 9b3d fdd5 f1bd d235 a2bd
000003d0: 2b35 8abd f6cf c93d baf6 c5bb 0b32 b9bd
000003e0: b879 febd 85f6 0abe 681c a2bd 2e93 013e
000003f0: d273 9a3d 8504 bebd 0111 c73d 1470 d23d

fc5.bias f4 [24]
-0.124720834 0.057317127 0.13852464 0.096364014 0.13857962 0.14153379 0.03925257 -0.021056857
-0.14215751 0.06759422 -0.105988726 0.012504965 0.0052871704 0.02422853 0.04151824 0.038374122
0.035652667 0.0058817994 -0.016726524 0.04731746 -0.117881455 -0.14395715 0.065186016 -0.019006552
00000000: a36d ffbd 5dc5 6a3d 67d9 0d3e 7f5a c53d
00000010: d1e7 0d3e 3cee 103e 4ec7 203d 6e7f acbc
00000020: bd91 11be d76e 8a3d 9e10 d9bd a0e1 4c3c
00000030: 0040 ad3b e97a c63c 080f 2a3d 2f2e 1d3d
00000040: 8808 123d 1cbc c03b 1006 89bc f4cf 413d
00000050: d56b f1bd 8169 13be 3f80 853d a1b3 9bbc

fc6.weight f4 [5, 24]
0.18722114 0.000741054 0.09803894 -0.021394648 -0.17962067 -0.11493846 -0.17461084 -0.092497826
0.09527963 0.06893235 -0.087834574 -0.001889497 -0.011954248 -0.048936218 -0.076917745 -0.10834619
-0.13069907 -0.07432049 -0.19748007 -0.060722977 0.045958113 0.115269855 0.0586904 0.117748454
-0.09066882 0.0056543634 0.08540075 -0.05057612 -0.04254668 -0.026639959 -0.143439 -0.11808764
-0.18488571 -0.036375295 -0.132577 -0.04221891 -0.1265777 -0.11814576 0.1885077 0.16942623
0.025938008 0.023427362 0.104549944 -0.09556837 0.019286644 -0.10455568 -0.17956549 0.19672476
0.16437611 0.038451266 -0.164247 0.10287051 -0.052449793 -0.16376178 -0.14398058 0.019188005
-0.018952513 0.08690396 0.052101973 -0.12126016 0.05644864 -0.18761347 0.080836385 0.15906478
-0.15909934 -0.15363476 0.15134764 0.15834999 0.18097003 0.110074595 0.09226104 0.14970604
0.15487055 -0.114297524 -0.098373435 -0.10037442 0.0064094663 -0.055864714 0.08718379 -0.12354906
-0.07366086 0.1682114 0.18925402 -0.05947435 0.20030767 0.098849244 -0.123767175 -0.17863981
-0.12470932 -0.106625766 0.09578061 0.09167358 -0.023099592 0.16756761 -0.20273596 -0.037558187
0.06233225 -0.15779331 -0.09983949 0.08784008 -0.12743044 -0.02285752 -0.14004411 0.045655325
0.09644379 0.1018094 -0.17427678 0.0065480173 0.18206042 0.052393395 0.11606257 0.15253824
0.100701034 0.17774831 0.06451711 0.10635018 0.015263462 -0.079233594 0.11839448 0.16867934
00000000: e6b6 3f3e 4b43 423a a4c8 c83d d443 afbc
00000010: 7bee 37be db64 ebbd 2fcd 32be 806f bdbd
00000020: f721 c33d 672c 8d3d 9de2 b3bd 00a9 f7ba
00000030: c0db 43bc 5871 48bd 0d87 9dbd 9be4 ddbd
00000040: fad5 05be 5735 98bd 3738 4abe a8b8 78bd
00000050: 933e 3c3d 9a12 ec3d 5865 703d 1a26 f13d
00000060: 93b0 b9bd 3d48 b93b 97e6 ae3d e828 4fbd
00000070: 6d45 2ebd 0b3c dabc ace1 12be efd7 f1bd
00000080: ae52 3dbe 43fe 14bd 44c2 07be bced 2cbd
00000090: 969d 01be 67f6 f1bd 2a08 413e 127e 2d3e
000000a0: f27b d43c bdea bf3c 481e d63d 59b9 c3bd
000000b0: 06ff 9d3c 4a21 d6bd 04e0 37be 3772 493e
000000c0: 3652 283e 137f 1d3d 5e30 28be c6ad d23d
000000d0: 98d5 56bd 2bb1 27be a56f 13be 2a30 9d3c
000000e0: 4d42 9bbc b4fa b13d e168 553d 3f57 f8bd
000000f0: b036 673d bf1d 40be 8c8d a53d e1e1 223e
00000100: f0ea 22be 6e52 1dbe e0fa 1a3e 8026 223e
00000110: 3550 393e ca6e e13d 5bf3 bc3d 8a4c 193e
00000120: 6396 1e3e d214 eabd 0378 c9bd 1b91 cdbd
00000130: 8006 d23b 66d2 64bd 6a8d b23d 4a07 fdbd
00000140: 81db 96bd 9c3f 2c3e cecb 413e 609b 73bd
00000150: 741d 4d3e 7971 ca3d a579 fdbd 5bed 36be
00000160: 9a67 ffbd 9c5e dabd a028 c43d 5cbf bb3d
00000170: 5b3b bdbc d896 2b3e 049a 4fbe 9dd6 19bd
00000180: 1a50 7f3d 9294 21be a678 ccbd 80e5 b33d
00000190: 207d 02be b23f bbbc b967 0fbe 1401 3b3d
000001a0: 5284 c53d 7281 d03d 9d75 32be c090 d63b
000001b0: 0c6e 3a3e 759a 563d 36b2 ed3d fc32 1c3e
000001c0: 583c ce3d a703 363e 8c21 843d 20ce d93d
000001d0: 9a13 7a3c 3945 a2bd ce78 f23d 47ba 2c3e

fc6.bias f4 [5]
-0.13034308 0.009062809 -0.16958654 0.044410236 0.17616852
00000000: a878 05be 2d7c 143c 18a8 2dbe 82e7 353d
00000010: 8565 343e

fc1.weight f4 [24, 10]
0.22743246 -0.020212144 0.05287087 0.015412241 0.20657304 -0.19757578 -0.12319851 -0.27494153
0.013599366 -0.28421217 -0.033276916 -0.044917494 0.15686727 -0.19553122 -0.2913123 -0.30123246
0.01780492 -0.18593666 -0.01660648 -0.11225574 0.24928567 0.123250574 -0.23756883 0.26709804
-0.14066716 -0.18002656 0.2929134 0.16132313 0.28370884 -0.022951305 0.28156623 -0.31024492
0.3036488 -0.02666539 0.109135866 -0.26803064 -0.27954257 0.03474447 -0.09625946 0.2709246
0.20224443 0.25802025 0.18178102 0.16290712 -0.24880567 0.29912832 -0.2049385 0.1439307
0.015525848 -0.24263866 0.13592145 -0.27914414 -0.28729144 -0.106816396 -0.28721905 0.016652197
-0.14378932 0.27187708 -0.17376614 -0.04352498 -0.28608543 -0.1068818 -0.20892635 0.23048577
-0.108502895 0.049220145 0.017752469 -0.17887713 -0.30983114 -0.033246785 0.2892281 -0.22495192
-0.10060644 0.17149574 -0.088034555 0.3089564 -0.009477735 -0.129372 0.14784622 0.11546552
-0.26900846 -0.054232627 0.028398335 0.3049645 0.16784456 0.2652444 0.14610061 -0.16075028
-0.15463042 0.16693825 -0.19867921 -0.032375425 -0.12834874 -0.2893515 -0.30160928 0.15421629
0.2404317 0.04255992 0.28591916 0.094533294 -0.03370583 0.084156096 -0.29842854 0.042307585
-0.2869689 0.124616385 -0.1151806 0.26086083 -0.26529363 -0.1427724 -0.065716535 0.24791458
0.09928334 0.14366823 0.14811614 0.25280252 0.2896717 0.10062277 -0.2919773 -0.100316435
0.061390966 0.21098176 0.1394867 -0.111734614 -0.13383932 0.04900548 0.06309098 0.050495
0.12102631 0.29556403 0.29809585 -0.13770784 0.23285607 -0.24588552 -0.28543174 -0.31372985
-0.29638135 -0.11836563 -0.05426669 0.24693105 -0.0017420053 -0.054608107 -0.2167781 0.24327096
0.12796155 0.1542348 0.00048211217 -0.28338957 -0.2882337 0.028003246 0.25209334 -0.2122438
-0.03320995 0.12545225 0.12732327 -0.22261617 0.26065162 0.24842438 -0.087822095 0.17167705
-0.048874468 0.23981586 0.044934154 -0.18250369 -0.07329133 -0.21956405 -0.19948491 0.0061504543
-0.05322367 -0.1727753 0.023398966 -0.022816986 -0.2947571 -0.12357405 -0.108291835 -0.016532779
-0.074006826 0.29095927 -0.11416115 -0.27936178 0.11394289 0.031451464 -0.27784824 -0.27368763
-0.008208513 0.22872284 0.04671064 0.06929731 -0.23451829 -0.28219935 -0.28868628 0.1872082
0.23261389 -0.108569205 -0.15222436 0.29777315 0.13635841 -0.064564705 0.30970147 -0.11988525
0.31138334 -0.24747297 0.24075559 -0.015330911 -0.074787274 -0.13692544 -0.19054203 -0.21778956
0.19246289 0.18843195 -0.10558644 -0.27480558 0.2662424 0.096413136 0.12094462 0.13669589
0.19411638 0.21352538 0.26001444 -0.20782518 0.14708817 -0.23764585 0.1960167 0.05227208
-0.02118206 0.02245918 0.12162727 0.04289782 -0.14655514 0.26999184 -0.060863316 -0.014190704
0.123253465 0.044329822 -0.24330406 -0.24478689 0.12167421 0.012320101 -0.19987471 0.09735966
00000000: 0ee4 683e f093 a5bc 208f 583d a083 7c3c
00000010: e287 533e 4e51 4abe 804f fcbd 23c5 8cbe
00000020: e0cf 5e3c 4284 91be 604d 08bd 68fb 37bd
00000030: d0a1 203e 5639 48be e326 95be 243b 9abe
00000040: a0db 913c 2e66 3ebe 500a 88bc 56e6 e5bd
00000050: be44 7f3e cc6a fc3d 3e45 73be 13c1 883e
00000060: 0d0b 10be e258 38be bff8 953e e431 253e
00000070: 4942 913e 6004 bcbc 7329 903e 6cd8 9ebe
00000080: db77 9b3e 6071 dabc a082 df3d 503b 89be
00000090: 3420 8fbe 3850 0e3d ae23 c5bd a1b6 8a3e
000000a0: 2a19 4f3e 3b1b 843e ce24 3a3e 20d1 263e
000000b0: eac6 7ebe 5927 993e 66db 51be 9262 133e
000000c0: 2060 7e3c 4576 78be fe2e 0b3e fbeb 8ebe
000000d0: dd17 93be 8ec2 dabd 600e 93be 306a 883c
000000e0: 823d 13be 7933 8b3e c0ef 31be 4047 32bd
000000f0: ca79 92be d8e4 dabd caf0 55be 7604 6c3e
00000100: c436 debd 109b 493d a06d 913c 912b 37be
00000110: 30a2 9ebe c82d 08bd b515 943e cc59 66be
00000120: c00a cebd 949c 2f3e 764b b4bd 892f 9e3e
00000130: 8048 1bbc 187a 04be 0065 173e 3079 ec3d
00000140: 7abb 89be 0823 5ebd a0a3 e83c 4f24 9c3e
00000150: 72df 2b3e 1dce 873e 669b 153e b99b 24be
00000160: 7057 1ebe dcf1 2a3e 9072 4bbe 189c 04bd
00000170: da6d 03be e125 94be 886c 9abe e0ea 1d3e
00000180: ba33 763e 5053 2e3d ff63 923e ac9a c13d
00000190: 200f 0abd 085a ac3d a0cb 98be b84a 2d3d
000001a0: 96ed 92be e036 ff3d cee3 ebbd 8d8f 853e
000001b0: 91d4 87be ee32 12be 6496 86bd 52dd 7d3e
000001c0: 1055 cb3d c41d 133e c2ab 173e 556f 813e
000001d0: d94f 943e 5013 ce3d 0c7e 95be b472 cdbd
000001e0: 1875 7b3d 9a0b 583e 9ad5 0e3e 1ed5 e4bd
000001f0: 2d0d 09be f8b9 483d d835 813d d8d3 4e3d
00000200: a4dc f73d 2b54 973e 05a0 983e 4903 0dbe
00000210: d271 6e3e 6ac9 7bbe 1c24 92be 33a1 a0be
00000220: 4cbf 97be ae69 f2bd c046 5ebd 7edb 7c3e
00000230: 0054 e4ba c0ac 5fbd 14fb 5dbe 061c 793e
00000240: 5a08 033e baef 1d3e 00c4 fc39 7018 91be
00000250: 5e93 93be 1067 e53c 6112 813e 7056 59be
00000260: 2807 08bd 8e76 003e 0861 023e 7ef5 63be
00000270: 2174 853e f662 7e3e 12dc b3bd 1ccc 2f3e
00000280: 9830 48bd 4a92 753e e00c 383d 3fe2 3abe
00000290: c419 96bd 66d5 60be c645 4cbe c089 c93b
000002a0: 1001 5abd 02ec 30be 30af bf3c b0ea babc
000002b0: 67ea 96be 6414 fdbd 1cc8 ddbd c06f 87bc
000002c0: e490 97bd 9df8 943e 52cd e9bd 8208 8fbe
000002d0: e45a e93d 40d3 003d 2042 8ebe c920 8cbe
000002e0: 007d 06bc 5236 6a3e a853 3f3d c0eb 8d3d
000002f0: 9025 70be 6f7c 90be b0ce 93be 82b3 3f3e
00000300: 5632 6e3e 8859 debd b4e0 1bbe b975 983e
00000310: 8aa1 0b3e 803a 84bd 3191 9e3e 6686 f5bd
00000320: a36d 9f3e 8e69 7dbe a288 763e 802e 7bbc
00000330: 122a 99bd 2f36 0cbe 731d 43be 3a04 5fbe
00000340: fe14 453e 4ef4 403e b43d d8bd 51b3 8cbe
00000350: ed50 883e 4074 c53d d0b1 f73d 02fa 0b3e
00000360: 72c6 463e 66a6 5a3e 9d20 853e 20d0 54be
00000370: 489e 163e 6f59 73be 9ab8 483e 401b 563d
00000380: 0086 adbc 50fc b73c b817 f93d a0b5 2f3d
00000390: 8d12 16be 5f3c 8a3e d04b 79bd 2080 68bc
000003a0: 506c fc3d 3093 353d b324 79be 6aa9 7abe
000003b0: 5430 f93d 40da 493c f5ab 4cbe 8064 c73d

fc1.bias f4 [24]
0.15234786 -0.014368683 -0.24673972 -0.2566904 0.081368566 0.30458298 -0.17881033 0.265245
0.14229599 -0.22615111 -0.26247057 -0.2335186 0.29483363 -0.27052408 -0.2608682 -0.24721348
-0.027201653 -0.13505392 0.05796185 -0.29817876 0.068033874 0.069900006 0.29249802 -0.26478368
00000000: 1401 1c3e a06a 6bbc 56a9 7cbe ed6c 83be
00000010: 90a4 a63d 4df2 9b3e 0e1a 37be 31ce 873e
00000020: 0ab6 113e 2894 67be 8b62 86be 801f 6fbe
00000030: 6ff4 963e 2282 8abe 8490 85be 8825 7dbe
00000040: 00d6 debc 934b 0abe 6869 6d3d e3aa 98be
00000050: 5855 8b3d bc27 8f3d 4dc2 953e ba91 87be
