saved_models/pytorch_dqn_model_16.04;23.32_-27.pt (torch, 213794 bytes, 48 tensors)

fc1.weight f4 [24, 10]
00000000: 353f 0f3e 40d2 1a3a 7db4 98bc bb2b f63b
00000010: 59f6 66be 73f8 163c eaaf b2bd a03d 3a3e
00000020: f508 3d3e 0763 15bd 9dcd 94bd 3471 4dbe
00000030: d510 87be fa95 9bbe fd8b 923e 32e3 82be
00000040: 6a99 3d3e d6b9 ebbd 43d0 ae3d b183 5abd
00000050: 4b1e b0bd 5fdc bb3d 3fb5 c1bd 30ac b83d
00000060: 7a1b 10be d906 8fbe 2d6f 563d 0425 223b
00000070: ac9c 4f3e 64a6 93be 0f67 a1be 6037 6f3e
00000080: 1520 bbbd 30a7 873e 4ef9 b2bd c042 523e
00000090: a132 343e 0e85 24bc 1921 45be 1d5d e1ba
000000a0: 2e18 59be 5a7b a0be d13e f0bd f7f7 43be
000000b0: 984a 9bbe 6d08 943e d31b 6d3e 42e3 03be
000000c0: 35b5 be3c a834 913e 409b 99bc 88c5 213e
000000d0: 46f5 95be d7e9 94be d428 a7bd 047d 89be
000000e0: 03d5 10be f4aa 90bd a02a 013d 2a03 e5bd
000000f0: 3434 713e 38ae 8dbe 90ea aa3d fc18 8abe
00000100: 929e ba3d 876f 8c3e 1db2 35bd 0cd4 993e
00000110: e784 283e b133 ce3d c514 86be e8e0 8dbd
00000120: b35f 683e d4c8 06be f6fe c3bc a914 8e3e
00000130: 88d5 0dbe b29c 45bd c570 b5bd 65a8 623d
00000140: d25b 4abe 4212 bdbd 4f2c 05be 4a31 76be
00000150: e5aa 26be b330 96be 6b92 84be 40f0 dd3c
00000160: 50bd 78bd 2c28 e13d ad57 7d3d 48ba 63be
00000170: e301 41be d4a9 babd 562b 983e a90f 87be
00000180: 8ee1 f5bd 9e26 8cbe 9fd2 ac3d 7f36 5fbe
00000190: 321b 223e f31f 063e c80f 263e 11f5 81be
000001a0: 6786 1bbe 09da 0a3e 9b40 9cbe 5549 98be
000001b0: 05e5 0a3d 0b9f 893e e381 9e3e 9f35 28be
000001c0: 557a ea3d bb76 733e 5a5d f5bd c044 313e
000001d0: ee1d 27be da5f 163e 50d4 fe3d 2a8b 153e
000001e0: 90db 363e d8ec a13e 59e1 d63c 46b5 5b3e
000001f0: dab6 c93d 56c2 f7bd 899e 9fbe a9a7 973e
00000200: 4959 99be 0870 05bd bf9a 96be 6bc1 c9bd
00000210: 0ace 0ebe 3aac 08be 8e7a a13d 0f78 95be
00000220: c4c2 903e 93e3 0b3e 3cdd bcbd 99e6 bc3d
00000230: bde9 70bb 3f57 ffbd 84dd 173e cd81 5abe
00000240: ee1e 3c3e 37c5 223e bf45 96be d182 4c3e
00000250: 1f70 8dbd 7800 36be 15fb ed3d b520 4e3d
00000260: 8f5b 0fbd 4614 b53d 3092 fabc dbe0 8ebe
00000270: ed80 1e3e 5729 2abe ac72 8ebd 81d9 4c3e
00000280: 71fe 683e 8e95 883e d731 1a3d 7500 73be
00000290: 208e 1d3d dc96 463c ed74 973c 9c9a 69be
000002a0: 016a 003d 3e09 433e eb04 523d bd3d 9d3e
000002b0: e06c 5cbe b4f8 713e fa30 893d aec8 4a3e
000002c0: 228b 623e 4d37 bbbd 475b d1bc ad24 90be
000002d0: dc51 92be 2f28 6a3e 51a6 363e dd52 fbbd
000002e0: c91f 1fbe 0a8b d73d a340 ab3d 0ddc 8abe
000002f0: 2c41 35be 8f25 58be 6f0b 343d abe2 3b3e
00000300: 0298 e1bd d018 7fbd b1b6 11be d9bc 853d
00000310: e2b8 f1bc b68b 26bd 28b6 963d 576a 3e3e
00000320: f233 05bd 884a 37bc 3f4f 79be 479f 09be
00000330: 1247 f8bb 5222 5ebd 5db7 833c 6d4f 0cbe
00000340: 86d1 e53d 60fa a43d 894c 05be c490 2ebe
00000350: c216 4b3e e7b0 3bbe 04e3 9cbe 38ef 353d
00000360: d0a2 1bbe 0143 7fbe 7683 fcbd c635 50be
00000370: 626a de3d b7aa 6a3e 01e3 503e 02fd 993e
00000380: fd42 3e3d 10d8 d93d 314c c5bd 6c81 90bd
00000390: 79e2 3dbe 6eff 67bd 3a22 203e e34f 52be
000003a0: 093c fbbd a04f 8ebe 343b 903e d810 9f3e
000003b0: f05d fb3d 15ae 403e c1ef 9b3e 8b19 7bbd
0.13988955 0.00059059635 -0.018640751 0.0075125373 -0.22554912 0.009214508 -0.08724959 0.1818757
0.18460448 -0.036471393 -0.0726578 -0.20062715 -0.2638003 -0.3038786 0.28622428 -0.2556396
0.18515554 -0.11510055 0.085358165 -0.053348247 -0.08599528 0.09172892 -0.09458398 0.09017217
-0.14072981 -0.27934912 0.05235212 0.0024741301 0.2027461 -0.28837883 -0.3152394 0.23360968
-0.091369785 0.2649474 -0.08738957 0.20533276 0.17597438 -0.010041488 -0.19250907 -0.0017193888
-0.2120063 -0.3134411 -0.11730731 -0.1913756 -0.30330348 0.28912678 0.23155145 -0.1287966
0.023279766 0.28360486 -0.018750787 0.15798008 -0.2928869 -0.29084656 -0.08162084 -0.26853192
-0.14143758 -0.07063857 0.03153479 -0.11182244 0.2355507 -0.2767198 0.083455205 -0.26972187
0.09112276 0.2742884 -0.044359315 0.3004459 0.16456948 0.10068453 -0.2618772 -0.06927663
0.22692756 -0.13162547 -0.023925286 0.27750137 -0.13850987 -0.04824514 -0.088594 0.055336375
-0.19761589 -0.09231998 -0.13005184 -0.2404224 -0.16276129 -0.2933403 -0.25892958 0.0270921
-0.060727417 0.1099399 0.061851192 -0.2223903 -0.18848376 -0.091144234 0.29720563 -0.26379135
-0.12005912 -0.27373213 0.0843861 -0.21798132 0.15830687 0.13098125 0.16216958 -0.25382283
-0.15187989 0.13559736 -0.3051804 -0.29743448 0.033909816 0.26879153 0.3095847 -0.16426705
0.11449114 0.23775761 -0.11980696 0.17311382 -0.16320011 0.14685002 0.12442839 0.14603868
0.17857194 0.3162601 0.026230501 0.21455869 0.09849329 -0.120976135 -0.3117564 0.29620102
-0.29950932 -0.032577544 -0.29414937 -0.09851345 -0.13945785 -0.13346949 0.078847036 -0.2919316
0.28273594 0.13661031 -0.092218846 0.092236705 -0.0036760413 -0.12467813 0.14830595 -0.21338578
0.18371174 0.15895544 -0.29350087 0.19971777 -0.06906151 -0.17773616 0.11620156 0.05032416
-0.034999426 0.088417575 -0.030587286 -0.27905926 0.15478869 -0.16617332 -0.06955466 0.20004846
0.22753312 0.266766 0.037645187 -0.23730643 0.03846562 0.012120929 0.018488372 -0.22812885
0.031351093 0.19046494 0.05127422 0.30711165 -0.21525908 0.23630029 0.06698795 0.19803116
0.22123387 -0.09141407 -0.02555622 -0.2815298 -0.2857808 0.22866891 0.17836882 -0.12271664
-0.15539469 0.105245665 0.08361938 -0.2712101 -0.17700642 -0.21108077 0.043956216 0.18348186
-0.11015321 -0.062279522 -0.14229847 0.065301605 -0.029507104 -0.040660582 0.07358962 0.18595253
-0.032520242 -0.011187203 -0.24346636 -0.13439666 -0.0075768316 -0.05423195 0.016078645 -0.13702174
0.11221604 0.08055568 -0.13017477 -0.17047411 0.198329 -0.18329202 -0.3064195 0.04441759
-0.15198827 -0.24927904 -0.12329762 -0.20333013 0.10860135 0.22916685 0.20399095 0.30075842
0.046450604 0.10636914 -0.09633673 -0.07055935 -0.18543424 -0.05664008 0.15638056 -0.20538287
-0.1226731 -0.27795124 0.28170168 0.31067538 0.122737765 0.18816407 0.30456355 -0.061303657

fc1.bias f4 [24]
00000000: 3511 ccbd 716e 663e 9f05 c43c 0044 423e
00000010: 74f3 6f3e d885 0b3d 5b97 9e3e ea10 9c3e
00000020: b68f 9fbd 4663 80be c964 b23d ad89 903e
00000030: b871 8c3e 3f92 d3bd bdd8 6cbe cd45 6fbe
00000040: 6807 dabd bea2 90bc a4b9 9dbb b1cc 68be
00000050: ab5e 0cbe 1418 b93d e0ac 72be 685a 8d3e
-0.099642195 0.22503068 0.023928462 0.18971252 0.23432714 0.03406319 0.3097485 0.30481654
-0.077910826 -0.2507574 0.087106295 0.28230038 0.2743051 -0.103306286 -0.23129554 -0.2336647
-0.10645944 -0.017655727 -0.00481339 -0.22734334 -0.13707988 0.09037796 -0.23698759 0.27608037

fc2.weight f4 [48, 24]
00000000: 6050 823d 3dc7 493e ecd7 4abe 4bac f0bd
00000010: 13c4 98bd 323f f9bd 6d73 533d 8c11 92bd
00000020: fe60 46be 0c0f ed3d 9409 3b3d e89e 99bc
00000030: 8230 1abe 96f6 013e 55f9 1dbe 75b3 89bd
00000040: 0e4d 003e f6a6 a2bd 3e3b 373e 99e7 343e
00000050: 4e3f b8bd ff08 08be 5502 81bd bcff 993d
00000060: b5c6 333e 336d ba3d 2a4b 11be 5257 10be
00000070: d623 e5bc 8087 2b3d a5da 18be b191 a53d
00000080: a71b f0bd 2ab3 0d3e 3f61 6d3d 2af4 0c3e
00000090: 4daa c33b 32cc ac3c 8ee9 1cbc 27d0 313e
000000a0: ebe3 b53d d6b8 503d 46b7 8abd 6882 57bc
000000b0: b571 b7bd 4aa5 0ebe ed9e fb3d 9d84 173e
000000c0: d40a 3b3e 4cd9 b7bc 698e 55bd 63f6 8abd
000000d0: e3ad bc3d 2809 8bbd 1fc9 223e a3aa 1b3d
000000e0: 127f 27be 1331 523d 8842 95bc be85 a83d
000000f0: a85a 88ba 3add 153e 58af a5bd 2ead f6bc
00000100: 38e7 833d 1384 ecbc 9b91 983d bc79 7bbd
00000110: 924d 033e 587b a93c 5f2a 84bd c765 4a3d
00000120: 35de e1bd 3d7b 33be 80ab 54bd 6ef0 08be
00000130: 6012 083e 0863 da3d 7397 b53c 6cc4 2a3e
00000140: 9ae4 003e 257b 0dbe ec25 bd3d be88 49bc
00000150: 9852 803d e5eb 78bd 58fc ed3b 5e57 8cbc
00000160: ebc4 6abc 38fc 0f3e adb2 1ebd ecfc 8ebd
00000170: a10f 9b3c 1423 afbd 3fed 413e 18a1 cd3d
00000180: 8117 043e aacb 7abc 8480 d43d 8888 2c3e
00000190: 0292 013e 0b4d 07be 56da 933d 9324 e5bd
000001a0: f6c6 143e 3423 d53d 1419 fbbd 0c6a c23d
000001b0: e339 3abe f677 f2bd ce9e 40be 278f cebd
000001c0: fa8a b8bc b782 113e 73c5 20bd 2216 46be
000001d0: 978d 4f3e 48d5 52bd d39d 0ebe f2b7 07ba
000001e0: c26d 3abd 6441 d43d fdbb 133e 9b1e 393e
000001f0: 6d9e 4a3d 72d5 1dbe 4f02 e6bd 637c 193e
00000200: 4501 04be 84a5 3abd e257 223e 050e 913d
00000210: 97fb 13bd b365 17be 3773 e1bc d7fc 02be
00000220: c29c 4ebe 350c 273e c685 dbbd 99de febd
00000230: c3ef 533d 8e36 4b3e d6c7 06be ad1f 0f3e
00000240: 1ced 2f3e 9040 113e df99 023e c945 953b
00000250: e402 443e 54b9 b63d 22dc f03d 6324 75bd
00000260: cfee bcbd f831 953d 9469 09be d107 e0bc
00000270: 6085 453d 8474 8cbd c93d 60bb 00aa 48be
00000280: 5681 a0bd 781e f6bc 6bb7 18be 7649 d1bc
00000290: d6a0 3ebd f0ca 1bbe e6e7 e43d 3363 fcbc
000002a0: 0292 47bd 81df ab3d 5e9d eabd 889d 0a3e
000002b0: f3d7 36be 584f a43d dd7a 033e d033 153e
000002c0: 34d9 26be 69c8 3dbe 9d24 a03c 25be 233e
000002d0: cccc 90bd 2278 4cbe 61dd d93d ce68 d43d
000002e0: 9f78 f53c 4133 c83d 76d7 20be afbd 3a3c
000002f0: 6389 30be 780d 28be b6b2 3dbe cb38 0b3d
00000300: 499a 35be e27d a5bd b6e3 17be 75b7 2ebe
00000310: 0c13 04be 6a41 29be 71b5 053e 082c f6bd
00000320: 4b9d 16be 467b 0e3e 8604 293d 8369 0e3e
00000330: ba11 233d 1264 25be c485 c9bd b883 493e
00000340: 53a7 b3bd 6c0c 963c 1520 bcbd 3c9e 163d
00000350: c12c 0abd 2023 043d 3334 c8bb 24cc 293e
00000360: 4592 bcbd e15e 02be da51 513d 42ec fc3d
00000370: 7eb3 973d 10ff ec3d 0e16 303c 18c8 23bd
00000380: 5a65 2d3e cca6 443e 16a8 15be f14f 07bd
00000390: 3ea8 4a3d 9d03 41be bb49 b63d f24e b5bd
000003a0: 867d 4b3e e2b7 3ebd c81b 34be 0293 e33d
000003b0: 27f5 353e 1daa 2dbe a3f2 d53d 61c9 4b3e
000003c0: 55d6 013e 6b20 273e 1d30 75bd 881d 26bd
000003d0: 9803 3abe 4cb5 aabd 52ef 3ebe fc18 32be
000003e0: 2460 ca3d 23dd 4f3e 238d 08be 9896 7f3d
000003f0: 0567 493d f241 d6bd 8b5a 2fbe db6b c7ba
0.063629866 0.1970491 -0.1980893 -0.11751612 -0.07459273 -0.12170257 0.05162375 -0.07132253
-0.19372937 0.115751356 0.04566343 -0.01875253 -0.15057567 0.12691721 -0.15427144 -0.06723682
0.12529394 -0.079420015 0.17893693 0.17666472 -0.089964494 -0.13284682 -0.06299273 0.075194806
0.1755627 0.09102859 -0.14188829 -0.1409581 -0.02797119 0.04187727 -0.14927156 0.08084429
-0.11724024 0.13837877 0.05795407 0.13765016 0.005971229 0.021093462 -0.009577168 0.1736456
0.088813625 0.050957523 -0.06773238 -0.01315365 -0.08957235 -0.1393024 0.12286172 0.14796682
0.1826585 -0.022442482 -0.052137766 -0.06785276 0.09212854 -0.06788856 0.15897034 0.03800453
-0.16357067 0.051316332 -0.018220201 0.08228634 -0.0010402994 0.14635172 -0.08090085 -0.030111875
0.06440586 -0.028871572 0.07449647 -0.06139539 0.1282256 0.020688698 -0.06453394 0.04941347
-0.11028711 -0.1752748 -0.051921368 -0.13372967 0.1328826 0.1066342 0.022166943 0.16676491
0.12587205 -0.13816507 0.09235749 -0.012300668 0.062657535 -0.06077184 0.0072627477 -0.017131504
-0.014329175 0.14061058 -0.038744617 -0.06981835 0.01892835 -0.085516125 0.18938158 0.10040492
0.12899591 -0.015307346 0.10376075 0.16848958 0.12653354 -0.13212983 0.07219379 -0.111886166
0.14529023 0.10407105 -0.12260643 0.09492883 -0.18186145 -0.11839287 -0.18810579 -0.10085898
-0.022527207 0.1421002 -0.039250802 -0.1934438 0.20268856 -0.051472932 -0.13927393 -0.00051772513
-0.04551483 0.10364035 0.1442718 0.18078081 0.049467493 -0.15413454 -0.11230909 0.14988856
-0.1289111 -0.045568004 0.15853837 0.07082752 -0.036128607 -0.14784889 -0.027520759 -0.12791763
-0.20176986 0.1631325 -0.10718875 -0.12444801 0.051742326 0.1984503 -0.13162169 0.13976927
0.17180294 0.14184785 0.1275401 0.004555438 0.19141728 0.08922067 0.11760737 -0.059849154
-0.092252366 0.072849214 -0.13419181 -0.027347477 0.0482229 -0.06858161 -0.0034216514 -0.195961
-0.07837169 -0.030043826 -0.14913718 -0.025547724 -0.046540104 -0.15214133 0.111770436 -0.03080902
-0.04872323 0.08392239 -0.11455797 0.13536656 -0.17855816 0.08022946 0.12839837 0.14570546
-0.16293794 -0.18533482 0.019548709 0.15990503 -0.07070312 -0.19967702 0.10637928 0.103715524
0.029964743 0.09775401 -0.15707192 0.011397763 -0.17239909 -0.16411388 -0.18525204 0.03398971
-0.17734636 -0.08080651 -0.14832959 -0.17062171 -0.12897891 -0.1652886 0.13057496 -0.12020117
-0.1470844 0.13914213 0.04126408 0.13907437 0.039811827 -0.16151455 -0.09839967 0.19679153
-0.08772149 0.01831647 -0.09185807 0.036771998 -0.033734087 0.03226006 -0.0061097383 0.1658178
-0.09207586 -0.12731506 0.05110345 0.1234975 0.07407282 0.11572087 0.010747446 -0.039985746
0.16933194 0.19204253 -0.14614901 -0.033035222 0.049476855 -0.18849035 0.08900782 -0.08852948
0.19872102 -0.046562083 -0.17588723 0.11112024 0.177693 -0.16959424 0.1044667 0.19901039
0.12679417 0.1632096 -0.059860338 -0.040555507 -0.18165433 -0.08335361 -0.18645981 -0.17392343
0.098816186 0.202992 -0.1333509 0.062399477 0.049170513 -0.10461797 -0.17124383 -0.0015214639

fc2.bias f4 [48]
00000000: e19a 09bc 4c75 02be 24a1 40be d899 30be
00000010: 2dad 2c3e 8ee4 e13d 2c1a c4bd a039 1bbe
00000020: ed4f cb3d bbdd 6dbd c181 453e 6922 043e
00000030: 6fa2 e53c 932e e23d 1875 763d 4361 463d
00000040: b42b e4bc d832 203e 1474 28be a400 4a3e
00000050: 3088 32be 84cd c33c d786 593d 25e9 d73d
00000060: 43be 83ba 0782 0e3e b56f 353c f074 3d3e
00000070: 817c 50be 9d00 333e f77e d0bc afda 913d
00000080: 5911 4dbe 79fd 0cbc e8c3 813d 7c73 1fbe
00000090: bb01 7ebd f003 f6bd 8fce 2abe 67ac 183d
000000a0: 971d b4bd 3876 313e 617a 73bc f6f7 a5bd
000000b0: 9e49 a63d 41d3 aabd 1141 143d 8400 1fbe
-0.008398742 -0.12740058 -0.1881147 -0.17246187 0.16862936 0.110299215 -0.095753044 -0.15158701
0.09927354 -0.058072787 0.19287778 0.12903751 0.028031556 0.110440396 0.060170263 0.0484326
-0.02785287 0.15644395 -0.1645053 0.19726807 -0.17434764 0.023901708 0.05310711 0.10542516
-0.0010051209 0.13916789 0.011073996 0.1850164 -0.20359994 0.17480703 -0.025451167 0.07121789
-0.20026149 -0.008605354 0.06336194 -0.15571398 -0.06201337 -0.1201247 -0.16680358 0.03727379
-0.08794706 0.17330253 -0.01486072 -0.081039354 0.0811951 -0.08341075 0.036194865 -0.1552754

fc3.weight f4 [96, 48]
00000000: 5860 c23d 4f5e d1bd 5005 c83d 18b7 f5bd
00000010: 2342 f13d d3f6 0b3d 4f10 813d 6551 9f3d
00000020: 87ec 223d 4bf4 d43d e309 10be d062 103d
00000030: a1cf 0f3e aada f1bc 10f1 603c 24b8 a43d
00000040: 1268 5cbb 28f4 ea3d 6a68 063e 65f9 a2bd
00000050: 311c bc3c a25f 0f3e 519d 273c 079d ba3d
00000060: ee1f 5fbd 596a fabc c4ec 90bd 7531 0f3e
00000070: 50ac a53d dd10 a9bd 4d96 623d 1299 ae3d
00000080: fdc2 ce3c d3f4 dabd cad6 9e3d 3f1e e8bd
00000090: c0e8 9bbd 8062 a8bd ffeb e13c c531 f53d
000000a0: 5c76 0abe 867e a33d 9377 d23c be4f 3a3d
000000b0: 6978 2cbd 3e8e bb3d e697 12be 889b 1b3c
000000c0: 4a49 efbd e343 e1bd 12cb 38bd 025d 263d
000000d0: 15ea b13d 0aa4 a83c bc39 3dbd d028 143d
000000e0: 6096 d6bd 633b 7abd 00ff 2cbb 4958 00be
000000f0: e9a3 ca3d 1899 59bd e8d5 a9bc e968 f93c
00000100: 5128 0cbe 2a0b d3bc cc7e 87bd 3203 1cbd
00000110: 8f05 823c 9cea 0a3e 9902 783d a0e6 30bc
00000120: b641 093e 7ba5 09be cb91 65bc 6850 733b
00000130: 196c e53b 148e 0e3e d8c9 713d 9acf 0fbd
00000140: a02c bf3d 4ed5 fabc 4af7 0ebe 6761 233d
00000150: b0ca 033e fae3 a93d 3c1e 14bc 05ee 6bbb
00000160: c37b f6bd ec70 d43d f857 0b3e fd15 0b3e
00000170: b645 eebb 3fdd d8bd 2693 49bd 45c6 a5bc
00000180: b88c 63bd dd89 093e 2050 5fbd 541f 24bd
00000190: 9b88 b23c 7c53 f23d 3114 a0bd dff5 babd
000001a0: 03cd 9e3d 83f6 adbd 9c99 1f3d af3f a2bd
000001b0: f705 f3bc a814 7ebc 7c97 aa3d 136e ad3d
000001c0: 511e 023e 2ece 9fbd 2c77 c63d 0c3f be3d
000001d0: 74f0 adbd 8066 073e e484 0abc 0672 07be
000001e0: d1ed b93d 038a 1ebd 02a2 0dbe a719 a0bd
000001f0: dbeb 943d 5595 d2bd c5b3 adbd 347f 84bd
00000200: 0344 afbc b178 d93d 96a4 933d 10b5 cdbd
00000210: f424 1d3d c507 afbd fe69 8ebd a6f2 10be
00000220: 7547 f0bd 50d7 e83d 3a7a 0dbe e5f7 d73d
00000230: 44aa 233d fa49 06be 9efc 9b3c 9565 dd3d
00000240: 6c6c 23bd 0d2d fd3c 6ad6 cebd 9a27 a1bc
00000250: f1ae a63d 20cb f3bc bcd1 dd3d 6875 163d
00000260: c2a6 b0bd e2c6 9dbd 2af3 ff3d 8d30 57bd
00000270: 1ee6 5c3c e0ac 03be cfe0 05be 6c81 833d
00000280: 3b90 00bd e76f ffbd 088e e13d f400 03bd
00000290: 94a1 c13d d7be c93d e001 d53d 2cff be3d
000002a0: 0e78 e53d 782c 95bd 6523 2fbd 143b f33d
000002b0: 2f35 273d 096c fe3d 4eea 2c3c 4713 963b
000002c0: cdaf 87bd bb4e 87bc 7c3a 033d f523 873c
000002d0: 9cfc 0fbd 30be 853d 2643 8fbb e9c4 b53d
000002e0: ea25 bbbd cecf 5fbd fa75 06bc 6cd0 6abd
000002f0: 6377 f8bd 87fe e9bc d206 4b3d 6fa0 8a3d
00000300: ce6f ce3d 92ae ff3d 40c9 d53d 0692 223d
00000310: c04c 8ebd ee99 bb3d 5b58 1b3d 8bc4 e43c
00000320: c195 0f3e 8a1f 4dbc e033 07be 918b 0fbe
00000330: 4264 9ebd 17c1 083d 183a febc 7e23 ff3c
00000340: 5eb4 80bc 6aba 6f3d f50e bfbd 8d07 61bd
00000350: 1bfc 0abd ac13 0d3d 14e0 08be bac7 0b3e
00000360: f344 f7bd 4590 f63c 6fcb 05bd d8d9 1abd
00000370: e48b ffbd cd3f 073d 874d 283d 9ef7 c83d
00000380: dbea 5e3d f37b 0c3e bd96 09be 744f a93d
00000390: a5eb b9bd f53b dc3c a6ba ba3d 946d f93c
000003a0: 7698 78bd 1a19 b83d c970 f73d a3c5 01be
000003b0: 3220 ff3d 4a7e 553d 0c6e 963d 3b74 0d3d
000003c0: 8f7a aebd 8c03 febd 0e2e e6bd da97 123e
000003d0: aae4 63bd 18dd 6ebd b002 0f3d 56c2 003e
000003e0: 1edd cdbd 3f01 b4bd d029 3ebd 3e06 0c3e
000003f0: ba64 47bd f4ae 113e ec34 ee3d b6f6 0c3e
0.09491032 -0.10223066 0.09766638 -0.11997813 0.11780193 0.034170937 0.06301939 0.07779197
0.03977635 0.10398158 -0.14066271 0.035250485 0.14044048 -0.029523212 0.013729349 0.080429345
-0.0033631367 0.1147235 0.13125768 -0.079577245 0.022962661 0.14001325 0.010230378 0.09111982
-0.05447381 -0.030568289 -0.070764095 0.1398371 0.080895066 -0.082551695 0.05531912 0.085252896
0.025239462 -0.10691228 0.077558115 -0.11333894 -0.07612753 -0.082219124 0.027578352 0.119723834
-0.13521713 0.07983117 0.025691783 0.045486204 -0.04210702 0.0915799 -0.14315757 0.009497531
-0.11683901 -0.109992765 -0.045115538 0.040616043 0.08687226 0.020586032 -0.046197638 0.036171734
-0.104779005 -0.06109179 -0.002639711 -0.12533678 0.09894545 -0.053124517 -0.020731881 0.030445533
-0.13687254 -0.02576216 -0.066159815 -0.038088985 0.015871791 0.13566059 0.060549352 -0.010797173
0.13403973 -0.13442032 -0.0140118105 0.0037126783 0.0070014116 0.13921386 0.059030384 -0.035110094
0.093346834 -0.03061929 -0.13961521 0.039887812 0.12870288 0.08295436 -0.009040412 -0.0036000025
-0.120353244 0.10373101 0.13607776 0.13582607 -0.007271494 -0.10589074 -0.049212597 -0.020236144
-0.05555412 0.13431497 -0.054519773 -0.04006894 0.021793654 0.1183233 -0.07816351 -0.091289274
0.07753947 -0.08494284 0.038964853 -0.07922303 -0.02966593 -0.0155078545 0.083296746 0.084682606
0.12706877 -0.078029975 0.09690699 0.09289369 -0.084931284 0.13222694 -0.008454535 -0.1322709
0.09078563 -0.038705837 -0.13831332 -0.07817393 0.07271548 -0.10282389 -0.08481554 -0.064695746
-0.021394735 0.10618723 0.07209127 -0.100443006 0.03836532 -0.08546404 -0.0695381 -0.14155063
-0.11732379 0.113691926 -0.13816157 0.10545329 0.0399573 -0.13114157 0.019041356 0.10810391
-0.03989832 0.030905271 -0.1009949 -0.019672204 0.08138836 -0.029759943 0.10831019 0.03673306
-0.086255565 -0.077039495 0.12497552 -0.052536536 0.013482599 -0.12858915 -0.13074039 0.0642117
-0.03138755 -0.124725156 0.110134184 -0.03198333 0.09454647 0.09850853 0.10400748 0.09326014
0.11204539 -0.07283872 -0.042758364 0.11876503 0.040822204 0.1242295 0.0105539095 0.0045799348
-0.06625328 -0.016517034 0.032038197 0.016496638 -0.035153016 0.06530416 -0.0043720184 0.08875448
-0.09138091 -0.054641537 -0.008206839 -0.057327673 -0.12132146 -0.02856375 0.04956705 0.067688815
0.10079919 0.124844685 0.10438776 0.03969004 -0.06948233 0.09160219 0.03792606 0.02792575
0.1402197 -0.0125197265 -0.13203382 -0.14018084 -0.077339664 0.03338727 -0.03103356 0.031144854
-0.015711006 0.058527388 -0.09329025 -0.05493884 -0.033931833 0.03444259 -0.13366729 0.13650408
-0.12073698 0.03009809 -0.032664713 -0.03780541 -0.12477854 0.03301983 0.04108956 0.09812854
0.054423194 0.13719158 -0.13436408 0.082671076 -0.09078149 0.026884058 0.091176316 0.030447759
-0.060692273 0.08989163 0.12082059 -0.12673049 0.12457313 0.05212239 0.073452085 0.034534674
-0.0851947 -0.1240302 -0.11239253 0.1431574 -0.055637993 -0.05831632 0.034914672 0.12574133
-0.100519404 -0.087893 -0.046426594 0.13674256 -0.048680045 0.14226896 0.11631188 0.13765988

fc3.bias f4 [96]
00000000: 9ec2 113e 9562 45bc 762e 2d3d 10cb 203d
00000010: 6078 fd3d 3c5c dd3d cfc0 103e b484 423d
00000020: 2306 8dbd d0ac d83d b301 26bd 88cb f4bd
00000030: a4cf 7e3d d391 bcbd f03e b93d 3b5f 813b
00000040: 1d37 1bbd 9eb5 cf3d 281e 39bd 6acd c1bd
00000050: 890a af3d a28b cc3d 6746 b63d 182f f23d
00000060: 55fb 1ebd 6aa3 6f3d f9e3 70bb 3528 fa3d
00000070: c086 1c3d 5eb4 08be a1c4 eb3c 8886 24bd
00000080: 79f0 11be 3b08 efbc e9ec 1dbc da2b c13d
00000090: f3c4 d0bd d099 703d 6a3f a33d 84f6 e43d
000000a0: b873 07bd 4cb8 5cbd 685b ff3d c393 933d
000000b0: f027 8ebd 1d85 66bd 3403 e93d 39c3 9fbd
000000c0: b942 81bc d639 303d f954 853d e6da f73d
000000d0: 1ccb 4c3d 7f7c 5f3d 67d1 d3bd 84f6 8fbd
000000e0: e072 273c 27f5 cbbd faf8 79bd 0e96 123e
000000f0: 3c29 353d 5966 d53a 9fba cdbd c49f 803d
00000100: dfe7 85bd 95db 09be db18 d73c d1ef 663d
00000110: 82ba 793d 0c7b a43d a2ea 49bc a338 b0bd
00000120: d7e1 f9bd 1830 12bd cde2 e8bd 4669 adbd
00000130: fddb cdbd 373f 023e 5efe c93d 61f6 163d
00000140: 9dcd 843c c624 debd 09d1 0abe 0fdd 05be
00000150: 7f86 033e cc87 e8bd 6e26 993d fb3c 7fbd
00000160: 925d 04be f032 033e cc36 6fbd 2379 a33c
00000170: 75f3 6b3d b250 71bd 48b6 5b3d bb23 08be
0.14234397 -0.01204743 0.042280637 0.039256155 0.12376475 0.10808608 0.1413605 0.047489837
-0.06885936 0.10579836 -0.040528964 -0.11952883 0.06220974 -0.09207501 0.090452075 0.00394812
-0.037894357 0.101420626 -0.045194775 -0.09463008 0.08546931 0.0998757 0.08900147 0.11825389
-0.038813908 0.058505453 -0.0036756976 0.122147 0.038214445 -0.13350055 0.028780283 -0.04016736
-0.1425189 -0.02917873 -0.009639003 0.09432192 -0.10193815 0.058740437 0.0797108 0.111798316
-0.033069342 -0.053886697 0.12468606 0.07205918 -0.06941211 -0.05627929 0.11377564 -0.07800908
-0.015778886 0.043023907 0.06510348 0.121022984 0.049998388 0.054562088 -0.10342675 -0.07029441
0.010220259 -0.099588685 -0.06102846 0.14315054 0.044228777 0.0016281112 -0.10045361 0.06280473
-0.065383665 -0.1346267 0.02625697 0.05638105 0.060968883 0.08031282 -0.012324007 -0.086045526
-0.12201279 -0.035690397 -0.11371384 -0.08467345 -0.10051725 0.12719427 0.0986297 0.03685606
0.016211325 -0.10846858 -0.13556303 -0.13072608 0.12844275 -0.11354026 0.07478033 -0.062314015
-0.12926319 0.128124 -0.058401868 0.019955223 0.057605226 -0.058914848 0.053640634 -0.1329488

fc4.weight f4 [48, 96]
00000000: 06a5 05bd ac5f abbd 86f2 883d ae23 adbd
00000010: c613 8abd 731d 67bd ae62 af3d 0021 033b
00000020: b2e1 b5bd 484f 93bc f03b bf3d eea6 3dbd
00000030: 9405 b23d 6856 aabc aaef b5bd 7866 da3c
00000040: 4894 3d3d d651 1dbd b833 9cbd e4eb cfbd
00000050: a086 d53c d2d0 1ebd f32f b5bd 2c5f 103d
00000060: 00e5 bc3c 4878 5bbd 31e2 4abd 6050 fd3b
00000070: da55 ad3d a20e 8b3d b254 ca3d b8d1 33bc
00000080: 38b2 2e3c 4146 babd da49 d03d 7aaf 4fbd
00000090: 0876 82bc 6393 5cbd 0caf 323d c73b c4bd
000000a0: e0c4 443d 3673 b03d f43e 4fbd c239 b0bd
000000b0: 683f 543c 8af4 40bd 309b 7cbc 806c 5dbd
000000c0: f801 703c b2e9 87bd 6e20 ca3d 212b b8bd
000000d0: 2c59 81bd 144a 58bd aa1f 8bbd 84d1 17bd
000000e0: 5a44 c33d 48d4 d0bd c83c 333d 006b a53b
000000f0: 38c6 01bc bcf2 42bd 54be cc3d 89ba bebd
00000100: 800c fa3b a2e0 66bd 7727 c4bd 5022 a6bd
00000110: 2574 45bd b723 82bd 7850 e13c b0ff 1b3d
00000120: 9eff a13d c217 a7bd a06b 7ebc c659 8f3d
00000130: cff6 5cbd 604a 9cbd a005 e03c 7a10 4fbd
00000140: f076 a33d 47db 78bd a0e5 89bb 8ab2 be3d
00000150: b8a9 003c 24e2 b1bc e4ff e7bc 9afd 9e3d
00000160: 638b 6abd b471 97bc 4878 cd3c 88d3 6e3c
00000170: f62f 07bd 33aa 77bd b8db 3f3d e26a c9bd
00000180: 8637 39bd c835 97bd a86d d4bb b77e c23d
00000190: d194 393d d883 5c3d d727 853d 3839 c8bd
000001a0: efd9 773d 52b4 44bd a435 75bd 96e6 6e3d
000001b0: 8b99 cc3d 4cbf ae3d 3693 d1bd f5de b93d
000001c0: 6824 66bd 04bb 323d 272f 623d c178 7dbc
000001d0: a825 7ebd 5329 b23b d976 403c a0cb af3d
000001e0: 046f e5bc 191c 61bd e6cd 9cbd f4e0 28bc
000001f0: da5e 583d 117a c6bd 9337 3dbd cf51 9c3d
00000200: a709 a63d 5860 a43d 005d 12bd 2d8f a1bb
00000210: ac62 54bd f306 4cbd 0a08 c9bc 5ccb ed3c
00000220: c0f1 6dbd 589d 6d3d a591 1cbb 242f b4bd
00000230: e467 9fbc f6d7 8bbc 0083 a73d 1f17 a1bc
00000240: 8462 6fbc 4113 99bd 3bd2 1a3d 523c aabd
00000250: 8067 79ba 2354 ab3d 3152 53bc d8bb 993d
00000260: 845b b03d 9c8e 0a3b 982d d53c 5256 28bd
00000270: a1e4 c83d a012 953b 3ed2 523d ce1d 55bd
00000280: bda6 8d3d aefc efbb c6a3 81bd aada a73c
00000290: 4fa2 593d 8e62 5ebd 7dcf 013b dbcd 46bd
000002a0: 93b8 a93c feb9 a43d 8d55 ec3c 65c0 403c
000002b0: c296 66bd 25cb e83c 8eff bd3b e44c b03b
000002c0: 9031 9f3c 326c 8a3d 700c 99bc 8436 ab3d
000002d0: 30d2 d0ba 9322 81bd 65a4 bc3d 2fad 68bd
000002e0: d9b4 fd3c e884 30bc 33fa c4bd 2b3a a1ba
000002f0: 0115 4dbd 5100 b63d fc06 a2bd a929 3a3d
00000300: ecf5 233d f4aa c13d ac75 7e3d 5aae a93d
00000310: 6947 97bd 8d62 61bd 8299 83bd 98e7 d4bc
00000320: 8843 ad3d ac28 a2bc faa6 63bd 28ba 123d
00000330: d81a 8a3c b4a8 293d 6814 653d e858 5c3d
00000340: dea3 b03d 318b b7bd 0c2c ebbc b7a7 8fbd
00000350: 80b4 99ba a879 9b3d b056 c63d d649 79bd
00000360: 1caf d03d 5833 9b3d 10a8 b93d acb1 853d
00000370: 6806 233c 284a 1b3c e21c 0abd ae9f b0bd
00000380: a395 cdbd bcbe 333d f0d5 863c 6025 6f3c
00000390: 06ed 80bd 500a bbbb 8c63 1a3d 0535 a0bd
000003a0: 4122 a7bd a003 463d 8002 213a 0481 ccbd
000003b0: 04fa d3bc c2ef 6dbd 0399 6fbd 048a 1abd
000003c0: 8cd3 0c3d 0093 a8ba 9c66 6a3d f03e 523c
000003d0: 18e0 34bc 7403 f4bc 0004 d5bc 10c0 123d
000003e0: a49b 98bd 32b5 5cbd 9c52 c5bd 9416 5f3d
000003f0: e946 3abd d23d 14bd 2087 51bc e491 973d
-0.03262808 -0.08367857 0.06686883 -0.08454071 -0.06742053 -0.05642457 0.085637435 0.0020008683
-0.088809386 -0.01798214 0.09337604 -0.046301775 0.0869247 -0.020793155 -0.08883603 0.026660189
0.04628399 -0.038408123 -0.07627052 -0.101524144 0.02606517 -0.038773365 -0.08847036 0.035247013
0.023058414 -0.053581506 -0.04953212 0.0077305287 0.084636405 0.067899 0.098794356 -0.010975294
0.010662608 -0.09095431 0.10170336 -0.050704457 -0.015925422 -0.053851496 0.04362397 -0.09581714
0.048039317 0.08615725 -0.050597146 -0.086047664 0.01295457 -0.04710821 -0.015417859 -0.05405855
0.014648907 -0.06636371 0.09869467 -0.08992601 -0.06315836 -0.05280502 -0.06793149 -0.037065044
0.095345214 -0.101967394 0.043759137 0.005048156 -0.007920794 -0.04759477 0.0999724 -0.093129225
0.0076308846 -0.05636657 -0.0957784 -0.08112013 -0.048206467 -0.06354468 0.02750419 0.03808564
0.07910083 -0.08158828 -0.0155285895 0.06999545 -0.053946313 -0.076313734 0.027346432 -0.050552823
0.0798167 -0.060755994 -0.0042082816 0.093113974 0.007852964 -0.021714278 -0.02832026 0.077632144
-0.057261836 -0.018486835 0.025081769 0.0145768 -0.033004723 -0.06046505 0.0468404 -0.098348394
-0.045218967 -0.07383305 -0.0064827986 0.09496825 0.045307938 0.053836673 0.065017395 -0.097765386
0.060510572 -0.04802353 -0.05986561 0.058325373 0.099902235 0.08532581 -0.102331564 0.09075729
-0.056187063 0.043635383 0.05522075 -0.0154706845 -0.06204763 0.005437055 0.0117470855 0.0858376
-0.028007038 -0.054958437 -0.076564595 -0.010307539 0.052824832 -0.09691251 -0.046195578 0.07632791
0.0810731 0.080261886 -0.035733223 -0.004930398 -0.051851913 -0.049811315 -0.024539966 0.029027633
-0.05809188 0.058011383 -0.0023890522 -0.08798054 -0.019458719 -0.017070752 0.08179283 -0.019664345
-0.01461089 -0.074743755 0.037798148 -0.083122864 -0.0009514019 0.08365657 -0.012898014 0.075065315
0.08611205 0.002114213 0.026022717 -0.041097946 0.098092325 0.0045493394 0.051470034 -0.052030377
0.069165684 -0.007323823 -0.063300654 0.02049001 0.053133305 -0.054293208 0.001980751 -0.048536163
0.020717895 0.08043288 0.028849388 0.01176462 -0.056296118 0.02841718 0.0057982868 0.00538026
0.019432813 0.06758918 -0.018682688 0.083600074 -0.0015931781 -0.06305423 0.09211043 -0.056805786
0.030970024 -0.010773875 -0.09618034 -0.0012300661 -0.05006886 0.08886779 -0.079114884 0.045449886
0.04002945 0.09456435 0.06212394 0.08285208 -0.07386667 -0.055025626 -0.06425764 -0.025989339
0.08460146 -0.019794784 -0.055579163 0.035822064 0.016858503 0.041420653 0.055927664 0.053795725
0.08625005 -0.089620955 -0.028707527 -0.07014411 -0.0011726767 0.075915635 0.09684503 -0.06086143
0.101896495 0.075781524 0.090652585 0.06528029 0.009950258 0.009478129 -0.03371895 -0.086242065
-0.100383066 0.04388307 0.016459435 0.014596313 -0.06295209 -0.0057080165 0.03769259 -0.07822613
-0.0816083 0.0483433 0.0006142035 -0.09985545 -0.025876053 -0.05808998 -0.058495533 -0.03772928
0.034381434 -0.0012861192 0.057226762 0.012832388 -0.011039756 -0.029786803 -0.026002884 0.035827696
-0.07451561 -0.05388374 -0.09634897 0.05446489 -0.04547778 -0.03619177 -0.012788564 0.07400873

fc4.bias f4 [48]
00000000: 886f 5b3c cc5d b6bd 80a8 2dbc 4180 aa3c
00000010: c4aa 51bd f349 7fbc 56f3 943d 0826 03bd
00000020: 6eed cebd a901 8dbd 30ff 51bc 3761 63bb
00000030: 8205 923d af6c b1bd 5076 58bd 140a bb3d
00000040: ed8e d3bc a585 713d ce22 31bd b239 d9bc
00000050: c02c 7a3d 1bf0 a7bd a060 d4bc 39bb 30bd
00000060: a865 eabc c25f c53d ba62 ed3c fd21 a13c
00000070: 7246 8f3d 8819 393c 7bb8 ccbd 8e05 75bd
00000080: d8be bbbc 5276 4cbd a450 f5ba 3749 473d
00000090: 88af 503d 56e0 18bd d631 8fbd 047d 233d
000000a0: 8212 7c3d 7d00 4c3d 19b7 673c 472c 10bd
000000b0: 56f4 b73d 1972 a4bd 9151 b6bd d26e 813d
0.01339329 -0.08904609 -0.010599256 0.02081311 -0.051188245 -0.015581596 0.07272975 -0.03201869
-0.1010388 -0.06885082 -0.012817189 -0.0034695396 0.07129957 -0.08663308 -0.052847207 0.091327816
-0.025824988 0.058965344 -0.043246083 -0.02651677 0.061077833 -0.08200093 -0.02592498 -0.0431473
-0.028612927 0.09637405 0.02897774 0.019669527 0.06995858 0.011297591 -0.09996124 -0.05981975
-0.02291815 -0.049917527 -0.0018716049 0.048653807 0.05094865 -0.03732332 -0.06991927 0.039914146
0.061541088 0.049805153 0.014142775 -0.035198476 0.0898215 -0.08029575 -0.08902276 0.063199654

fc5.weight f4 [24, 48]
00000000: 7413 c1bc 8592 84bc a039 fabc 2d0c 9f3d
00000010: 16d8 9cbd b1ae 0d3e e6ac c2bd 2e65 0b3d
00000020: 75d4 d53d d839 fe3c 6b00 fd3d 09bb 4f3d
00000030: 9048 603d 1d18 9d3d 60dd 4b3d a037 a2bd
00000040: 7ce4 08be b4ad 04be d1d3 d9bc a21a c9bd
00000050: 3e6f 313d 4061 abbc 1788 0abd f1fd 0a3d
00000060: 0afa d6bd b838 ca3d 4bf6 433d 3cd6 063e
00000070: e458 293d 480a 323d a4ee 163d 0050 9339
00000080: 8871 0abe 4c57 f0bb f0c8 bc3d 5e63 7cbc
00000090: 93ba 35bd ddec c53d 2053 62bc f0fe e33d
000000a0: f2db e53d 93c7 e2bd 1d55 d5bd 5e58 f5bd
000000b0: 0b7e ab3d ffbf 85bd 92d3 9a3c 1972 d43d
000000c0: 38aa 103e a0e1 a83d 4030 03bd 9cfa 1ebd
000000d0: a1b9 ccbd 8b58 d7bd e605 c03d 7884 8ebc
000000e0: cce4 6fbd ec35 943d b03e af3d 466f bbbd
000000f0: 5218 02bd 30ea a83c e962 8cbb c505 9f3d
00000100: e3c0 79bd 1c85 89bd 6acc 50bd 98c5 a6bd
00000110: 6aa0 02bd 6447 d5bd 117d 593d b7d4 8e3d
00000120: 8a9f 0bbd 6235 0b3e cd53 ca3d 956a 0d3e
00000130: 6c14 c8bc 2a4c 93bd 2cbf 323d 74fc 753d
00000140: 400c 4a3c e661 8d3d b186 423d 3430 063e
00000150: 9d83 12be 0c81 e7bc 1863 d03c d06c 8a3c
00000160: d080 443d b543 04be a4e9 b4bd eb51 e1bc
00000170: 6962 a7bc 6653 a93d 5336 cd3d e7db 80bd
00000180: 200a 2a3c b910 553c 24e7 80bd 6fcc 12be
00000190: 2f06 e23c f660 063c 515a c0bd fe5f cd3b
000001a0: 5a12 a2bd 50d6 bdbd 9403 11be f320 033d
000001b0: 79f7 edbd ee61 93bd d724 ed3d b306 ac3c
000001c0: 008a ef3d d88b 15bd 2523 aa3d ac1d a0bd
000001d0: e8b3 bc3d 0c78 a3bc e01c 20bd 6abd 06bd
000001e0: c851 e73d 5fcc a8bc 9be9 583b 2c30 41bd
000001f0: 321f 09be 347e 913d ea9b debd 3297 a53d
00000200: 4024 b73b 4626 82bc 1fa5 823d 0401 083d
00000210: 82a9 95bd 3ca8 ad3d d987 e2bd c44b abbd
00000220: e193 44bd 3f22 e33d 30f6 06be 393c e73d
00000230: 7312 fcbd 7d6c 0bbe daaa febd 2d39 0b3e
00000240: 2b23 92bd 48f7 79bd 7e85 843d c426 9b3d
00000250: 40bf 983c ecab eaba 4098 7fbb 971c 95bd
00000260: 9b08 bc3c fa66 8dbd aadd 10be f630 14bd
00000270: 201b 463d bbe3 4cbd 7583 b03d 041a 89bd
00000280: d1e7 4f3d 8258 903d 8038 b5ba 21af c4bc
00000290: 3458 5abd e883 b03c 66a6 dd3d 738e 09be
000002a0: 8262 dcbd 2ed8 b1bd 0f2c 073e 4479 05be
000002b0: 8451 d43d f75e 9c3d 6056 5cbc 30c5 1b3d
000002c0: 2a05 03be 3f6c 813d e8b6 9ebd cdbb e5bd
000002d0: 5f66 ecbd b23b e13d 805c 573b 5204 d63d
000002e0: 5f91 dfbd 8382 ecbd 70bf c43a c450 ad3d
000002f0: a1fe 093e 14e7 fdbd 1c79 f5bc ce32 f83d
00000300: 64df 72bd 4915 94bd 3001 c23c 1dff 773c
00000310: ce43 833c 187b ce3d c127 c73c aeb7 983d
00000320: 61a0 ed3d 0a93 893d 36d9 9fbc 989a 5c3d
00000330: b8cf ccbd 0749 d5bd 85c5 b4bc beb3 ca3d
00000340: 7ec1 713d e75b 7b3d 8e16 883d 202d 313d
00000350: 0650 f73d 2c4e 7b3d c75e 09be 67b0 093d
00000360: 821a 0d3e 8830 22bd 24c7 0fbe 7b69 fa3d
00000370: fc42 793d fb4d 07be 434d 08be d026 b53d
00000380: c09e 1e3d 5672 b83d e58f dc3c 1dcb 3dbd
00000390: 04fe 6c3d 8cad b43d 2ca9 813d 9052 293d
000003a0: bff3 183d 898a 5ebd c064 15bb daa6 e03d
000003b0: 9ff2 d8bc ac7c ecbb 2df6 fc3d 99dc 9a3d
000003c0: f054 78bd 30a4 0fbe f37f 8dbd 9058 1f3d
000003d0: f296 2e3d c5a0 bc3d 8fcf a63c 4e45 15bd
000003e0: a2fe 873d 60b1 03bc 0cd1 443d 5bf2 b03c
000003f0: 503a e43d de5d 053d 2b4e b13d 2a49 233d
-0.023568846 -0.016183147 -0.030545056 0.07765994 -0.076584026 0.1383617 -0.09505634 0.03403204
0.104409136 0.031033441 0.12353595 0.05071548 0.0547567 0.07670615 0.049771667 -0.07920766
-0.1336841 -0.12956887 -0.02659026 -0.09819533 0.04331898 -0.020920396 -0.03382119 0.033933584
-0.1049691 0.098740995 0.047842305 0.13167661 0.04134454 0.043466836 0.03684868 0.0002809763
-0.13519871 -0.0073346253 0.09218013 -0.01540455 -0.044367384 0.09664319 -0.013813764 0.1113261
0.11223592 -0.11073222 -0.10416625 -0.11979745 0.0837365 -0.06530761 0.018899713 0.10373325
0.14127433 0.082461596 -0.032028437 -0.03881322 -0.099963434 -0.10514935 0.09376125 -0.01739715
-0.058567807 0.07236847 0.085568786 -0.09152083 -0.031761475 0.020619482 -0.004284252 0.07764772
-0.060974967 -0.06714842 -0.050976194 -0.08143157 -0.031891264 -0.10414007 0.05309779 0.06974166
-0.034087695 0.13594583 0.09879265 0.13810189 -0.0244238 -0.071922615 0.043639347 0.06005521
0.012332022 0.06903438 0.047491733 0.13104326 -0.14308019 -0.028259777 0.025437877 0.016897589
0.047974408 -0.12916453 -0.08833626 -0.027504882 -0.020432668 0.0826786 0.10020127 -0.06291943
0.010378391 0.013004475 -0.062940866 -0.14335798 0.02759084 0.008201828 -0.093922265 0.0062675467
-0.079136565 -0.092693925 -0.14161521 0.032013845 -0.11619467 -0.07196413 0.11579292 0.020999288
0.11696243 -0.03651032 0.083074845 -0.078181595 0.09214002 -0.019954704 -0.039090037 -0.032895483
0.112948954 -0.020605264 0.0033098224 -0.04716508 -0.13390806 0.071041495 -0.10869582 0.08085479
0.005589038 -0.01588739 0.063791506 0.033204094 -0.07307722 0.08479354 -0.11061067 -0.083640605
-0.04799259 0.11090516 -0.1317985 0.112907834 -0.123082064 -0.13615604 -0.12434931 0.1359603
-0.07135614 -0.06102684 0.06470774 0.07575753 0.018645883 -0.001790402 -0.003900066 -0.07280844
0.022953322 -0.06904407 -0.14147058 -0.036179505 0.048365712 -0.05002187 0.086188234 -0.06694415
0.050758187 0.070481315 -0.0013826042 -0.02400929 -0.053306773 0.021547273 0.108227536 -0.13433246
-0.107609764 -0.08683811 0.13200401 -0.1303454 0.1036711 0.076353006 -0.013448328 0.03802985
-0.12794939 0.063194744 -0.0774973 -0.11217461 -0.11542963 0.10997714 0.003286153 0.10450043
-0.10916399 -0.11548331 0.0015010666 0.084626704 0.1347604 -0.1239759 -0.029964976 0.12119065
-0.059295073 -0.07230622 0.023682207 0.015136507 0.016023543 0.10082072 0.024310948 0.07456909
0.116028555 0.067174986 -0.019512754 0.05385837 -0.10000557 -0.104143195 -0.02206684 0.09897564
0.05902242 0.06136694 0.06644927 0.043255925 0.1207581 0.061353847 -0.13415061 0.033615496
0.13779643 -0.039597064 -0.1404081 0.1222715 0.060854897 -0.13213341 -0.13310723 0.088452935
0.038725615 0.09006183 0.026924083 -0.046336282 0.057859436 0.08822164 0.06331095 0.041338503
0.03734183 -0.054331336 -0.0022795647 0.109693244 -0.026482878 -0.0072170105 0.12351642 0.07561607
-0.060627878 -0.14027476 -0.0690917 0.03890282 0.04262442 0.09210352 0.020362644 -0.036443047
0.06640364 -0.008037895 0.048050925 0.02159994 0.11143935 0.03256022 0.086574875 0.039864697

fc5.bias f4 [24]
00000000: 1772 6bbb 3021 d3bd 2eed 023e 61c1 023e
00000010: 5bb4 2b3c b048 32bd b895 d2bc e866 953b
00000020: 8dfa f6bc 25e0 503d 9c8a 0abd f79f ce3d
00000030: 747c 90bd fafd 0c3e 6e6f 05be 6fed 98bd
00000040: c72d e63d 61d4 043e 11cc 0f3c 5cad 8a3d
00000050: 7c8e 06bd 03d0 01bd 9634 8e3d fffb c6bc
-0.0035926157 -0.103090644 0.1278579 0.1276908 0.010480012 -0.04352635 -0.025706157 0.0045593865
-0.030148769 0.05099501 -0.033823594 0.100891046 -0.070549875 0.1376876 -0.13030788 -0.07467162
0.112392 0.12971641 0.008776681 0.06771347 -0.032850727 -0.031692516 0.06943624 -0.024290083

fc6.weight f4 [5, 24]
00000000: 4a07 dcbd c0c4 843d d618 b9bc a94a 2c3e
00000010: e0c6 ad3d d204 8f3b 3cc1 953d b7fd fcbd
00000020: 922b 0e3e 5b54 62bd 566c f3bb b0b2 afbd
00000030: 507c b73d b387 21be d4f3 8fbd 60a1 a0bd
00000040: 9eee 863d 1c54 0f3e 99c2 993c 8cf2 00be
00000050: 60a3 413e 1fa2 1b3e 62c9 853d 85c6 3cbd
00000060: 9d72 dc3d 3761 3ebe d01f 01be d0a0 39bc
00000070: 4074 463e 25da 153e 24f8 113e 28d5 7fbd
00000080: 9157 82bc fe54 4a3d 47b0 08be 9059 ba3d
00000090: ccbc c3bd 6046 bc3d 9e70 32be 00c0 aa3c
000000a0: e894 2fbe 8a45 5fbd 1986 863d a20b adbd
000000b0: b07f 473e 0e3f 44be 2d55 7e3d ef69 1ebe
000000c0: 0045 243e f9e2 ca3b 2196 e7bd 727e df3b
000000d0: 1ddc 1cbe 3285 e7bc c029 f93c 4925 94bd
000000e0: a4a4 d2bd ad35 1c3e 5f6e 1b3c d75f 633b
000000f0: b325 123e 03b9 43be aba8 f9bd d023 28bd
00000100: dacd d2bd b457 303e 8d76 0cbd b320 483e
00000110: 06b5 493e 8dc3 2e3e 13d9 93bc d830 89bd
00000120: c17e 80bd 5be7 aebb b10b ddbd 5f42 cf3d
00000130: 6dbe 333e 05e0 23bd 3c76 813d 9875 083e
00000140: 82eb aabb 030c 8a3c 0e03 06be 025c 463e
00000150: 9a00 1fbd ae0a f93d 9358 8ebc 5031 443e
00000160: 5c71 923d 435f 36be 8270 c5bd 2094 b33d
00000170: b8b4 98bd cacb 773d 75d9 213d c3ee 8c3d
00000180: 38f2 053e 9055 3dbd 7d0c b3bc a66e 483e
00000190: bf05 5abb 8667 343e a6ac 31be 4b32 2bbe
000001a0: e52b ef3d b3c6 a63d e68c 12be 6c02 ffbc
000001b0: adee a63c 977c 4ebe 0fd5 c53d 6ec0 23bd
000001c0: 540d 44be 56ac 28bc e344 d73d efa0 103e
000001d0: b4ce 253d 91ff 07be 4ced 903c e6d3 0d3d
-0.10743578 0.064828396 -0.02259485 0.16825356 0.08485198 0.0043645883 0.07312247 -0.1235308
0.13883808 -0.05525623 -0.007428686 -0.08579004 0.089592576 -0.15774421 -0.070289284 -0.0784328
0.06588481 0.13996929 0.01876955 -0.12592524 0.18909979 0.15198563 0.06532551 -0.04608776
0.10764048 -0.18591772 -0.12609792 -0.011329845 0.19380283 0.14633997 0.14254814 -0.06245914
-0.015910896 0.04939746 -0.13348494 0.09099114 -0.095574945 0.091931105 -0.17425773 0.020843506
-0.17146647 -0.054509677 0.06568546 -0.084494844 0.19482303 -0.19164678 0.06209295 -0.15470098
0.16041946 0.006191608 -0.11307932 0.0068204934 -0.15318342 -0.028261755 0.030415416 -0.07233674
-0.10285309 0.1525485 0.009486764 0.0034694576 0.14272194 -0.19113545 -0.12190374 -0.04104978
-0.10293169 0.17220956 -0.034292746 0.19543724 0.19697961 0.17066784 -0.018047845 -0.06698769
-0.062741764 -0.0053376383 -0.107932456 0.10120081 0.1755311 -0.040008564 0.063213795 0.13326108
-0.005216063 0.01685143 -0.13087103 0.19371036 -0.038818933 0.1216024 -0.01737622 0.19159436
0.07150528 -0.17809777 -0.096406 0.08768487 -0.07456344 0.060497083 0.039514024 0.06881478
0.1308068 -0.046224177 -0.02185654 0.19573459 -0.0033267585 0.17617616 -0.17351016 -0.16718404
0.11678294 0.081433676 -0.14311561 -0.031129085 0.020377481 -0.20164715 0.09659778 -0.039978437
-0.1914571 -0.010294994 0.10511186 0.14123891 0.04048033 -0.13281085 0.017691277 0.03462591

fc6.bias f4 [5]
00000000: 12bf 1c3e f6b0 b5bd fcd7 453e e6f8 313e
00000010: ea63 393e
0.15307263 -0.08871643 0.19320673 0.17380103 0.1810452

fc1.weight f4 [24, 10]
00000000: 0e75 0f3e 00c8 4b3a 500b 97bc 00d4 fc3b
00000010: dfc4 66be 6072 1a3c 5e50 b2bd 9057 3a3e
00000020: 5642 3d3e 58e9 14bd d0fb 94bd ca88 4dbe
00000030: 441c 87be 1ea1 9bbe e37f 923e 32eb 82be
00000040: 96a4 3d3e 70ce ebbd e8b0 ae3d e8cd 5abd
00000050: 02ba afbd 104e bc3d da4d c1bd a8fa b83d
00000060: f2eb 0fbe b8ee 8ebe a003 573d 00bb 2b3b
00000070: 46ca 4f3e 8195 93be 9d5b a1be 7243 6f3e
00000080: 3432 bbbd 7baf 873e 6c57 b2bd 4e84 523e
00000090: 206d 343e 802d 22bc 65f3 44be 00da c2ba
000000a0: 68f9 58be 926c a0be c008 f0bd 85dd 43be
000000b0: fa3c 9bbe 251c 943e ea34 6d3e 7ac6 03be
000000c0: 20a0 bf3c 4343 913e 409b 99bc 88c5 213e
000000d0: 46f5 95be d7e9 94be d428 a7bd 047d 89be
000000e0: 03d5 10be f4aa 90bd a02a 013d 2a03 e5bd
000000f0: 3200 713e cac8 8dbe dc76 aa3d 9835 8abe
00000100: b037 ba3d cd52 8c3e b872 36bd 47c6 993e
00000110: ce4e 283e 5cd4 cd3d 2b2a 86be e82e 8ebd
00000120: 1648 683e d9e6 06be 4029 c5bc 4df9 8d3e
00000130: 490c 0ebe 686a 46bd 84d0 b5bd 3058 623d
00000140: d25b 4abe 4212 bdbd 4f2c 05be 4a31 76be
00000150: e5aa 26be b330 96be 6b92 84be 40f0 dd3c
00000160: 50bd 78bd 2c28 e13d 10ba 7d3d dca2 63be
00000170: fee9 40be 7c7b babd d137 983e b201 87be
00000180: 12aa f5bd 8418 8cbe 140b ad3d ca17 5fbe
00000190: 921a 223e 2413 063e cefd 253e 41fb 81be
000001a0: a78e 1bbe 00d9 0a3e 9742 9cbe ae49 98be
000001b0: 78e5 0a3d 8b98 893e 3197 9e3e 8210 28be
000001c0: 34b6 ea3d 8291 733e 9e4d f5bd 8a4e 313e
000001d0: 0d09 27be b870 163e 6c40 ff3d 6677 153e
000001e0: 36b6 363e cddb a13e 308c d53c 328c 5b3e
000001f0: 6069 c93d a015 f8bd fcb3 9fbe 8993 973e
00000200: 926f 99be 00d1 05bd 7e9e 96be 4ad8 c9bd
00000210: 7bdc 0ebe 14bd 08be 2457 a13d 6480 95be
00000220: 0fc0 903e 2ed6 0b3e e4eb bcbd 78dd bc3d
00000230: 0083 76bb fe83 ffbd e0c2 173e c39d 5abe
00000240: 4605 3c3e f2b1 223e 8f46 96be 5a8d 4c3e
00000250: 0684 8dbd 6a06 36be 50d4 ed3d 309c 4d3d
00000260: 60c3 0fbd 2400 b53d 40cf fabc c6e5 8ebe
00000270: 8c71 1e3e b03a 2abe 8c94 8ebd 72ce 4c3e
00000280: 3620 693e 25a6 883e 78b3 1a3d 14dc 72be
00000290: b833 1e3d 406a 493c f0ad 983c 827a 69be
000002a0: 40e8 003d eeff 423e c028 523d 7742 9d3e
000002b0: 8a6c 5cbe 8e02 723e a05b 893d 16ec 4a3e
000002c0: 12a0 623e d836 bbbd d0f5 d0bc 7e0c 90be
000002d0: c63e 92be 7e4e 6a3e 84cf 363e c203 fbbd
000002e0: cffb 1ebe 4ccb d73d a083 ab3d 67ca 8abe
000002f0: fd1c 35be 9904 58be c0bc 333d 16c9 3b3e
00000300: 5ad0 e1bd f87e 7fbd bacd 11be c49d 853d
00000310: f0ad f2bc 7823 27bd bc65 963d 7e6d 3e3e
00000320: c0a8 05bd c01d 39bc 746c 79be 7cbc 09be
00000330: 80ed fbbb 2097 5ebd c0cd 823c a26c 0cbe
00000340: 2097 e53d 60fa a43d 894c 05be c490 2ebe
00000350: c216 4b3e e7b0 3bbe 04e3 9cbe 38ef 353d
00000360: d0a2 1bbe 0143 7fbe 7683 fcbd c635 50be
00000370: 0479 de3d dab6 6a3e 72f8 503e ff0d 9a3e
00000380: 681d 3f3d ac2d da3d 3816 c5bd 8453 90bd
00000390: 1ae4 3dbe 3056 67bd 665c 203e a417 52be
000003a0: 1aca fabd b533 8ebe cd50 903e 052c 9f3e
000003b0: 2ccb fb3d 5edc 403e 850d 9c3e 184c 7abd
0.14009497 0.0007773638 -0.018438011 0.007715702 -0.22536038 0.009426683 -0.08706735 0.18197465
0.18482336 -0.036355346 -0.07274592 -0.20071712 -0.26388752 -0.3039636 0.28613195 -0.25570065
0.18519816 -0.11513984 0.08529836 -0.053419024 -0.085804 0.09194577 -0.09438677 0.09032184
-0.1405485 -0.27916503 0.05249369 0.002620399 0.20292005 -0.28825 -0.31515208 0.23365572
-0.09140435 0.26501068 -0.08708081 0.20558283 0.17619753 -0.009898543 -0.19233473 -0.0014865994
-0.21188891 -0.31332833 -0.11720419 -0.19127472 -0.3031996 0.28927723 0.23164716 -0.12868682
0.023391783 0.2837163 -0.018750787 0.15798008 -0.2928869 -0.29084656 -0.08162084 -0.26853192
-0.14143758 -0.07063857 0.03153479 -0.11182244 0.23535231 -0.27692252 0.08323452 -0.26994014
0.09092653 0.27406922 -0.044542998 0.30034086 0.16436312 0.1005027 -0.26204047 -0.069425404
0.22683749 -0.13173999 -0.024067521 0.27729264 -0.13871874 -0.04844132 -0.08877662 0.055259883
-0.19761589 -0.09231998 -0.13005184 -0.2404224 -0.16276129 -0.2933403 -0.25892958 0.0270921
-0.060727417 0.1099399 0.06194502 -0.22230095 -0.18839261 -0.09105584 0.29730085 -0.2636848
-0.11995329 -0.27362454 0.084493786 -0.21786419 0.15830448 0.13093239 0.162101 -0.25387004
-0.15191136 0.13559341 -0.30519554 -0.29743713 0.033910245 0.26874194 0.30974725 -0.16412547
0.11460534 0.23785976 -0.11977695 0.17315117 -0.16312046 0.14691436 0.12463459 0.14596328
0.17842945 0.31613007 0.026067823 0.21440199 0.09834552 -0.121135 -0.31192005 0.29604748
-0.29967934 -0.03267002 -0.29417795 -0.09855707 -0.13951294 -0.13353378 0.07877949 -0.29199517
0.2827153 0.13655922 -0.0922468 0.09221929 -0.0037614703 -0.124763474 0.14820433 -0.21349244
0.18361387 0.15888193 -0.29350707 0.19975796 -0.06909947 -0.17775884 0.11612761 0.05019778
-0.035098433 0.088379174 -0.030616403 -0.27909678 0.15473002 -0.1662395 -0.06961927 0.20000628
0.22766194 0.26689258 0.03776881 -0.23716766 0.03862354 0.012293398 0.018637627 -0.2280064
0.03147149 0.19042942 0.051308393 0.3071477 -0.2152578 0.23633787 0.06706929 0.19816622
0.22131374 -0.0914132 -0.025507838 -0.2813453 -0.28563517 0.22881505 0.17852598 -0.12256576
-0.15525745 0.10536823 0.08374715 -0.27107546 -0.1768684 -0.21095504 0.043881178 0.18338427
-0.11026068 -0.062376946 -0.14238635 0.06524232 -0.029623955 -0.04080531 0.07343623 0.18596455
-0.032631636 -0.011298597 -0.24357778 -0.13450807 -0.0076882243 -0.054343343 0.01596725 -0.13713315
0.112104654 0.08055568 -0.13017477 -0.17047411 0.198329 -0.18329202 -0.3064195 0.04441759
-0.15198827 -0.24927904 -0.12329762 -0.20333013 0.10862926 0.22921315 0.20407274 0.30088803
0.046658903 0.106532425 -0.096233785 -0.07047179 -0.18544045 -0.05647868 0.15660247 -0.2051683
-0.12245579 -0.27773824 0.28186646 0.31088272 0.12294611 0.18834063 0.30479065 -0.061107725

fc1.bias f4 [24]
00000000: d6a4 cbbd 7a58 663e 40a9 c53c 0266 423e
00000010: 6e0f 703e d885 0b3d 457b 9e3e 7dfa 9b3e
00000020: b68f 9fbd 6556 80be 1062 b23d 759a 903e
00000030: 535c 8c3e e0aa d3bd f2e9 6cbe fa55 6fbe
00000040: aac7 d9bd 0033 90bc 800f 99bb efe2 68be
00000050: df7b 0cbe 1418 b93d e895 72be 9977 8d3e
-0.09943549 0.22494689 0.024128556 0.18984225 0.23443386 0.03406319 0.30953422 0.30464545
-0.077910826 -0.25065914 0.0871011 0.2824284 0.27414188 -0.10335326 -0.23136118 -0.23372641
-0.10633786 -0.017602444 -0.004671037 -0.22742818 -0.13719128 0.09037796 -0.23689997 0.27630308
