saved_models/pytorch_dqn_model_16.04;23.27_-27.pt (torch, 106086 bytes, 24 tensors)

fc1.weight f4 [24, 10]
000000 64 11 21 3e ae 17 80 be f6 01 75 3e 0e 35 21 3e
       0.1572929 -0.25018066 0.2392653 0.15742895
000010 e0 ca 23 bc 08 b0 73 bd 17 8d 90 3e e0 77 18 3e
       -0.0099971 -0.05949405 0.28232643 0.14889479
000020 fd 67 51 be 66 2b f7 bd 80 f9 dc 3c 24 ef ea 3d
       -0.20449825 -0.120688245 0.02697444 0.11471394
000030 f1 ff 99 be 5e 14 5b 3e 48 07 07 3d 5e ea 2e 3e
       -0.3007808 0.21394488 0.03296593 0.17081591
000040 ca 49 39 be 27 88 8b 3e a8 74 94 be bb e8 97 3e
       -0.18094555 0.27252313 -0.28995252 0.29669747
000050 00 44 64 3c 10 10 d3 bd 7c 1e 94 be 40 0a 91 be
       0.013932228 -0.10305798 -0.28929508 -0.28328133
000060 ec db a2 3d 6b 81 8a be 90 e9 b3 bc b5 e7 84 be
       0.07952103 -0.27051863 -0.021961957 -0.25958028
000070 4e 3c 38 be 50 ec b3 bc fb 7a 12 be b8 1d 9c 3d
       -0.17991754 -0.021963269 -0.14304726 0.07622856
000080 18 47 2d 3d 6d 3a 89 be ae a3 29 3e 70 84 96 be
       0.04230413 -0.26802388 0.16566345 -0.29397917
000090 35 bc 8b 3e 3e cf b3 bd ea 10 fe bd 16 3c 66 3e
       0.27292028 -0.08779763 -0.1240557 0.22483858
0000a0 63 5b 2a be c2 09 53 3e 64 b9 75 be a0 a2 54 3c
       -0.16636424 0.20609191 -0.23996502 0.012978226
0000b0 04 76 ab bd 68 3e 89 bd c8 bc 38 3d 30 aa e7 3d
       -0.08372119 -0.06701356 0.04510191 0.113117576
0000c0 7f e2 94 be ce 6c 92 be 7d 12 86 be 2e 8a 48 3e
       -0.29079053 -0.28598636 -0.2618598 0.19583961
0000d0 b8 b5 0b 3d 77 88 98 3e fd 90 9c 3e 00 b2 3d 3b
       0.034108847 0.29791614 0.30579367 0.0028945208
0000e0 54 f1 f5 3d 9d 8b 98 be 38 49 82 be 70 d9 a6 bd
       0.1200892 -0.29794016 -0.25446486 -0.08146942
0000f0 0b 6d a0 3e b6 bb 43 3e a4 70 08 3e b9 3b 88 3e
       0.31333193 0.19114575 0.13324219 0.26608065
000100 df ac 8e be 80 fc 96 3b 04 da c4 3d ac 8c 3b be
       -0.27866265 0.004607737 0.09611896 -0.18315381
000110 2d 94 18 be a1 ab 88 3e 11 87 79 be a8 db 3f 3d
       -0.14900275 0.26693442 -0.2436793 0.04684034
000120 80 81 bc bd 02 fa 48 3e e5 af 43 be 40 c5 c0 bc
       -0.09204388 0.1962662 -0.19110067 -0.023531556
000130 90 4c e4 bc 97 94 84 3e d0 f4 9b bc f2 9e ce bd
       -0.02786854 0.25894615 -0.019037634 -0.1008891
000140 76 9c 57 be b8 1c 53 3d 90 19 85 bd 92 be 80 be
       -0.21055779 0.05154106 -0.06499016 -0.25145394
000150 28 9e 33 3d 34 87 fb bd 50 2e e7 3c a2 45 7f 3e
       0.043852 -0.12281647 0.028220326 0.24928907
000160 14 22 d5 bd 53 0d 85 3e a0 ec 34 bd fd e8 85 3e
       -0.104068905 0.25986728 -0.044170976 0.26154318
000170 b0 17 af 3d 00 a3 47 3b 90 d1 21 bd 59 93 94 be
       0.0854944 0.0030462146 -0.039506495 -0.29018667
000180 e0 d1 92 be 50 5d 58 3d 88 a4 0b bd e8 c8 27 bd
       -0.28675747 0.052823365 -0.034092456 -0.040963084
000190 92 c0 80 be 95 2a 9a 3e c2 9a 82 be 6d 6c 41 be
       -0.2514692 0.30110613 -0.25508696 -0.18889017
0001a0 c4 26 3a 3e f8 4e 76 be e0 3e fc 3d 72 ed 15 3e
       0.1817885 -0.24053562 0.1231668 0.1464136
0001b0 78 bc 9f be 60 84 13 3e 00 51 f8 bb d9 c6 11 be
       -0.31198478 0.14405966 -0.0075780153 -0.1423601
0001c0 a6 16 61 3e d7 ee 76 be 40 93 4f bc 40 eb af 3b
       0.21981296 -0.24114548 -0.0126693845 0.00536862
0001d0 20 64 dc 3d 94 9c c5 bd 33 76 9b be b4 21 54 be
       0.10761285 -0.096490055 -0.30363616 -0.20715982
0001e0 de dc 69 3e 54 4a 96 be 44 5e 6d be 74 81 1a be
       0.2283816 -0.29353583 -0.2318049 -0.15088445
0001f0 36 37 81 be 9e e8 e7 bd a8 30 93 bd 94 1b a8 bd
       -0.25237435 -0.11323665 -0.07187015 -0.08208385
000200 45 d3 81 3e b0 52 69 3d c4 fb e2 3d 71 1b a1 3e
       0.25356498 0.056963623 0.11083177 0.3146625
000210 34 be 53 be 68 bf d9 bd d2 b0 76 be b3 4a 1e be
       -0.20678025 -0.10632211 -0.24090889 -0.15458183
000220 00 dc 52 3d 53 6d 82 3e a1 13 a1 3e 37 ca 9a 3e
       0.05147934 0.25474033 0.31460288 0.30232403
000230 52 dc 27 3e 10 a1 26 3e 5e 53 52 be 4a 03 61 be
       0.1639264 0.16272378 -0.20539615 -0.21973911
000240 13 9f 92 3e 48 cb d9 3d 37 76 97 3e c8 fa 53 3d
       0.2863699 0.10634476 0.29582378 0.051752836
000250 a5 60 2c be af 84 a1 be 8e b4 88 be b2 16 c5 bd
       -0.16833742 -0.31546542 -0.26700252 -0.096234694
000260 70 3f 58 3d 08 13 58 3d 4e 3e 08 3e 98 ab 77 3d
       0.052794874 0.052752525 0.13305017 0.06046638
000270 84 b4 c3 3d 90 32 6e 3d c0 ec 1a 3e c6 1c e7 bd
       0.09555915 0.05815369 0.15129375 -0.11284785
000280 48 b2 7f bd e8 83 ff 3d d7 0c 7a be 72 8b 6f 3e
       -0.06242588 0.12476331 -0.2441896 0.23393038
000290 98 a4 b0 bd 28 c3 df bd f3 f9 92 3e a2 c8 c6 bd
       -0.08625144 -0.10925895 0.2870632 -0.097062364
0002a0 d4 5b a5 bd b0 9d 9f 3d c4 23 ee 3d 91 4b 81 3e
       -0.080741554 0.077937484 0.116279155 0.25252965
0002b0 98 62 7b 3d 06 85 21 3e 98 d5 24 3e 32 50 3a 3e
       0.061373323 0.157734 0.16097105 0.18194655
0002c0 30 6f 7d 3d 68 6d 8f 3d 42 17 24 3e d4 4d ca 3d
       0.061873615 0.070032895 0.16024497 0.09878126
0002d0 bd 66 81 3e d5 30 93 be 78 1b f4 3d b8 ef 6c bd
       0.25273696 -0.28748193 0.11919302 -0.0578458
0002e0 7a b1 68 3e d6 f5 5f 3e 98 40 a0 be bc 01 6f be
       0.22723952 0.21871123 -0.3129928 -0.23340505
0002f0 6e 30 02 be da e7 54 3e c6 2f 16 be dd ad 9c 3e
       -0.12713787 0.2079157 -0.14666662 0.30601397
000300 94 02 0a be 4e 57 32 be f9 0c 7e be b6 00 4f 3e
       -0.13477546 -0.17416117 -0.24809636 0.20215115
000310 fe 58 92 be 2f 29 90 3e 11 89 19 be ce c2 0a be
       -0.2858352 0.2815642 -0.14993693 -0.13550875
000320 88 38 44 be 5e 65 38 3e 92 29 47 3e 19 8b 8a be
       -0.1916219 0.18007419 0.19449452 -0.27059248
000330 c0 0b 26 3e d0 25 5b bd d3 2f 8d 3e bd b6 0a be
       0.1621542 -0.053502858 0.2757555 -0.13546272
000340 5d ee 74 be 6d a1 9e 3e 9b 2d 86 3e 2d 5d 69 be
       -0.23919053 0.30982533 0.2620667 -0.2278945
000350 00 30 51 bd d4 2a ba 3d 58 a2 7a bd d8 71 9c 3d
       -0.051071167 0.090902 -0.06118998 0.076389015
000360 8e 69 0b be 44 26 73 be 00 89 fb ba b4 d8 89 be
       -0.13614485 -0.23745066 -0.001919061 -0.26923144
000370 0a 9d 6b be f8 e0 f0 bd 2e ca a9 bd 50 a2 8f bd
       -0.23009124 -0.117616594 -0.08290516 -0.070133805
000380 eb 9d 91 3e ff e8 a0 3e a8 e5 30 3e 64 a4 d9 bd
       0.28440794 0.31427762 0.17275107 -0.10627058
000390 09 02 1c be 74 4a ae bd 05 99 88 be 04 ef 37 3e
       -0.15235151 -0.085102946 -0.26679245 0.17962271
0003a0 c0 2b 6c 3d 72 b3 2c 3e 43 8c 9f 3e 50 64 61 bd
       0.05765891 0.16865328 0.311617 -0.055027306
0003b0 48 0d 3a bd 19 ab 07 be 17 53 33 be fa 60 58 be
       -0.045422822 -0.13248862 -0.17512165 -0.21130744

fc1.bias f4 [24]
000000 c0 41 9e 3d 36 c4 55 3e 83 a3 99 3e f0 16 14 3e
       0.077273846 0.2087563 0.30007562 0.14461875
000010 e4 b2 a1 be 8d 8a 18 be c9 3f 83 3e ce 85 48 3e
       -0.31581795 -0.14896603 0.25634602 0.19582292
000020 04 82 a4 3d 38 0a 1b 3d 4a 51 c8 bd 08 dd 24 bd
       0.08032611 0.037851542 -0.0978113 -0.040249854
000030 7c af 21 3e 2e f3 26 be b8 98 90 3d 99 f6 56 be
       0.15789598 -0.16303703 0.07060379 -0.20992507
000040 30 44 17 bd 46 78 a0 be 68 43 4a 3d 4e 8b 2a be
       -0.036930263 -0.3134176 0.04938069 -0.16654703
000050 90 25 1f 3e e4 38 9f be 28 89 aa bd a0 14 52 bd
       0.15541673 -0.31098092 -0.08326942 -0.0512892

fc2.weight f4 [48, 24]
000000 50 9a 02 3c 2e 1c 12 be e5 05 50 be 00 3a c9 bb
       0.007971361 -0.14268562 -0.20314749 -0.0061409473
000010 df 56 05 be ac c9 01 3e e6 c9 0a be a8 5e d5 3d
       -0.1302142 0.12674588 -0.1355358 0.10418445
000020 00 85 91 bc 40 9c 2f bd 90 09 13 3e a4 52 11 3d
       -0.017763615 -0.04287362 0.14359117 0.035479203
000030 ea 2f 1d 3e 68 8a b2 3c 34 78 3e be 58 22 23 bd
       0.15350309 0.021794513 -0.18600541 -0.039827675
000040 16 f1 9e bd 2c 79 13 3d 59 6d da bd fa 49 48 be
       -0.07760827 0.03600423 -0.10665388 -0.1955947
000050 88 f2 ff bc 90 db 56 3d f6 3f 41 3e 90 a7 cb bc
       -0.031243578 0.052455485 0.18872055 -0.024860173
000060 40 98 36 3e c8 4e 12 3e 76 60 ee bd a0 0c 29 3e
       0.17831516 0.14287865 -0.11639492 0.16508722
000070 fc 91 4f 3e b8 99 56 bd bc 9a b4 bd 28 45 ef bd
       0.20270532 -0.05239269 -0.08818576 -0.116831124
000080 98 55 f8 3c 23 92 f8 bd 22 24 39 3e 2a d7 b9 bd
       0.030314252 -0.12137248 0.1808019 -0.090742424
000090 34 f0 f3 3d 38 00 32 bd 16 22 d8 bd 48 c7 b2 3c
       0.119110495 -0.04345724 -0.105533764 0.02182354
0000a0 92 b1 1d be 9c 78 98 bd 90 d6 10 3d 29 71 e9 bd
       -0.15399769 -0.074448794 0.035360873 -0.11398537
0000b0 70 33 15 bd 30 b9 9d 3c f4 2d a0 3d 60 6d 41 bc
       -0.036426008 0.019253343 0.07821265 -0.011805862
0000c0 d0 fb ed bd ae 89 89 bd 24 0c 4d be 34 5d f6 3d
       -0.11620295 -0.067157134 -0.20024163 0.12029496
0000d0 c2 d6 b0 bd 05 94 15 be 00 00 c4 bc e4 85 1f bd
       -0.08634712 -0.14607246 -0.023925781 -0.038946047
0000e0 e0 ce d5 3c ea 2c 2c 3e 00 12 9f bb b0 48 ac 3d
       0.026099622 0.16814008 -0.0048544407 0.084123015
0000f0 e2 02 31 3e 23 ce 43 be 70 27 84 bd 50 86 88 3d
       0.17286256 -0.19121604 -0.064528346 0.06666243
000100 82 90 38 be 44 4d 05 bd 88 be d3 3d 46 24 31 be
       -0.18023875 -0.03254439 0.10339075 -0.17298993
000110 65 57 47 be 0c 8b e6 3d 00 c8 9b bc 38 d8 6d 3d
       -0.19466932 0.1125699 -0.019016266 0.05806753
000120 f2 e5 0e 3e a4 07 88 bd 9f dd 0b be e2 c9 4b 3e
       0.13954905 -0.06642082 -0.1365876 0.19901231
000130 46 1b 50 3e c4 f4 0f be ef 1f 14 be 50 54 9a 3d
       0.20322904 -0.14058214 -0.14465307 0.075356126
000140 c6 0c f5 bd 29 40 48 be f4 20 9e 3d 38 d1 bc 3c
       -0.11965327 -0.19555725 0.07721129 0.023048982
000150 d2 ad 09 be b2 7d 29 3e f8 2a cc 3d 08 a5 12 bd
       -0.13445213 0.16551855 0.09969133 -0.035801917
000160 6c cb 31 3e 40 92 40 bc cc 97 44 3e a8 a4 9c 3d
       0.17362756 -0.011753619 0.19198531 0.07648593
000170 d5 4b a9 bd b8 24 23 3d c0 4a 1a 3e c8 5a 87 3c
       -0.08266417 0.03982994 0.15067577 0.01652278
000180 8c 1f 33 be 20 eb cb 3d a5 7a ec bd 9e 90 2e 3e
       -0.17492503 0.09956956 -0.1154683 0.17047355
000190 fe c0 06 3e 00 16 ea 3a c0 4f 7b 3c 24 dd 96 bd
       0.13159558 0.001785934 0.015338838 -0.07366398
0001a0 de 84 24 3e bd 46 e5 bd de d6 b2 bd 31 41 c4 bd
       0.1606631 -0.11195133 -0.08732389 -0.09582747
0001b0 18 7f a0 bc 08 f5 ff 3c f8 ae 90 3d f4 1b 1f be
       -0.019591853 0.03124477 0.07064623 -0.15538007
0001c0 5d 1f 49 be 60 7a ec 3d ea fb 1a 3e b3 9e 4d be
       -0.1964087 0.11546779 0.1513516 -0.2008007
0001d0 86 f3 a8 bd 60 da cc 3b f6 93 86 bd 78 b1 7e bd
       -0.082495734 0.0062516183 -0.0657119 -0.062180966
0001e0 ec f2 29 3d aa d7 01 3e 61 ff 34 be e4 3e 20 be
       0.041491434 0.12679926 -0.17675544 -0.15648991
0001f0 90 31 eb 3d 88 bf a9 bc c8 fe ae bc 6c a9 26 bd
       0.11484063 -0.020721212 -0.021361724 -0.040688917
000200 b0 4a 99 bd c0 b7 c8 bb 8c c0 2d be 7b ae 17 be
       -0.07484949 -0.0061254203 -0.16967982 -0.14812653
000210 9e 78 4b 3e b4 1d 8d 3d 60 0f 94 bb cc 1f 29 be
       0.1987023 0.06890431 -0.0045184344 -0.16516036
000220 74 a8 0d 3e 84 d0 9f 3d e0 2a ab bb 98 ff 9a 3d
       0.13833791 0.07803443 -0.005223617 0.07568282
000230 10 29 4e 3e c0 90 14 bb 94 37 1e 3e 72 8c 42 3e
       0.20132852 -0.0022669286 0.15450889 0.18998888
000240 0c 87 40 3e 88 97 3b 3d c7 01 03 be 00 00 ab bb
       0.18801516 0.04579881 -0.12793647 -0.005218506
000250 f4 6e f2 3d b6 e6 3f 3e 68 8a c9 bc 70 fc 07 3c
       0.11837569 0.18740353 -0.02460213 0.008299932
000260 40 ed 1b 3b d0 6f a7 3c 80 ca 22 3d c0 3a fa bd
       0.0023792535 0.020439059 0.0397439 -0.12218237
000270 e0 e5 ae 3b 1c a6 d7 3d 66 84 33 be c0 a5 54 3d
       0.005337462 0.1052973 -0.17530975 0.051915884
000280 c2 ea 2f 3e 80 cf 1f bc 9e 71 2c be b1 89 f7 bd
       0.17179397 -0.009754062 -0.16840217 -0.120868094
000290 26 b0 a8 bd 84 b8 91 3d 44 cc 6f bd 9e 98 1f be
       -0.08236723 0.07115272 -0.058544412 -0.15585563
0002a0 88 78 21 be b0 a9 42 3d 3c 39 01 3d 80 d4 26 bb
       -0.15768635 0.047525108 0.031548724 -0.002545625
0002b0 c4 b4 e7 3d 10 47 5c bd 96 98 18 be c0 59 a1 bd
       0.11313775 -0.053778708 -0.14901957 -0.078784466
0002c0 b8 4c 87 3d af 45 cd bd 99 32 40 be 96 2b b0 bd
       0.0660643 -0.10023057 -0.18769301 -0.08602063
0002d0 c1 06 10 be 00 a8 ee 3c 94 0a 4a bd 6c fd 0c be
       -0.14065076 0.029132843 -0.049326494 -0.13768548
0002e0 e8 ab 33 be 8c 39 89 bd a4 75 11 be 99 9d c4 bd
       -0.17546046 -0.06700429 -0.14205033 -0.09600372
0002f0 a8 61 33 be 00 eb a6 3d c3 9f d8 bd b8 cc 5a bd
       -0.17517722 0.081502914 -0.10577347 -0.05341789
000300 44 15 c9 3d 58 59 ee 3d 4e f5 2c be e4 57 ed bd
       0.09818509 0.11638135 -0.16890451 -0.115890294
000310 a1 e3 b4 bd 86 cb 49 3e c8 a7 38 bd 8e 80 4d be
       -0.08832479 0.19706544 -0.045081884 -0.20068571
000320 18 c8 63 bd b8 d8 32 3e 1a d1 8d bd 18 cd a3 3d
       -0.055610746 0.17465484 -0.069246486 0.07998103
000330 7e 1d 40 3e 00 e8 44 be 5d 13 03 be 6f 61 b1 bd
       0.1876125 -0.19229126 -0.12800355 -0.08661162
000340 e0 62 d5 bb 28 e0 d1 bd 50 38 03 3e 08 d0 3b 3e
       -0.006512031 -0.102478325 0.1281445 0.18341076
000350 34 52 8d bd 7a 22 36 3e f0 cf b1 3c e0 e7 d0 3d
       -0.069004446 0.1778659 0.021705598 0.10200477
000360 3c 2f 95 bd 04 30 b2 3d 70 46 38 bc 1c bc ec 3d
       -0.072844 0.087005645 -0.011247262 0.115593165
000370 6c 98 fb 3d 18 20 2d be 02 38 da bd 99 67 be bd
       0.122849315 -0.16906774 -0.10655214 -0.092971034
000380 d8 02 bc 3d f0 d4 0b bc f0 b7 3e 3e a0 9d 0e 3c
       0.0918023 -0.008534655 0.18624854 0.008704573
000390 b8 08 15 3e a0 77 63 bd cc 40 6a bd 08 12 35 3e
       0.14554107 -0.055534005 -0.0571907 0.1768266
0003a0 9c af 22 3e 0c dd 7b bd 79 77 e5 bd 30 db ec 3c
       0.15887302 -0.061490104 -0.11204428 0.02891311
0003b0 46 fc 1c be 70 1e 8a 3d 44 dd 1b be dc b8 2c be
       -0.1533061 0.06744087 -0.15221125 -0.16867393
0003c0 37 2a 32 be 36 c8 1d be e4 39 dc 3d dc 2f 4b bd
       -0.17398916 -0.15408406 0.10753229 -0.04960619
0003d0 0f 1c 3e be 3a eb 0b 3e 58 c8 9a 3d 92 97 f4 bd
       -0.18565391 0.1366395 0.07557744 -0.11942972
0003e0 5a a7 05 3e 23 3e f0 bd d0 ba 5e bc 7a 44 1a 3e
       0.13052121 -0.11730602 -0.013594344 0.15065184
0003f0 70 55 10 3d a0 21 16 bc d2 21 41 3e c0 42 78 3c
       0.03523773 -0.00916329 0.18860558 0.015152633

fc2.bias f4 [48]
000000 59 c7 04 be 44 c1 10 be ce dc 33 3e 9d 06 3e be
       -0.1296667 -0.14136225 0.17564699 -0.1855721
000010 2a 49 2f 3e 50 41 7d 3d f8 94 a5 bd fc 12 ce 3d
       0.17117754 0.061829865 -0.08085054 0.10062215
000020 40 65 05 3c 20 f8 e9 3b bf d2 1d be 5f 32 0a be
       0.008141816 0.0071401745 -0.15412425 -0.13495778
000030 a8 c2 ac 3d 5f 03 3e be 40 18 ad bb 22 8d 19 be
       0.08435565 -0.18555973 -0.005282432 -0.14995244
000040 d4 f0 1e be f0 48 3a 3c 40 b4 6a 3c a8 d5 3d bd
       -0.15521556 0.011369929 0.0143252015 -0.046346337
000050 76 8e 41 be d0 ca be 3d d8 cc ef 3d 28 70 e7 bd
       -0.18902001 0.09316027 0.11708993 -0.11300689
000060 30 39 70 3d b0 6e 17 3e 13 0a 24 be d6 7a 0c 3e
       0.05864829 0.14788318 -0.16019468 0.13718733
000070 7e ce 03 be 2c 37 1a 3d e3 ac d8 bd e0 8f ad 3b
       -0.1287174 0.037650272 -0.105798505 0.0052966923
000080 66 24 91 bd 98 e2 84 3d 20 f8 cb 3d a0 9b a1 bb
       -0.070870206 0.06488532 0.099594355 -0.004931882
000090 e1 43 36 be 94 36 66 bd ac 9a 35 3d bc ad 19 3d
       -0.17799331 -0.056204394 0.04433696 0.0375192
0000a0 68 3e b3 3d 9c 86 b6 3d 80 5a 18 bc ca 1c 4e 3e
       0.087521374 0.089123935 -0.009298921 0.2012817
0000b0 84 0a 47 3e 44 03 09 bd 18 93 08 3d 90 ce c5 bc
       0.19437605 -0.03345038 0.033343405 -0.024146348

fc3.weight f4 [96, 48]
000000 54 d2 41 bd 2b fe bd bd 10 30 3e 3c 54 a9 06 bd
       -0.047319725 -0.09276994 0.011608139 -0.032876328
000010 f2 9e 94 3d d6 6f f1 bd 90 f9 4c bd 86 a2 b1 bd
       0.07256879 -0.11788909 -0.05004269 -0.08673577
000020 04 d0 bb bd 57 df 05 be 82 aa f1 bd e9 16 13 be
       -0.09170535 -0.13073479 -0.118001 -0.14364208
000030 40 a8 6f bc 64 7d b7 3d 48 ac f4 3c a4 20 b4 bd
       -0.014627516 0.08959463 0.029867306 -0.08795288
000040 36 18 bd bd d0 34 09 3e e8 39 ce 3c 50 61 0d bd
       -0.092331335 0.13399053 0.025174096 -0.034516633
000050 7c c0 08 bd f8 a3 d6 bd 60 3a af 3b e4 99 b1 3d
       -0.033386692 -0.10480493 0.005347535 0.086719304
000060 68 2a 8c 3c 40 a7 1e bb 58 0d 85 3c 22 c8 87 3d
       0.017110065 -0.0024208575 0.016241714 0.06629969
000070 14 63 3b 3d 40 09 de 3d 74 c1 d3 bd f4 f8 83 3d
       0.045748785 0.10841608 -0.10339633 0.064439684
000080 24 aa 04 bd 22 d5 c8 3d ef 34 04 be f2 d4 c3 3d
       -0.03238882 0.09806277 -0.12910818 0.095621005
000090 c4 eb f3 3d eb c8 e4 bd 28 6d 8c 3d 8e c9 00 3e
       0.11910203 -0.111711346 0.068567574 0.12576887
0000a0 70 9a 66 bc 50 ce 69 3d 56 d8 24 bd 4a e4 12 3e
       -0.014074907 0.05708152 -0.040245377 0.14344898
0000b0 f2 6d 9d 3d 68 5a 47 3d ac 8f 81 bd 68 ef e0 bd
       0.07686986 0.048670202 -0.06326231 -0.10983163
0000c0 e8 85 36 3d 00 f0 c6 38 7c e9 4a 3d 4c 7e 83 bd
       0.044561297 9.486079e-05 0.049539074 -0.064205736
0000d0 12 9f 0c bd 84 25 29 3d fa f0 09 be f4 fc 7c 3d
       -0.03433139 0.041295543 -0.13470832 0.061764672
0000e0 8c 19 ed bc fa 40 12 3e dc 24 e0 bc 85 a9 ea bd
       -0.028942846 0.14282599 -0.027361326 -0.114581145
0000f0 a0 c1 5e 3d b8 f1 0e 3d 87 55 a3 bd 18 e4 ae 3d
       0.054383874 0.03489849 -0.079752974 0.08539599
000100 ba f8 eb bd bb 21 11 be 20 ce b0 bd 27 79 94 bd
       -0.1152205 -0.14173023 -0.08633065 -0.072496705
000110 7c 1e f3 3d 9e 37 8c 3d aa 05 92 3d 3e 49 09 3e
       0.11871049 0.06846546 0.071299866 0.13406846
000120 1c 3e b4 3d 86 4c 09 3e 98 4c f5 3d cc af 56 3d
       0.08800909 0.13408098 0.119775 0.052413747
000130 f8 76 f3 3d 56 ec b6 bd cc 1c 07 3d 36 d4 a3 bd
       0.11887926 -0.08931796 0.032986447 -0.079994604
000140 bf d5 bd bd be 33 96 bd d3 81 0f be 67 17 8e bd
       -0.092692845 -0.07334088 -0.14014368 -0.069380574
000150 44 58 0c 3e 5c 73 da 3d fa d2 73 bd 26 22 0a be
       0.13705546 0.10666534 -0.059527375 -0.13489589
000160 90 e0 b0 3c 8a b6 39 bd 70 46 62 bc 76 59 0e be
       0.021591455 -0.0453401 -0.013810739 -0.13901314
000170 6c 08 e8 bc 48 30 96 bc f0 55 4d 3c f0 d0 7a 3c
       -0.028324328 -0.01833357 0.012532696 0.015308604
000180 10 c5 3e bd 54 92 a9 3d 72 4e 4b bd 60 62 fb 3d
       -0.046574652 0.08279863 -0.04963536 0.12274623
000190 62 ac 08 3e 00 7c 4a 3b 18 6b 23 3d 58 e2 6f bd
       0.13347009 0.0030896664 0.039897054 -0.058565468
0001a0 78 c7 82 3d c0 25 06 3e d4 18 79 3d 8c 00 f2 3d
       0.06385702 0.13100338 0.060814694 0.118165106
0001b0 a0 19 7a bc 30 03 31 3d 44 f1 d0 bc 5a 42 c4 3d
       -0.015264899 0.04321593 -0.02550567 0.09582968
0001c0 68 59 44 3d 08 f1 b8 3c 98 3c 0c 3e 10 47 cd bd
       0.047936827 0.02257587 0.1369499 -0.1002332
0001d0 ce ae c4 bd a4 00 72 bd f0 13 fa 3d 16 88 0b be
       -0.09603654 -0.059082642 0.12210834 -0.13626131
0001e0 68 75 56 3d d8 8c bf bc 98 76 cf bd f4 fe ec bd
       0.05235806 -0.02338259 -0.10130042 -0.11572066
0001f0 e0 b6 b9 bc 98 b3 d8 3c a0 b0 96 bc 7b 5e 06 be
       -0.02267021 0.026452824 -0.018394768 -0.13121979
000200 71 da 9d bd 00 15 a1 ba 50 67 45 bc 60 b1 cb bb
       -0.0770768 -0.0012289584 -0.012048557 -0.006216213
000210 a4 bd ec bc b8 08 a3 3c b8 6b ea bd 34 fd 89 3d
       -0.028899021 0.019901618 -0.11446327 0.06737748
000220 52 cd 12 3e 23 4a 09 be f0 65 2c bc 22 e0 57 bd
       0.14336136 -0.13407187 -0.010522351 -0.052703984
000230 a0 6e 0f 3e d6 08 aa bd c0 fd d2 3d 3c c0 cf 3d
       0.14007044 -0.083024666 0.10302305 0.10144088
000240 e2 ac 63 bd 6e d1 ac bd 30 35 67 3d 2e 74 85 bd
       -0.055584796 -0.08438383 0.056447208 -0.065163
000250 24 25 e2 bc 00 62 db bd 78 a7 81 bd 48 45 11 3e
       -0.0276056 -0.107120514 -0.0633077 0.14186585
000260 6a 97 6d bd a6 a5 01 3e 64 fc 1e 3d 1f 71 04 be
       -0.058005728 0.12660846 0.038814917 -0.12933777
000270 c8 06 e9 3c 94 29 70 bd f3 d5 ec bd 4c 4f 4d bd
       0.028445616 -0.058633402 -0.11564245 -0.05012445
000280 2a 4f 01 be a2 4e 67 bd 98 86 9a bc 50 da e3 3d
       -0.12627855 -0.056471474 -0.018863007 0.11125624
000290 80 28 3d 3d 58 21 b8 3c a0 9c cb 3b 60 f1 ef bd
       0.046181202 0.022476837 0.0062137395 -0.117159605
0002a0 e1 29 83 bd 12 84 0f 3e 00 32 89 3b 30 93 59 bc
       -0.06404472 0.14015225 0.0041868687 -0.013279721
0002b0 e0 64 92 3c a0 6b 83 3b 7c a7 af bd 04 62 5d bd
       0.017870367 0.0040106326 -0.08576867 -0.054048553
0002c0 64 61 a4 bd 0e 02 b8 3d e4 f9 d2 bd bc 7a 11 3e
       -0.08026388 0.08984767 -0.10301569 0.14206976
0002d0 74 a7 7e 3d b6 3a 05 3e e0 dc 8e bc c4 69 39 3d
       0.062171414 0.13010678 -0.017439306 0.04526688
0002e0 f8 6b e0 bd 70 5d 21 3c 40 ac 0a 3d d2 38 91 3d
       -0.109580934 0.009848937 0.033855677 0.07090916
0002f0 f8 3a ab bd 40 69 53 3d b3 ef 8b bd e2 d9 91 bd
       -0.08360857 0.051614046 -0.068328284 -0.07121636
000300 08 b2 5b bd a4 1a 5b bd 08 82 7e bd 74 78 f6 bd
       -0.05363658 -0.053492203 -0.062135726 -0.12034693
000310 9c 0b a8 3d c0 67 ba 3b 2c 9b 06 bd 60 5a aa bd
       0.08205339 0.0056886375 -0.032862827 -0.08318019
000320 e0 04 36 bd 08 78 76 bd 64 9d f7 3d 4c b6 7f 3d
       -0.044438243 -0.060173064 0.12090567 0.06242971
000330 a4 28 10 3e 86 f9 88 3d c8 33 8d 3d a6 ce 09 be
       0.14078003 0.06688218 0.06894642 -0.13457736
000340 10 6c 93 3c 20 f6 e0 3d f2 95 c8 3d 50 4e 60 3c
       0.017995864 0.109844446 0.09794225 0.013690546
000350 14 e7 ef 3d 4b 8a 04 be 72 fd cb 3d 7a 09 0e 3e
       0.117139965 -0.1294338 0.0996045 0.13870803
000360 f0 4f 35 3c 9c 0d 69 bd 2e 19 ab bd fc 91 e1 3d
       0.011066422 -0.056897745 -0.08354412 0.110141724
000370 44 3f bb bc f1 3e 0d be e8 f0 d5 3d 12 b5 b9 bd
       -0.022857316 -0.13793541 0.1044634 -0.090677395
000380 40 bb c5 bd ec bd 4e 3d 02 1b 33 bd e0 e0 91 bb
       -0.09654856 0.050474092 -0.04372693 -0.004451856
000390 d8 22 a8 3d 6e bd eb bd a8 00 fe 3d 7c ca 78 bd
       0.08209771 -0.1151074 0.12402469 -0.06073998
0003a0 40 5d 6f bd 8a 3a e7 bd bc 53 b6 bc a8 e1 cb 3c
       -0.05843854 -0.11290462 -0.022256725 0.024887875
0003b0 f8 32 ae 3c d0 4e 1d 3d 56 73 00 3e 50 63 74 bc
       0.021264538 0.03840524 0.12543997 -0.014916256
0003c0 1c 39 8a 3d 78 4c d6 3d 96 64 b0 3d 30 42 f0 3d
       0.06749174 0.10463804 0.08612935 0.11731374
0003d0 8c 45 01 3e f0 ab a9 bd c0 db e0 3b 47 ba f1 bd
       0.12624186 -0.082847476 0.0068621337 -0.11803108
0003e0 70 56 f9 3d 78 0e 64 3d e1 22 85 bd 20 e9 ed 3b
       0.1217469 0.05567786 -0.06500793 0.0072604567
0003f0 82 e9 88 3d 6c 81 e6 bc e6 1b 01 be 8c f2 d1 3d
       0.06685163 -0.028137885 -0.12608299 0.1025134

fc3.bias f4 [96]
000000 f8 48 07 be e2 30 e1 bd 6e f4 13 bd 4c c5 cb bc
       -0.13211429 -0.10995652 -0.03612178 -0.024874352
000010 30 c6 42 bd 04 62 58 bd 20 8f 75 bd c7 55 86 bd
       -0.047552288 -0.05282785 -0.059950948 -0.065593295
000020 00 ca 02 ba 20 30 61 bc 40 81 c2 3b 50 2d e1 3c
       -0.0004989207 -0.013744384 0.005935818 0.027487427
000030 ed 24 cd bd fa e9 08 3e 01 ee 98 bd 40 bd 1e bd
       -0.10016809 0.13370505 -0.07467271 -0.0387547
000040 d8 62 df 3d 98 f7 c2 3d a7 69 0d be 4a e7 e0 bd
       0.10907525 0.09519881 -0.13809834 -0.10981615
000050 f8 44 19 3d c0 15 e0 3c 90 5e 97 3c 6c ae 23 bd
       0.03741929 0.027354121 0.018477708 -0.039961264
000060 f6 ba 58 bd 84 30 e0 bc e6 a3 05 3e 12 e9 02 3e
       -0.052912675 -0.027366884 0.13050804 0.12784222
000070 fa c4 bc bd 52 d7 d4 3d d0 3e c5 3c a8 e8 08 3d
       -0.09217258 0.103926316 0.024077803 0.033425003
000080 60 f9 4d 3c 66 7b e1 bd 68 b3 dd bc 0c c1 86 bd
       0.012571663 -0.110098645 -0.027063087 -0.065797895
000090 3a 8e c2 3d f7 6b e5 bd c0 39 54 bb 20 42 d9 3d
       0.09499784 -0.11202233 -0.0032383054 0.106083155
0000a0 24 01 1a 3d 24 88 c2 bd 2d 3b 96 bd 05 95 04 be
       0.037598744 -0.09498623 -0.07335506 -0.12947471
0000b0 88 1f ec bc e0 09 25 3d 8c a1 0b be b4 a0 82 bd
       -0.028823629 0.04029262 -0.13635844 -0.06378308
0000c0 f8 b9 e0 3d 60 69 00 3e 18 00 ac bd 5c 5a 7c 3d
       0.10972971 0.12540197 -0.083984554 0.06160961
0000d0 e6 26 d3 3d 14 82 c6 3d de d5 a9 3d 50 e0 a6 bc
       0.10310154 0.09692779 0.08292745 -0.020370632
0000e0 6c cc 4f bd d8 1e cc bd e6 74 a0 3d 24 d2 7c 3d
       -0.05073206 -0.099668205 0.078347966 0.061723843
0000f0 c0 5c 9e bc 16 7e be bd c4 80 5b 3d 56 59 0b bd
       -0.019331336 -0.09301393 0.053589597 -0.034020744
000100 b4 28 86 3d 7a f3 cb 3d 22 58 92 3d 7c ae 2e bd
       0.06550732 0.09958549 0.07145716 -0.04264687
000110 4d 02 e3 bd 88 15 0e 3e e0 da 54 bc 70 b4 b6 3d
       -0.11084423 0.13875401 -0.012991637 0.089211345
000120 e8 e5 0c be 85 36 ea bd 0c 5b 0b 3e 2e eb 04 3e
       -0.13759577 -0.1143618 0.1360895 0.12980339
000130 3c ef d9 3d 46 e6 4e bd c0 9b 4b bb 4a 03 83 3d
       0.106413335 -0.050512575 -0.0031068176 0.06397112
000140 74 22 b3 3d 50 6a 00 3e 5a 2f 09 3e 60 45 0e 3e
       0.08746806 0.12540555 0.1339697 0.13893652
000150 bc 08 da 3d 8c 3b 11 3e c8 56 b8 3d 86 8a b6 bd
       0.10646197 0.14182872 0.09000927 -0.0891314
000160 88 63 d3 3c f0 fa eb bc 58 8c 75 3d a1 04 9c bd
       0.025804296 -0.02880618 0.059948295 -0.076180704
000170 1a e2 60 bd 7c 6a f0 3d 4c eb 24 bd 80 6a f1 bc
       -0.054903127 0.1173906 -0.04026346 -0.029469728

fc4.weight f4 [48, 96]
000000 c6 37 bb 3d 0a 7d b0 bd 10 3a d4 3b 06 5e ae 3d
       0.09141497 -0.08617599 0.006476648 0.08514027
000010 74 6d 82 3c f2 2a 9c 3d 9a ee 9f bd 78 8e 8b 3d
       0.015921332 0.07625379 -0.078091815 0.06814283
000020 82 83 68 bd ea 24 87 3d 96 11 39 bd a4 0e 9d bc
       -0.05676604 0.06598838 -0.045182787 -0.01917202
000030 00 ae 61 3d c8 95 d5 3c 3c 5b 37 3d 34 71 d0 bd
       0.05509758 0.026072398 0.044764742 -0.10177842
000040 40 66 34 3b 88 8a 85 3d 24 e5 8d 3c 50 a2 b4 bd
       0.0027526766 0.06520563 0.017321177 -0.08820021
000050 ec fa 26 3d 50 af bb bd bc ba bf 3d f0 57 a9 bd
       0.04076664 -0.091642976 0.09361789 -0.08268726
000060 7d 8e b3 bd ca c8 cb 3d 50 a3 fb bb 86 bf cd 3d
       -0.08767412 0.09950407 -0.0076793805 0.10046296
000070 48 7f 41 3c 48 8d ab bc db 5a b4 bd f3 ba 4a bd
       0.011810131 -0.020941392 -0.08806392 -0.049494695
000080 90 d1 d7 bb 5e 31 2a bd 38 46 eb bc 0a 69 9a bd
       -0.006586261 -0.041550986 -0.028720006 -0.07539566
000090 c0 db 84 3d 08 f5 ad 3c fe 82 92 bd bc bb 0b 3d
       0.064872265 0.021235004 -0.07153891 0.034114584
0000a0 1c 40 2b 3d 7c 44 2a 3d b4 7a 40 bd 90 27 94 bd
       0.041809186 0.041569218 -0.04699202 -0.072341084
0000b0 40 e2 31 bb d0 e8 15 bc 1a 39 98 3d 60 48 72 3d
       -0.0027142912 -0.009149745 0.07432766 0.059151053
0000c0 85 7a b9 bd f3 aa 73 bd e9 de b9 bd d8 67 94 3d
       -0.09056572 -0.0594892 -0.0907572 0.07246369
0000d0 20 f5 93 bd 7c 52 a2 3d a8 00 ca bc 61 fa ad bd
       -0.07224488 0.07925889 -0.024658516 -0.084950216
0000e0 76 55 a9 3d c7 90 cf bd e4 6f 1a bd 9d 27 51 bd
       0.082682535 -0.10135036 -0.037704363 -0.05106317
0000f0 b0 60 dd 3c 10 72 ce 3d ae 2e c3 3d 98 c0 78 3d
       0.027023643 0.100803494 0.09530388 0.060730547
000100 22 0b 90 bd 80 47 10 bb e0 1b 60 bd 20 a9 4a 3d
       -0.070333734 -0.0022015274 -0.054714084 0.049477696
000110 34 dd 2a bd ff 8a c4 bd d8 bd 32 3c 3a d2 7a bd
       -0.041714862 -0.09596824 0.01090952 -0.061235644
000120 f0 5d b0 3d 34 53 b1 bc 88 31 7b 3d dc 43 a6 3d
       0.08611667 -0.02164612 0.061326534 0.08118412
000130 c0 ec 46 3d da 39 a6 3d 8a 7a 99 bd f6 e3 83 bd
       0.048565626 0.08116503 -0.074940756 -0.064399645
000140 54 fa 67 3d 7a 8e 0d bd 18 05 8d bc 5a ff 8f 3d
       0.056635216 -0.034559704 -0.017214343 0.07031126
000150 38 b7 99 3d 98 29 8f 3d 57 0c c3 bd 62 22 49 bd
       0.07505649 0.06990355 -0.09523838 -0.049105056
000160 78 27 0c 3c 58 0f 5b 3d 28 37 4e 3d c0 8b b6 3c
       0.008554332 0.05348143 0.05034557 0.022283435
000170 3f f0 27 bd 12 c7 be 3d 3e c1 83 3d 3b 4c ba bd
       -0.0410006 0.093153134 0.064333424 -0.09096571
000180 f4 09 13 3d a8 2f 17 3d c0 c3 ca 3c 20 89 bf 3d
       0.035898164 0.036910683 0.024751544 0.093523264
000190 fa 9b 60 bd 3a b7 85 3d e0 53 c1 3d 46 a9 98 bd
       -0.05483625 0.06529088 0.09439826 -0.07454161
0001a0 6c 7a 96 3d 6b 8e b8 bd 7b a5 5b bd ee e8 af 3d
       0.07347569 -0.09011539 -0.05362461 0.0858935
0001b0 28 98 b6 bd e0 28 1a bd 02 cc 93 bd 87 7f cb bd
       -0.0891574 -0.037636638 -0.07216646 -0.09936433
0001c0 54 db 89 bd c4 4b 1a 3d 8e b8 c5 3d 85 f0 37 bd
       -0.06731287 0.037669912 0.09654342 -0.04490711
0001d0 c0 61 bd 3b 80 9c a9 3c f4 22 05 bd 8c 27 79 3d
       0.005779475 0.020704508 -0.032504037 0.06082873
0001e0 80 8f 1f 3b e8 34 33 bc 50 08 6b bd d0 09 fc 3b
       0.0024347007 -0.010937907 -0.057380974 0.0076915994
0001f0 4c aa 9a 3d 88 ba bc 3d b7 d6 9d bd 98 8a ee 3c
       0.07552013 0.092152655 -0.07706969 0.029118821
000200 84 94 d3 bc ac 17 97 bd 36 d0 a0 3d 00 44 0a bb
       -0.025827654 -0.07377562 0.07852213 -0.002109766
000210 e0 b3 7d 3c 08 9c c0 3d 17 69 b0 bd 38 cb 0e 3d
       0.01548478 0.094047606 -0.08613794 0.034861773
000220 80 bb 54 ba 5c 89 1d 3d 29 ba a0 bd 91 86 b5 bd
       -0.0008115098 0.038461074 -0.07848007 -0.08863557
000230 6a 7c 8b 3d f4 cf 26 3d a8 d8 7f 3d b0 4a 5e 3c
       0.068108395 0.040725663 0.06246248 0.013567612
000240 6c f9 85 3c 50 8a 16 3d a8 b3 e9 3c 45 6d 89 bd
       0.016354285 0.036753 0.02852805 -0.06710295
000250 1c 23 e2 bc 4e 67 ac bd 54 4e c3 3d 58 63 b8 3d
       -0.027604632 -0.08418141 0.09536424 0.09003323
000260 7f 0a 4e bd 0c 7f 08 3d 80 60 77 3a b8 77 1d 3d
       -0.05030298 0.033324286 0.0009436682 0.03844425
000270 cf 82 27 bd 48 2b b0 3d c0 e9 cf bd f8 a4 8f 3c
       -0.040896233 0.08602005 -0.10152006 0.017534718
000280 02 a9 af bd ac 41 b2 bd 74 c9 8a bd 15 aa a3 bd
       -0.085771576 -0.08703932 -0.067767054 -0.07991425
000290 fe 2a ce bd 58 55 eb 3c aa f5 8d 3d e0 c3 cc 3b
       -0.10066794 0.028727219 0.06931622 0.006248936
0002a0 c0 46 b1 bd a8 54 b4 3d d3 00 78 bd cc 40 bc 3d
       -0.086560726 0.088052094 -0.06054766 0.091920465
0002b0 a4 fe 8f bd e8 65 e3 3c c0 10 f4 3c 60 2d 14 3d
       -0.07030991 0.027758554 0.029793143 0.036176085
0002c0 e8 92 21 3d e0 43 87 bc fa bc 85 bd ac 99 1b 3d
       0.03944674 -0.016511858 -0.06530185 0.03798835
0002d0 8c 67 a2 3c 0e 33 a9 bd e4 ea 54 bd 98 14 37 3d
       0.019824766 -0.08261691 -0.05198182 0.044697374
0002e0 94 58 ab 3d d8 8f a6 3d f0 43 b1 3c 69 59 67 bd
       0.08366504 0.08132905 0.02163884 -0.056481753
0002f0 66 f3 c4 bd fe 42 b1 3d 20 37 33 3d 21 b6 80 bd
       -0.09616737 0.08655356 0.043753743 -0.06284738
000300 61 d2 51 bd 84 35 c1 3d a0 f1 bd bb 3c e1 c9 3d
       -0.051226024 0.094340354 -0.005796626 0.09857413
000310 26 79 87 3d 06 d6 ce 3d 88 b3 68 3d 04 b3 1c 3d
       0.06614904 0.100994155 0.05681184 0.03825666
000320 b5 92 c5 bd f2 57 cc 3d db ac a4 bd 8c 66 92 3c
       -0.09647123 0.09977712 -0.08040782 0.017871164
000330 5c 0f bb 3d ec ba 8c bc 62 35 55 bd 8c 70 19 3d
       0.09133789 -0.017178975 -0.052052863 0.03746085
000340 94 8d 09 3d 50 29 44 bc c4 08 0f 3d e1 fc ca bd
       0.033582285 -0.01197274 0.03492047 -0.09911514
000350 68 4f 86 3c 08 a3 de bc 22 3c cf 3d ac 3f bc bd
       0.016395286 -0.027177349 0.10118891 -0.09191832
000360 ce ef 0b bd ce b3 94 3d 9c 1f 9f bc 4a 1a 97 3d
       -0.034164242 0.072608575 -0.019424252 0.07378061
000370 14 79 bd bc 3f 18 bb bd f0 36 61 3d be c2 73 bd
       -0.023129024 -0.09135484 0.054984033 -0.059511892
000380 c8 b6 bf bd 44 ea a0 bd 98 55 b4 bd 74 b5 65 3d
       -0.09361035 -0.078571826 -0.08805388 0.05608125
000390 40 9a df 3c 79 ff bb bd 4e ef 0b bd 6c 07 1e 3d
       0.027295232 -0.09179587 -0.034163766 0.038581297
0003a0 e8 dc 19 bc 80 30 6d 3a 40 12 92 3a a4 29 62 3d
       -0.009391047 0.00090480596 0.0011144355 0.055215493
0003b0 4b 0e c3 bd 00 2a 42 ba b8 88 ad bd 00 36 25 39
       -0.095242105 -0.0007406771 -0.08473343 0.00015755743
0003c0 43 44 ad bd 6c a6 ba bc 5e 2b cf 3d 26 09 a9 bd
       -0.084602855 -0.022784434 0.101156935 -0.08253698
0003d0 c0 b5 91 bb 04 01 a6 3d 52 e3 90 3d c2 64 ac 3d
       -0.004446715 0.081056625 0.07074608 0.084176555
0003e0 14 25 67 bd 18 87 3e 3d 60 e0 79 bc ac 88 9e bd
       -0.056431845 0.046515554 -0.015251249 -0.07740912
0003f0 da 09 c4 3d 5c c0 93 3d 20 39 0b bd ad 16 c7 bd
       0.095721915 0.07214424 -0.033990026 -0.09721122

fc4.bias f4 [48]
000000 30 49 da 3c 70 2d be 3b 88 66 85 bd 48 e0 9d bd
       0.026646227 0.0058037564 -0.06513697 -0.07708794
000010 a3 ee 75 bd 86 21 90 3d 38 db d8 bc 36 ac 46 bd
       -0.060042035 0.07037644 -0.02647172 -0.048504077
000020 be 8e 02 bd 7d 82 a4 bd 70 99 12 3d 00 94 7a bb
       -0.03187441 -0.08032701 0.03579086 -0.0038235188
000030 24 87 b1 bc 1e 22 a4 3d e0 9b ba 3b 84 c0 c4 bd
       -0.021670885 0.0801432 0.0056948513 -0.09607032
000040 98 06 05 bd 0a 55 8b bd 04 a7 cb 3d e0 69 68 3b
       -0.03247699 -0.06803329 0.09943965 0.0035463497
000050 da d6 b4 3d 14 61 c3 bc 20 76 8e 3c 5c a2 20 3d
       0.08830042 -0.023850001 0.01739031 0.039217338
000060 0e cf 8b bd 00 20 25 37 ee 55 c6 bd 20 93 fc 3c
       -0.06826602 9.842217e-06 -0.096843585 0.030831873
000070 52 ff b9 3d 20 cc 49 3d 60 53 97 bd 08 83 e1 3c
       0.090819016 0.049266934 -0.073889494 0.0275283
000080 04 af ab bc 24 2a af bd 30 b0 3f 3d d4 3e 41 bd
       -0.020957477 -0.085529596 0.046798885 -0.04717906
000090 70 66 2a 3d 48 7e b6 3c 20 c7 5e bb 48 8c cd 3c
       0.0416016 0.022277012 -0.00339932 0.025091305
0000a0 48 7a 98 bd 68 7e 58 3d 88 16 69 bc 64 bf 81 bd
       -0.07445198 0.052854925 -0.014226563 -0.06335333
0000b0 42 c1 c2 3d a8 97 99 3d 94 5a e6 bc 40 3b b6 3a
       0.09509517 0.07499629 -0.028119363 0.0013903156

fc5.weight f4 [24, 48]
000000 5f 90 ed bd 56 ea 0d 3e 98 16 0d 3e fc ad 38 bd
       -0.11599802 0.13858923 0.1377815 -0.0450878
000010 6a 97 99 3d 70 d8 33 3c 28 97 a3 bd d2 15 86 bd
       0.07499583 0.010976896 -0.07987815 -0.06547131
000020 00 c0 08 3b 78 0c c7 3c 12 a0 bd 3d 59 50 df bd
       0.0020866394 0.024297938 0.092590466 -0.10903997
000030 00 e6 e7 bc 20 9b 01 bd 60 27 13 3e 4c 58 df bc
       -0.028307915 -0.03164208 0.14370489 -0.027263783
000040 c8 04 b2 3d 3a e2 c7 3d 94 30 6f 3d ac f6 f8 3d
       0.08692318 0.09759946 0.058395937 0.12156424
000050 be dc 0e 3e 90 e2 03 be fb 71 bc bd 52 fc ba 3d
       0.13951394 -0.12879395 -0.092014275 0.091301575
000060 60 ff 21 bc 92 92 8d 3d 56 60 90 3d 52 45 b8 3d
       -0.009887546 0.06912722 0.070496246 0.08997597
000070 f0 df 0b bc ca 35 97 3d 61 de 09 be a8 22 f6 3d
       -0.008537278 0.07383306 -0.13463737 0.12018329
000080 78 eb b0 3c e0 b6 ed 3b 20 d5 b9 3b 40 67 87 bb
       0.021596655 0.0072544664 0.0056711584 -0.0041321814
000090 f2 a9 a9 3d b0 fb 92 3c fe f8 0f be 20 5b 14 3d
       0.082843676 0.01794228 -0.14059827 0.036219716
0000a0 5e 22 01 3e bc fa f1 bd c0 03 9e 3c 60 ce ef bd
       0.12610766 -0.11815402 0.019288898 -0.11709285
0000b0 ce 91 ae bd 2b e7 0d be 14 35 a2 3d c0 9a bd 3b
       -0.08523904 -0.13857715 0.0792028 0.00578627
0000c0 a4 de bb 3d e2 7d db bd 78 92 39 3d 5a 18 59 bd
       0.09173325 -0.107173696 0.0453057 -0.05300174
0000d0 b8 dd 75 3d 24 0e 75 3d 18 50 d9 bc a0 06 65 3d
       0.0600259 0.05982794 -0.02652745 0.05591452
0000e0 f0 34 13 3c 10 b2 90 bd 18 43 9b 3d 19 64 d6 bd
       0.008984789 -0.07065213 0.075811565 -0.10468311
0000f0 0a 42 39 bd 22 9a a1 3d 24 39 69 bd 94 dd 99 bd
       -0.045228995 0.078907266 -0.05693926 -0.07512966
000100 d8 20 d8 bd fa 16 8f 3d 50 d3 3f 3d a0 6f c5 3c
       -0.105531394 0.06986804 0.046832383 0.024101079
000110 48 41 bd 3c 20 f9 d0 3d 60 c3 bd 3b e9 db f3 bd
       0.023102418 0.10203767 0.005791113 -0.11907179
000120 91 67 dd bd d2 63 9d bd f4 0f 34 bd e0 f9 ad bd
       -0.10810769 -0.07685055 -0.043960527 -0.084949255
000130 a8 23 9b bc d2 6d d0 3d 10 b2 ad 3c 45 1e 0e be
       -0.0189379 0.101771966 0.02120307 -0.13878734
000140 70 51 10 be 00 15 3c ba e4 7d 6d 3d 80 a6 ab 3b
       -0.14093566 -0.000717476 0.057981387 0.005238354
000150 00 5b f3 ba 42 a3 80 bd d0 2b 62 bc dc 77 c2 bd
       -0.0018566549 -0.06281139 -0.013804391 -0.094955176
000160 b8 f8 94 3d 3a 42 13 3e e0 74 f6 3c ca 3d d4 3d
       0.07274002 0.14380732 0.030085027 0.10363348
000170 c8 66 de 3d 70 ce 49 3c 7a b2 1f bd da 9f ba 3d
       0.10859448 0.012317285 -0.038988568 0.091125205
000180 74 97 3d bd 7a de cd 3d 4a 3f fc bd 5e 6c 01 be
       -0.046287015 0.100522 -0.12316759 -0.12638995
000190 58 65 c3 bc 80 68 f0 3d 46 16 57 bd a3 c7 ef bd
       -0.023852035 0.11738682 -0.052511476 -0.117079996
0001a0 5c 92 bd 3d f4 38 b5 bd 6c 1f e3 bd 2a 93 cc 3d
       0.092564315 -0.088487536 -0.110899776 0.09989007
0001b0 5c 02 75 3d 72 ba 8a bd d2 02 a9 bd 10 e7 08 bc
       0.059816703 -0.06773843 -0.08252491 -0.008355871
0001c0 4e 82 a0 3d 08 d3 bd 3c 5e bb 7f bd cd 82 e9 bd
       0.07837354 0.023171917 -0.062434547 -0.114019014
0001d0 b8 ff 6b bd d2 31 ba 3d 60 f6 9c 3c f4 09 f2 3d
       -0.05761692 0.09091534 0.01916045 0.11818305
0001e0 18 d7 cc 3c 30 b2 11 3e 32 2d a4 3d ea 01 18 bd
       0.025004908 0.1422813 0.08016433 -0.0371112
0001f0 22 b4 b4 3d ee 1d d6 3d e0 a2 fe 3b 40 8f 10 be
       0.0882342 0.104549274 0.007770881 -0.14117146
000200 a0 32 05 3e 7c 28 fd bd ec df 31 3d 6c f4 bc bc
       0.13007593 -0.123612374 0.04342644 -0.023065768
000210 70 eb dc bd de 1a b1 bd 9c c3 72 bd 08 d5 0c 3e
       -0.10787094 -0.08647703 -0.05926858 0.1375314
000220 00 d0 9f 3a ae 23 74 bd 8b 7b 0b be a3 63 bd bd
       0.0012192726 -0.05960434 -0.13621347 -0.0924752
000230 26 29 77 bd 04 e8 27 bd 8a c9 bb bd a0 cc b3 3b
       -0.060341977 -0.04099275 -0.091693 0.0054870397
000240 1e a2 3d bd 52 d7 03 bd 5f f7 d0 bd a4 d8 59 bd
       -0.046297185 -0.032187767 -0.10203432 -0.05318512
000250 82 c9 90 bd ca 36 00 3e f9 49 fd bd c0 09 2e 3b
       -0.070696846 0.125209 -0.12367625 0.0026556104
000260 8c 5b ad 3d 1a c8 27 bd 9c 15 d9 3d fc 05 62 3d
       0.08464727 -0.040962316 0.10599825 0.05518149
000270 f8 0a eb 3d c4 79 65 3d c5 61 a4 bd db bb a2 bd
       0.114767015 0.056024328 -0.080264606 -0.07945987
000280 a0 0f 27 bc f0 f3 0c 3c ee 17 96 3d 9c c2 d5 3d
       -0.010196596 0.008603081 0.07328783 0.104375094
000290 bc 45 bf bd 40 58 b3 3b 00 eb 1a bb 9c 21 e5 3d
       -0.09339473 0.0054731667 -0.0023638606 0.11188051
0002a0 0f 49 04 be 94 0c 8a 3d 70 28 9d bc 8a 25 b3 3d
       -0.12918495 0.0674068 -0.019184321 0.087473944
0002b0 98 b5 f7 3c b6 90 83 bd 20 b1 9b 3b e0 31 74 3c
       0.030237958 -0.06424086 0.0047513396 0.014904469
0002c0 c6 3c b3 3d 7c 29 08 be 00 90 d9 bc b8 12 3a bd
       0.08751826 -0.13297075 -0.026557922 -0.045428008
0002d0 28 04 35 bd 04 e7 4d 3d 08 04 74 3d 10 64 41 3c
       -0.044193417 0.05026914 0.059574157 0.011803642
0002e0 08 eb f1 3d 7a 27 b1 bd 78 72 ef bd 24 df 49 3d
       0.11812407 -0.08650108 -0.11691755 0.04928507
0002f0 6c d1 d4 3d c0 b7 e5 bb cc 4c 0d 3e 80 2a 97 bb
       0.103915066 -0.00701043 0.13798827 -0.0046132207
000300 f2 20 97 bd 3e 8b 28 bd c0 62 ed 3b 3a 64 c4 3d
       -0.07379331 -0.041148417 0.007244438 0.09589429
000310 00 f2 d9 bd 86 13 bb 3d 00 74 55 b9 14 e1 f2 bd
       -0.10641861 0.09134583 -0.00020356476 -0.118593365
000320 e7 6b bf bd 44 26 33 bd 1e f6 1a bd f2 17 b2 bd
       -0.093467526 -0.043737665 -0.037832372 -0.086959735
000330 f8 4a 88 bc 7a 7f ca 3d f0 32 86 bc c0 81 56 3d
       -0.01663731 0.098875955 -0.01638171 0.052369833
000340 a6 8c 03 be c0 c8 b6 3c e5 b1 0b be 38 af b1 bc
       -0.12846622 0.022312522 -0.1364208 -0.021689996
000350 70 62 0b bc c6 a0 2f bd 64 d4 7e 3d 00 75 33 3c
       -0.008507356 -0.042877935 0.06221427 0.010953188
000360 14 8b f9 3d 68 f3 13 3d 10 92 b5 bd ee c3 07 bd
       0.1218473 0.036120802 -0.0886575 -0.033145837
000370 ca 12 a0 3d 00 92 fe bd 08 8c 84 3d b1 a8 b8 bd
       0.07816084 -0.12430191 0.06472021 -0.0901655
000380 32 f9 ce 3d d2 02 54 bd 57 0e d3 bd c0 9c 44 3c
       0.10106124 -0.051760502 -0.103054695 0.012000263
000390 88 0f 6f 3d 46 6b c6 bd 38 72 86 bc 98 0e 15 bd
       0.05836442 -0.096884295 -0.016411886 -0.03639087
0003a0 58 3c 0d 3e 00 ef ab 3b b8 7d fb 3d a4 09 ad 3d
       0.1379255 0.005246997 0.12279838 0.084491044
0003b0 c0 9e 5e bc 86 77 fe bd 78 90 08 3e 73 dc a5 bd
       -0.013587654 -0.12425141 0.1333636 -0.08098688
0003c0 0c 94 09 be 50 99 a1 3d a0 31 3d 3c b2 75 ca bd
       -0.13435382 0.0789057 0.011547476 -0.0988573
0003d0 9c d6 37 3d c4 9f 7c bd e0 d5 60 bc 66 ee 0e be
       0.0448824 -0.061675802 -0.013722867 -0.1395813
0003e0 80 84 73 3d e8 75 bd bd fc 01 45 bd 13 c7 9f bd
       0.059452534 -0.092510045 -0.048097596 -0.07801642
0003f0 00 e9 19 3c 81 21 c9 bd a6 06 a2 3d 70 90 d7 bd
       0.00939393 -0.098208435 0.07911424 -0.10525596

fc5.bias f4 [24]
000000 b8 d9 e2 3c 8d 0a 12 be 74 64 f8 bd 9a 38 cc bd
       0.027691707 -0.14261837 -0.12128535 -0.099717334
000010 90 78 68 bd 53 5d 97 bd a0 48 e6 3d b1 af ec bd
       -0.056755602 -0.07390847 0.11244321 -0.11556948
000020 40 84 eb 3c 20 7f 8d 3c 2a c3 04 bd b9 5c d1 bd
       0.028749585 0.017272532 -0.032412685 -0.102227636
000030 ba 60 04 3e ec 12 3f 3d f0 64 e2 bd b0 3d f0 3c
       0.12927523 0.046648905 -0.110544086 0.02932629
000040 d8 6f e9 3d 3e c8 89 3d a0 dd f5 bd e1 45 0d be
       0.113982856 0.06727646 -0.12005162 -0.13796188
000050 18 90 37 3d 68 3d 5a 3d 40 01 11 3c be 0c e0 bd
       0.044815153 0.053281218 0.008850396 -0.109399304

fc6.weight f4 [5, 24]
000000 8c 65 ed 3d 24 e9 6e bd 5a 8e 12 be 4c 5d 1f be
       0.11591634 -0.05832781 -0.14312115 -0.15562934
000010 94 99 6d bd 91 08 24 be 32 e9 0f be e0 1f 8d bc
       -0.05800779 -0.16018893 -0.140538 -0.017227113
000020 4c 58 4c 3e 6c 63 f4 3d 48 f5 8c 3c 68 3a 47 3e
       0.19955558 0.11933026 0.017206803 0.19455874
000030 74 e9 4c be 78 ef ec 3d 68 5e 0b bd 8a f9 1f 3e
       -0.2001093 0.115691125 -0.03402558 0.15622535
000040 a8 a4 de 3d 90 cb 82 3d 6c d6 31 3e 58 7b 0f 3e
       0.108712494 0.06386483 0.17366952 0.14011896
000050 b5 a3 b2 bd 3c 13 47 3e 98 4e ab bc 00 ac 60 bb
       -0.08722631 0.19440931 -0.0209115 -0.0034282207
000060 18 fd ea 3d 50 ae cc bc ae da 1e be fc 02 fa 3d
       0.11474055 -0.024985462 -0.15513107 0.122076005
000070 90 22 04 bc 48 43 01 3e 58 e3 01 be 9c 9e 1b be
       -0.008064881 0.12623322 -0.12684381 -0.15197223
000080 f0 36 3c 3d a0 e3 71 bc ae 0c 4e be 11 9f 3a be
       0.04595083 -0.014763743 -0.20122024 -0.18224742
000090 70 ca 4c 3c c8 0c b9 3c 70 d8 20 3d 60 77 28 3c
       0.012499437 0.022589102 0.03926891 0.0102823675
0000a0 90 af 10 be 30 0e b2 bc 0c 2d d4 3d c4 99 2c be
       -0.14129472 -0.02173528 0.103601545 -0.16855532
0000b0 e0 fa 2c 3e 40 54 ff bb 5d 39 29 be c6 76 3f 3e
       0.16892576 -0.007792026 -0.16525789 0.18697652
0000c0 6a 38 37 3e e8 55 fc 3d b8 e4 d3 bc 58 fb 17 bd
       0.17892614 0.12321073 -0.025865898 -0.037104934
0000d0 c0 e9 d1 bd 48 e2 77 3d 80 49 66 bb 4d ef 33 be
       -0.102496624 0.060518533 -0.0035139024 -0.17571755
0000e0 85 6e 2b be 04 d4 4f 3e 00 d9 2b 3a 0e 7b f0 bd
       -0.16741379 0.20295721 0.0006555468 -0.11742221
0000f0 8f ba ad bd 5c 5a bf 3d 06 af 12 3e dc 41 7f bd
       -0.08482849 0.093434066 0.14324579 -0.062318668
000100 1c 2d b3 bd 54 d3 f8 bd b0 b2 32 3c 88 d6 99 3d
       -0.08748838 -0.12149683 0.01090686 0.07511622
000110 58 18 86 3d 20 cf c8 3c 90 7c 65 3c 68 71 0a 3d
       0.06547612 0.024512827 0.014006749 0.03379956
000120 24 79 93 3d 80 16 3a be d0 44 d8 3d f0 bf ee 3c
       0.0720084 -0.18172646 0.1056 0.029144257
000130 20 fc ef bc 64 d5 44 3e b0 53 4b bd 2c 52 0d bd
       -0.029295027 0.19222027 -0.049640357 -0.034502193
000140 ec 24 00 bd 10 29 0e 3c 8d 37 25 be d2 c6 16 3e
       -0.03128521 0.008676782 -0.16134472 0.14724281
000150 f0 9b 5d bd ac 3f 74 bd 82 8c c7 bd 60 5c 98 3d
       -0.05410379 -0.059631035 -0.097435966 0.07439494
000160 c8 16 55 3d 66 e1 13 3e 10 a2 06 3d 30 76 ca 3d
       0.05202368 0.14441451 0.0328694 0.09885824
000170 64 47 cc 3d 12 6e 2c be f9 5b 2f be 1c 48 83 bd
       0.09974554 -0.16838863 -0.17124929 -0.06410238
000180 8f 70 e0 bd 51 f1 4e be b0 ea 86 3d d4 e5 f7 3d
       -0.10958969 -0.20209242 0.06587732 0.12104383
000190 10 f1 6d 3d 26 78 0b be b2 b6 0d 3e 60 6e 83 3b
       0.058091223 -0.13620052 0.13839224 0.0040109605
0001a0 78 54 0f 3e 96 2d 03 be f0 2c 50 3d ea 72 06 3e
       0.13997066 -0.12810358 0.050824106 0.13129774
0001b0 7c 10 7d bd 98 23 b0 3d 38 8c 8b bc ee c0 c2 bd
       -0.0617833 0.08600539 -0.017034635 -0.09509455
0001c0 02 f4 2b 3e a2 16 46 3e 88 97 74 3d 58 00 b4 3d
       0.167923 0.19344571 0.059714824 0.08789128
0001d0 bc 92 e5 3d 60 1a 38 bd 1e 91 4e be 53 b0 19 be
       0.11209628 -0.04494703 -0.20172545 -0.15008669

fc6.bias f4 [5]
000000 a8 83 a5 3d 20 5b 76 3d 0c bd e8 3d 40 88 52 3d
       0.08081752 0.060145497 0.11364183 0.05139947
000010 b4 2c ec 3d
       0.11531964
