saved_models/pytorch_dqn_model_16.04;23.28_-25.pt (torch, 214114 bytes, 48 tensors)

fc1.weight f4 [24, 10]
00000000: 92e1 bcbd d57a 9a3d d724 873e 50a0 93be
00000010: b1d0 7ebe 2d03 6ebe 5ce2 7ebe d572 42be
00000020: 301b d73d cfff 1dbd 44c6 4c3e 1fae 743e
00000030: 8e12 8f3d c2cd 91be e23a 3d3d 87f8 963d
00000040: 2cdf 7cbd 4455 243d 53b6 03be 1f39 6f3e
00000050: 83a2 9fbe a107 91be f5d5 503e 6591 503e
00000060: fa59 123e 8d83 8fbd 46b9 2fbd 3b55 803e
00000070: 2998 26be 1576 8b3e e803 db3d 9306 25be
00000080: b064 193d 6666 843e 6e42 0a3e b4e6 933d
00000090: 40e7 f4bd 2cb2 773e f1f1 f13c fe89 83be
000000a0: 8c9e 833d 9917 83be 977f 41be 2b1a 92be
000000b0: 7c07 9a3e 8f77 1ebe d4c3 83be 5daa 2dbe
000000c0: a610 84be 4cbc 93bb f61d 373e f3d8 f23c
000000d0: 0395 cb3d 38e1 51be f125 083d 160b 5abd
000000e0: eb56 3b3e db63 49be 539b e5bd 076b a03e
000000f0: 0d4d f73d 3b44 64be 8839 0f3e d95e 223e
00000100: ff58 3f3e 8995 a83d 22af c7bd d4d3 f4bd
00000110: c56c a13d 044f 853e 3ce6 90be 0dba 923e
00000120: 27f2 22be e29e 8d3d 8dc3 90be 78d4 b53d
00000130: 301d 903e 4491 b6bd 9952 4d3e c9fa 183e
00000140: cd7e 90be 40d3 7cbd 542a 06be daca 53be
00000150: d445 7dbe 1a72 e5bd c62a 2d3e 047f 99be
00000160: 828c 00be 88bc 8b3d eb1f 9bbe be9e ccbd
00000170: d583 863b 936f 803e 010d 11bd 5d1a e33d
00000180: 7337 9b3e f2f2 9fbe eb77 b6bd 74af b43d
00000190: f61d 603e 91ac 963e 7920 833e 00bc 9d3d
000001a0: 4350 48bd ef60 58ba 4a81 86be e9ac 8b3e
000001b0: 2349 3fbd abb8 363d 7218 6bbe 41b5 cc3d
000001c0: b091 9bbe b59d 84be 42e3 783e 9724 f53b
000001d0: 4cce 02be df85 8a3e 59f0 8fbe 7083 3d3e
000001e0: 54d0 93be 36ca 80be 5738 3cbd c306 76bd
000001f0: 50c6 573e c22f b9bd 7e49 323c d082 89be
00000200: 5f6c 3c3e ed9d 5f3e 9b16 9a3c 787b 28be
00000210: 53df 94bc b8c6 973e 0e84 5b3e 833e f33d
00000220: 7cf7 ef3d fe76 9b3e 34f8 9c3d d8a7 193e
00000230: 56b4 0d3d 14ad a73d e746 bcbd a6b9 413e
00000240: 4f15 61be 773c 0dbd 378b 5bbe 0e31 5bbe
00000250: 6172 c93d f1cf 47be 8025 9bbe f990 123c
00000260: 936e 1bbb 27cf 263e cf01 c3bd 031e 0b3e
00000270: 4699 eebd 25d4 523d 0eca 753c 3324 953d
00000280: dfbf 2b3e d312 94bd 239b 89be 62f4 0dbe
00000290: f470 483d 8876 52bd 4e99 44be 3d70 7e3e
000002a0: 45fc 883e 1f93 a0be c658 36be b61a 6fbe
000002b0: 0407 8bbe 823c 69be 3c3d f03d 0244 39be
000002c0: cf1f c33d 9389 583e a6f5 5e3e 27a8 54be
000002d0: a8fb 1b3e e13f a23d 5d92 293e f21c 3fbe
000002e0: 217a 71be fd9f 2d3e 9e22 653e 94b8 82be
000002f0: 47bf 863e 4063 a03d a53a 843e 75cf 8cbe
00000300: 58b7 bb3d b0dd a53d 6a03 8abe 839b 15be
00000310: 6e78 023e 7418 3d3d ef91 38be 15b3 5bbe
00000320: 5083 a23c 60c5 82be d29e 3abd 9230 0c3e
00000330: 09d7 fc3c 5e60 323e a900 e03d a7f9 26be
00000340: a4d9 85be 078b a63c 5755 8abd de70 0f3e
00000350: 4c31 dcbd e8a8 863e 25b7 453c be07 dc3c
00000360: 73a8 b6bd bc37 16be 7410 a33d 4080 9d3e
00000370: 4962 75be 661f a1be d506 8b3e cb61 5e3e
00000380: 4c93 46be 98f1 95be e33b 0b3e 79c8 6f3d
00000390: d7a1 1fbe c1a4 9fbe c15e 57be 3228 2abc
000003a0: d50b 7a3e 8621 16be f592 bdbd 31cb 0e3e
000003b0: a1f0 633e 44aa 8d3e c732 a63d 4966 55bd
-0.092227116 0.075429596 0.26395294 -0.28833246 -0.24884297 -0.23243399 -0.24891037 -0.18989117
0.105032325 -0.038574036 0.19997507 0.23894547 0.06985961 -0.28477293 0.046198733 0.073716216
-0.06173627 0.040120378 -0.1286252 0.23361634 -0.31178674 -0.28326133 0.20394118 0.20367964
0.14292136 -0.07007513 -0.0429013 0.25065026 -0.16268982 0.27238527 0.106941044 -0.16115789
0.03744954 0.25859374 0.13501903 0.072217375 -0.1195817 0.24189061 0.029534312 -0.25691217
0.06426725 -0.2560394 -0.18896328 -0.2853559 0.30083835 -0.15475295 -0.25735343 -0.1695952
-0.25793952 -0.0045085307 0.17882523 0.029644465 0.09940531 -0.2049607 0.03323931 -0.05323323
0.18294875 -0.19666998 -0.11211266 0.31331655 0.12075243 -0.22291653 0.1398679 0.15856494
0.18686293 0.082316466 -0.09750201 -0.119544655 0.07882074 0.26036847 -0.28300655 0.2865757
-0.15912686 0.0691507 -0.28274193 0.08878416 0.28147268 -0.08914426 0.2005104 0.14939417
-0.2822174 -0.0617249 -0.13102084 -0.2068285 -0.24733669 -0.11203404 0.16910848 -0.29979718
-0.125536 0.06823069 -0.3029779 -0.09991215 0.004105071 0.25085124 -0.035412792 0.11089013
0.30315742 -0.3124004 -0.08909591 0.088225275 0.21886429 0.29428533 0.25610712 0.07701874
-0.04890467 -0.00082541903 -0.26270515 0.27280357 -0.046700608 0.044609707 -0.22958544 0.09995509
-0.30384588 -0.2590157 0.24305442 0.0074811685 -0.12774009 0.2705526 -0.28113058 0.1850717
-0.2886988 -0.25154275 -0.045952167 -0.060065042 0.21071744 -0.09042312 0.01088178 -0.26857615
0.18400715 0.21837588 0.018809607 -0.1645335 -0.018172896 0.29643798 0.21437094 0.118771575
0.11717126 0.3036422 0.076645285 0.15005434 0.03459581 0.08187309 -0.09193211 0.18918476
-0.21980785 -0.034481492 -0.21439825 -0.21405432 0.09836269 -0.19512917 -0.30302048 0.008945697
-0.002371703 0.1628996 -0.09521829 0.13585667 -0.11650328 0.051471848 0.015001787 0.07282295
0.16772412 -0.07230153 -0.26876172 -0.13862756 0.048935845 -0.05138257 -0.19199106 0.24847503
0.26754966 -0.31362244 -0.17807302 -0.23350033 -0.2715379 -0.22776988 0.117304295 -0.18092349
0.095275514 0.2114623 0.21773395 -0.2076727 0.15232718 0.0792234 0.1655974 -0.18663386
-0.23581745 0.16955562 0.22376487 -0.25531447 0.26317808 0.078314304 0.25825992 -0.27502027
0.091658294 0.08098924 -0.2695573 -0.14610104 0.12741253 0.0461659 -0.18024419 -0.21455033
0.019838005 -0.2554121 -0.04556162 0.13690403 0.030864256 0.17419574 0.10937626 -0.16306172
-0.2614261 0.020329965 -0.067545585 0.14007899 -0.1075159 0.2630074 0.012067591 0.02685916
-0.08918848 -0.14669698 0.079621226 0.3076191 -0.23963274 -0.31469268 0.2715365 0.21716993
-0.19392127 -0.29285884 0.13597064 0.058540795 -0.15589081 -0.31180385 -0.2103224 -0.01038556
0.24418576 -0.14661226 -0.092565455 0.13944699 0.22259761 0.27668965 0.08115154 -0.0520995

fc1.bias f4 [24]
00000000: 5102 6abe f092 80be 5bec 32be 8cef 06bd
00000010: 1d3c 64be 03a4 643e 5268 b83d c217 07be
00000020: aa38 5b3e c686 30bc bd9e 893e 9e71 24bc
00000030: effb 80be a6e1 5fbe 7573 513e 147f b23c
00000040: 9553 6abe 1806 613e 0c45 1abe b12c 2cbe
00000050: 5206 0d3e c8aa 9fbd 7a90 31be cb63 c7bd
-0.22852446 -0.25112104 -0.17472975 -0.032943293 -0.22288556 0.2232819 0.090042725 -0.13192657
0.21408334 -0.01077432 0.2687892 -0.010036854 -0.2519221 -0.21863422 0.204542 0.021789111
-0.22883447 0.21974981 -0.15065402 -0.16813923 0.13771942 -0.07796246 -0.1734027 -0.09735831

fc2.weight f4 [48, 24]
00000000: 062e 6dbd bb36 4e3e 82b5 473e b081 c83d
00000010: aff1 17bc 7659 a93d 65ef 6e3d fdcc 2f3e
00000020: 2a3d 363e f4e9 1fbb 4812 fe3d dc20 a2bd
00000030: 9ca1 03be b96f e13d 142c f2bd b315 a93c
00000040: a931 1a3e 4093 e9bd 8b90 1dbe d43b adbd
00000050: f1e4 38bc 5783 35be d95f dd3c 75eb 183e
00000060: b79c 3cbe 9b03 1b3e 39f4 283e 45f3 8c3d
00000070: 7c55 bfbd ef90 11bc 2a12 083e 6c5e 79bd
00000080: 30b6 59bc 219b 3fbd db1a bbbc ab65 11bd
00000090: ffbd 2cbe bcbb 57bd b344 0bbe 787d f3bd
000000a0: 8e34 fbbd a515 ad3d e2e2 efbd dc9f 813d
000000b0: 2f2e 2fbe 2429 e13d 3085 0e3e d140 d43c
000000c0: d125 cdbd 7f0e 3abe 87ae 91bd f94f 1ebd
000000d0: a06a 97bd 7aa8 203e b9c7 463e 6e15 9b3d
000000e0: 5020 f3bd be10 4abe ff1d 9dbd b116 063d
000000f0: 117c 27be c93b 003d a059 adbd 2234 a23d
00000100: 8053 1abd e505 4d3e e5c2 f8bd 7a54 d9bd
00000110: e16d d73d ec33 a1bd ab4d 3cbd 74ba c4bd
00000120: 26b1 49be d8c1 3fbe 10ac 993d 40a6 a63c
00000130: c996 1fbe f63b d2bd 400b d4bc c0d4 af3c
00000140: 5c0c 2abe 3c93 a83d 4090 233d dc1b ab3d
00000150: babb 193e 6250 4dbe f149 c1bd 4883 963d
00000160: 8424 30be 5495 163e 1cfa 2dbe 7cca 063e
00000170: f0d8 37be e02e 533c 2038 e0bb 80cf e43d
00000180: 6d87 963d 9cfb 843b 7d7c 6f3d b791 db3d
00000190: 1755 0abe ad51 1ebe 8379 033e 9a11 57bc
000001a0: e498 2b3e 2ceb 233e c7ac 94bd be9f 023c
000001b0: 1386 16bc 329a aa3d e77c e3bd 4937 19bd
000001c0: 9c97 003e 2540 be3d c3d3 8d3d 26a4 28be
000001d0: a993 09b9 da1f b33d 41a7 05be 0a8c 093e
000001e0: 40ee ddbb a55a 3d3c 126b 88bc d206 b23c
000001f0: 405b 6dbc c182 4dbe 0097 8b3c 5e37 38be
00000200: 10e9 183d d1cf 4e3d 196e 2fbe 07aa 343d
00000210: 420e 453e 22fd 0dbe a0f0 e6bc 319d 473e
00000220: d674 1b3d 531f 043e 1fb6 c83d 6393 1d3e
00000230: 14bc 2b3e 3903 1fbe d92f 013e 7b2b 403e
00000240: bc5b 98bd 4ade a3bc d1c0 e4bd 8255 32bd
00000250: 34ef 303d 14d0 40be 9be2 613d a5f6 4e3d
00000260: f12e d9bd ec34 21be 7fe7 9bbd 11ea 803d
00000270: 202a 563c 2ea8 93bd 48e4 123d 7cd0 8bbc
00000280: db52 1a3e 7415 713d a024 cdbd 551f 083d
00000290: e097 b03c 15b6 18be cded 1e3d 0e6c 023e
000002a0: f727 ee3d 5e00 31be ef44 fabd 8d11 3b3e
000002b0: 082d e8bc 928e 0e3e 5493 95bd 304f 263e
000002c0: 7c5f 9abd e0ec 0fbe 1e19 2c3d 7d12 43bc
000002d0: 974a ecbd a147 8e3d ce9f c53d 10d7 98bd
000002e0: e305 403d 1dec a5bd 1e0e 3bbd 1aa7 45be
000002f0: 499b 1fbe 7c6c a63d d0a9 153e eafb c43a
00000300: 14ad 2fbe e772 9ebc 35b3 133e b544 eebd
00000310: 307e e63d e713 3abe fc5f 163e 8113 323d
00000320: 262f 1fbe 2ea9 51bd e419 0e3e 6c2b 2fbd
00000330: 640d a43d 3d2c f5bd 15a0 3c3e 3a29 fabd
00000340: 8d46 ef3d 6e5e 12be 4ff8 c73b 4611 49bd
00000350: f8e2 2b3d bfce fcbd 5685 85bd e6dc 9ebd
00000360: f093 a03d 6cb6 cdbd 537d 91bc 9d8a efbd
00000370: 24dc 153e c9fb 19be 46b5 4d3d 52e2 43be
00000380: d0b1 20be 78c4 a43c 49da 24bd 4cd1 2b3e
00000390: 169f aebd a3c5 d83d a83a 9f3d 40c0 183d
000003a0: 133c 183e bb3c 073e 1c13 07be e07e bbbc
000003b0: fd53 15bd d26b b1bd b950 b9bd b59c f5bd
000003c0: 7714 f7bd d44d 263e f2fc dc3d 001c 34be
000003d0: e014 6bbd 1669 043e c23b e03d 764d 0a3e
000003e0: 296a 1abe de2c a03c 4097 863c 286e b9bd
000003f0: 80e0 923c 3a84 cbbd 2cbe 3bbe 12cc 463d
-0.05790522 0.20138066 0.19502833 0.09790361 -0.00927393 0.082690164 0.058333773 0.1716804
0.1779677 -0.0024400922 0.124058306 -0.07916424 -0.12854618 0.110076375 -0.118248135 0.02064023
0.15058006 -0.11405039 -0.1538717 -0.08458677 -0.011285053 -0.17725883 0.027023243 0.1493357
-0.18419157 0.15138094 0.16499414 0.068823375 -0.09342477 -0.0088846525 0.13288179 -0.060881063
-0.013288066 -0.0467788 -0.022839954 -0.03549735 -0.16869353 -0.05266927 -0.13600425 -0.11889166
-0.122658834 0.08451394 -0.11713196 0.06329319 -0.17107461 0.10994175 0.13917994 0.025909813
-0.100169785 -0.18169592 -0.071133666 -0.038650487 -0.07393384 0.15689269 0.19412126 0.07572447
-0.118713975 -0.19732949 -0.07671737 0.032736484 -0.16355921 0.031307016 -0.0846436 0.079201
-0.037677288 0.2002178 -0.12146548 -0.10611816 0.105190046 -0.078712314 -0.045972507 -0.096058756
-0.19696483 -0.1872629 0.075035214 0.020342946 -0.15584864 -0.10265343 -0.02588427 0.021463752
-0.16606277 0.08231208 0.03993249 0.08354923 0.15013018 -0.20050195 -0.09437931 0.07349259
-0.1720143 0.14705402 -0.1698994 0.13163179 -0.17953849 0.012889594 -0.006842628 0.1117239
0.07350049 0.0040583145 0.05846833 0.10721152 -0.13509022 -0.15460844 0.12839322 -0.013126755
0.16757542 0.1600768 -0.07259517 0.007972656 -0.009187239 0.08330192 -0.111078076 -0.03740624
0.12557834 0.09289578 0.06925156 -0.16468868 -0.00013120346 0.087463096 -0.13052084 0.13432327
-0.0067727864 0.011557256 -0.016652618 0.021731768 -0.014487088 -0.2006941 0.017039776 -0.17989871
0.03733164 0.050491158 -0.17131843 0.044107463 0.1924372 -0.13866094 -0.02819091 0.19493558
0.03795322 0.12902574 0.09800362 0.15388255 0.16770965 -0.15528573 0.12615909 0.18766586
-0.07439372 -0.020003457 -0.11169589 -0.043538578 0.043196872 -0.18829376 0.05514775 0.050528187
-0.106046565 -0.15742844 -0.07612514 0.062946446 0.013071567 -0.07209812 0.035862237 -0.017067187
0.1507067 0.05885835 -0.10016751 0.033233006 0.021556795 -0.14913209 0.038801003 0.12736532
0.116287164 -0.17285296 -0.12220179 0.18268414 -0.028341785 0.13921574 -0.07303491 0.16241145
-0.075377434 -0.14055204 0.04201614 -0.011906263 -0.115376644 0.06947256 0.09649621 -0.07462895
0.046880614 -0.08101676 -0.04566776 -0.19302025 -0.1558658 0.081261605 0.1461556 0.001502869
-0.17155868 -0.0193419 0.14423831 -0.116341986 0.11254537 -0.18171655 0.14685053 0.04347563
-0.1554533 -0.051186733 0.13877064 -0.04276602 0.080103666 -0.119713284 0.18420441 -0.122148946
0.11683378 -0.14293835 0.0061025987 -0.04908874 0.0419645 -0.12344121 -0.065195724 -0.07756977
0.07840717 -0.1004456 -0.017759955 -0.1169636 0.14634758 -0.15037455 0.050221704 -0.19129303
-0.1569283 0.020113215 -0.040247235 0.16779059 -0.08526437 0.10584571 0.0777486 0.03729272
0.14866666 0.1320676 -0.13190883 -0.022887647 -0.03645705 -0.08663143 -0.090486 -0.1199278
-0.1206445 0.16240627 0.10790433 -0.17588806 -0.057392955 0.12930712 0.10948898 0.13506112
-0.1507956 0.019552644 0.016429543 -0.09054214 0.017929316 -0.099373296 -0.18334264 0.04853446

fc2.bias f4 [48]
00000000: 1b87 9e3d c717 f63d 5177 0e3e 38f9 b83d
00000010: 431f 4f3e e8c8 cdbd dfb1 b6bc 90f8 aebd
00000020: 3974 afbb 9ed5 f2bc 1cd9 113e 7bee 20bd
00000030: 4070 15be ff6a 453c da05 a93d 1215 54bd
00000040: bac3 39be 7f87 f63d 3996 313e 5a26 e03c
00000050: f13b f13d 88a8 babd 6cc7 f7bc dd6f 4fbe
00000060: c00f 093d 13b4 633d cb81 273e e5dd 163e
00000070: dd06 38be eedb 263e 84ba 423d d867 2fbe
00000080: 3f05 b8bd 6c7f 0f3e 7c94 54bd 44c6 8abd
00000090: 6ce0 5cbd 0f0a a1bc 8cd5 65bc 6734 ab3d
000000a0: 76bd 01bd 6fa2 2fbe e2d6 703d 11fc 7f3d
000000b0: 8cf3 11bd c5fe a43d 85a0 7fbd 03c2 853d
0.07740613 0.12016254 0.13912703 0.0903191 0.20226769 -0.100480855 -0.022301612 -0.08543503
-0.005354431 -0.029642876 0.14242977 -0.039289933 -0.14593601 0.012049436 0.08253069 -0.051777907
-0.1814107 0.120375626 0.17342462 0.027362037 0.11779011 -0.09114176 -0.030246459 -0.20257516
0.033462286 0.055591654 0.16358106 0.14733084 -0.17971368 0.16294834 0.047541156 -0.17129457
-0.089853756 0.14013451 -0.05189942 -0.067760974 -0.053924963 -0.019658117 -0.014027964 0.08359604
-0.031674825 -0.17151807 0.05879868 0.06249625 -0.035632655 0.08056406 -0.062408943 0.065311454

fc3.weight f4 [96, 48]
00000000: 2e1a efbd 3cb9 d4bc a131 5fbd 1419 093e
00000010: bfb7 b43d f02e 123e ff72 b33d 70b0 1abd
00000020: 0859 cebd b022 08be d0ba 05bd d08a 623c
00000030: 8904 07bd 744c 083e 86e1 00be 102d a13d
00000040: ac73 edbd d0d0 14bc 4dc7 febd 78e5 80bc
00000050: 5011 3fbd b051 203c b771 0cbe c53b aa3d
00000060: baf7 023e f2d0 11be 944c e63d 1c82 e2bd
00000070: c084 673d 6eb4 c63d 1375 e8bc ca53 f4bd
00000080: 7491 233c 5acb 88bd 7057 e43d 9787 b738
00000090: 5c0b b4bd 93ff 54bd 9d2c 8dbd a377 bcbd
000000a0: 5141 123e 72e2 2bbd 35fc a8bd 8722 83bd
000000b0: 661a d23d f5fa f43c 3de6 083e 87a3 123e
000000c0: 9ffe f2bd f3a8 2c3d 8a17 0fbe fcee 45bd
000000d0: bc3a 0d3d 941f b93d 4f1d eebd 54e4 53bd
000000e0: 744d 0fbe 3c90 933d 97b7 c13d 4cc9 0a3e
000000f0: 0fbc e1bd e533 ea3c 40a3 8e3b 502e eb3d
00000100: 7c09 9b3d 70c8 e03c cd44 f7bc b698 b63d
00000110: abf8 d9bd e8a0 fa3d 7704 65bc e900 97bd
00000120: b0d7 6c3d a84f d83c 2b06 bcbd 15f5 c43d
00000130: ef14 2f3d be0a a93d f1ad f5bc c282 7bbc
00000140: 800b 23bc 5e80 4abd 62e8 80bd 18d0 eabd
00000150: 202b e2bd f9b3 b83d bd83 123e 8258 9abd
00000160: f032 0fbe 92f2 5cbd b052 e3bd b5ce 0a3d
00000170: 807a ee3c 803e 00bb 3e72 2fbd 146c 52bd
00000180: 899c 843d bf04 333d 7a76 43bd 3403 07bd
00000190: 7c1d a13a 321b c3bd 021d a3bd 21c7 f53d
000001a0: 016b c7bd 0750 673c f63b d53b 924c 3b3c
000001b0: 972b f5bc 4d16 0e3e 2a79 d9bc b0ed f33d
000001c0: 0052 363d dc7d 6bbd f4ef cd3d 63f5 2dbd
000001d0: 7f0a ee3d faf6 a4bd ed3f b2bd 11bf 8ebd
000001e0: c4ed 01bd 65f9 fc3d 1803 193d 9d96 9e3c
000001f0: b389 85bd 9ed0 b53d 4e79 2fbd 903f 3abd
00000200: 42e5 153d d6b5 70bd 085c a5bc 2a21 0e3e
00000210: 45ec 743d c09f 963d 8c7a afbd 0387 c33c
00000220: 832d b8bd ca3e b93d 363f 953d afc1 f1bd
00000230: b8e4 e2bd 8e08 cbbd a275 f03d 523c 95bd
00000240: 000c 7dbc 0ae4 83bd 402a 853c c057 113d
00000250: 62b4 01be 4861 113d c080 6cbc 4054 7bbb
00000260: 0897 95bc a683 85bd c03e 963c 001c d33a
00000270: 8f9c c6bd 8824 c6bd b2f9 103e f0c7 ff3c
00000280: a086 e43c 727f cebd 80e7 d13c c4bc acbc
00000290: 7a7e c23d b876 a93c 0409 0d3e 3044 d73d
000002a0: 5851 cabd 3066 523c c168 e4bd 48ab 0dbd
000002b0: 384f 9c3d 463a 17bd ce1c 97bd 6043 393d
000002c0: ec36 b7bd 7426 a23d ae0d 903d 5001 d4bd
000002d0: dd32 e6bd 5271 d03d 66a2 06be 8bdb ebbd
000002e0: 0848 debc 804a cd3b cff9 debd 4c1c 783d
000002f0: ce87 bdbd fe5b adbd 7b42 02be 00dc 203a
00000300: 90f8 783c 94f2 f2bd 60e3 ef3c 6462 ae3d
00000310: a02a cbbd 1604 b4bd 580a ed3d f036 4e3c
00000320: 8043 f8ba 7014 cfbc 9375 a5bd 50bb 743d
00000330: 8208 bbbd 9fae c9bd 0038 bdb8 a84d f63d
00000340: 4d5b 02be 6816 ce3c a44e bfbc 9017 033d
00000350: bc35 87bd 42e5 ab3d 405e 113b cce6 f63d
00000360: 28bf 1bbd a450 1d3d ec04 273d 48be 983d
00000370: 8054 423d af7c 13be ce45 c83d f03d 97bc
00000380: 4c44 c03d a05d e3bb 65d8 acbd 9097 eb3c
00000390: 96b1 94bd 13d4 d2bd 88e5 b03d 002c 78bb
000003a0: 1ae4 ebbd 348f a33d 708d 67bd 6036 d63c
000003b0: 1a3c 9abd f45a c3bc 805d 253c 9a75 4fbd
000003c0: 9fe2 05bd 86d9 883d 6be0 01be 6ada 853d
000003d0: b076 883d 331c ea3d 3407 983d 0ebb d63c
000003e0: 83cc 3f3d 6fff 053e c446 fbbd 4489 053e
000003f0: d6bb 45bd 827b efbd 0924 823d bfb9 7c3d
-0.11674915 -0.025967233 -0.05449069 0.13388473 0.08824109 0.14275718 0.08762168 -0.03776592
-0.10075575 -0.13294482 -0.03264886 0.013827041 -0.03296331 0.13310415 -0.1258603 0.07869923
-0.11594328 -0.009082988 -0.12440357 -0.01573442 -0.04664737 0.009785101 -0.13715254 0.083121814
0.12789813 -0.14239863 0.11245075 -0.11059973 0.056523085 0.09702383 -0.028376138 -0.11930044
0.009983409 -0.06679411 0.1114949 8.7513756e-05 -0.08791229 -0.052001547 -0.06893275 -0.092025064
0.14282729 -0.041964002 -0.0825123 -0.0640307 0.10258941 0.029904822 0.13369079 0.14320193
-0.11864971 0.04215331 -0.13973823 -0.048323616 0.03447984 0.09039226 -0.11626684 -0.051731423
-0.1399439 0.07205245 0.09458845 0.13553351 -0.110221975 0.028589198 0.004352957 0.11483443
0.075701684 0.027439326 -0.030184174 0.08915846 -0.10643133 0.12237722 -0.013978115 -0.073732205
0.057822883 0.02640517 -0.09180864 0.09617058 0.042744573 0.08254002 -0.029990168 -0.015350999
-0.009951472 -0.049438827 -0.062943235 -0.11465472 -0.11043382 0.09018702 0.14308067 -0.07536413
-0.13984275 -0.05394227 -0.11099756 0.033888537 0.029111147 -0.0019568503 -0.04283356 -0.051372603
0.06475169 0.043705698 -0.04772041 -0.03296204 0.0012292112 -0.095266715 -0.07964517 0.120008714
-0.09737206 0.014118201 0.006507392 0.01143183 -0.029928012 0.13875695 -0.026547033 0.1191057
0.044511795 -0.057493076 0.10055533 -0.042470347 0.11623096 -0.080549195 -0.08703599 -0.06970037
-0.03172089 0.12352256 0.037356466 0.019358927 -0.06520405 0.08877681 -0.042840295 -0.045470774
0.03659559 -0.058767162 -0.020185485 0.13879839 0.059795637 0.07354689 -0.08568296 0.02386809
-0.08993056 0.09045179 0.07287447 -0.1180452 -0.11078781 -0.09913741 0.11741187 -0.07286896
-0.015444756 -0.064399794 0.016255498 0.035484076 -0.12666467 0.035493165 -0.014434993 -0.0038349777
-0.018260494 -0.065192506 0.018340468 0.0016106367 -0.0969783 -0.096749365 0.14157751 0.031223267
0.027896225 -0.10082902 0.025623083 -0.021086104 0.0949678 0.020686492 0.1377297 0.105110526
-0.09878796 0.012841746 -0.11152793 -0.034587175 0.07632297 -0.03692081 -0.07378541 0.04523027
-0.089460224 0.079174906 0.07033859 -0.10351813 -0.1124017 0.10177864 -0.13147888 -0.11516484
-0.027133957 0.0062649846 -0.10887491 0.06057386 -0.09254418 -0.08464812 -0.12720673 0.0006136298
0.015195981 -0.11862674 0.029283226 0.0851486 -0.099202394 -0.08789842 0.115742385 0.01258634
-0.0018941015 -0.0252783 -0.08079066 0.059748948 -0.09132482 -0.098477595 -9.022653e-05 0.120265305
-0.12730141 0.025157169 -0.023352928 0.032004893 -0.06602046 0.08393337 0.0022181422 0.1205574
-0.038024098 0.038406983 0.04077618 0.07458168 0.047443867 -0.14403032 0.09778939 -0.018462151
0.093880266 -0.006938651 -0.084397115 0.028758794 -0.07260434 -0.10294356 0.086375296 -0.0037868023
-0.11518116 0.07986298 -0.05653137 0.026148975 -0.07530995 -0.02384708 0.010093093 -0.050649263
-0.032686826 0.06682114 -0.12683265 0.065358 0.06663263 0.1143116 0.07423249 0.026212242
0.046825897 0.13085721 -0.12269357 0.13040644 -0.048274837 -0.11693479 0.063545294 0.06170058

fc3.bias f4 [96]
00000000: 424b 0a3e 2405 bcbc b103 fabd 6854 e13d
00000010: 3e16 90bd 1811 afbc 81f8 53bd f1b0 0b3d
00000020: 4e50 9a3d 7051 45bd 861c ecbc 2481 023e
00000030: e4e5 c6bd ad28 8b3d d1fc 053d e4ca abbd
00000040: a6c0 973d 881c c63d c7d8 993c b00c ae3c
00000050: 5e5c e3bd 00e0 083e 54b5 a2bd 9747 41bc
00000060: 438d c83d 05fc 1d3d d64b 05bd 6e1b fe3d
00000070: 21e8 b0bd 2235 b0bd aa91 123e c55c f8bd
00000080: 6cc7 26bd 6fcf 003e 66cf de3d d0b7 36bd
00000090: a749 473c a445 c93d 88c8 f83d 4087 08be
000000a0: 7e7f 9cbd 3c03 033e 2d79 123e 7e6c d3bd
000000b0: 7db2 ffbd 0be2 e9bc 1724 83bd f2bb b53d
000000c0: 6e53 9fbd 64a8 2e3d cc28 e33d e1d7 9cbd
000000d0: 5425 d83d 7e68 d3bc dc14 ddbc c401 293d
000000e0: dd2e 8abc d13b 483c 847e b8bd e17f 03be
000000f0: 2cd6 703d 4e93 b33d 6ca9 023d 2728 4d3d
00000100: 1fe5 ef3d 0ed3 8e3d 7785 683d 0f06 d2bc
00000110: fda8 f93d 3c8b 5d3c 6bd9 ee3d 5221 ed3d
00000120: abb9 bd3d c693 483d 87a2 0cbe 6d68 9bbd
00000130: 2bdb 0abe 8794 db3d 0f3b 1dbd c128 a2bd
00000140: 23a9 58bd 1ee6 bd3d 6648 08bd 8f6a edbd
00000150: 233b d23d 4282 45bd 20b2 d0bd e542 a3bd
00000160: b8c0 d23d 77c1 a83c cd09 aabd dda8 edbd
00000170: e7cb f9bd 5c8a 95bc 54fe d83d 4601 e4bd
0.13505271 -0.02295167 -0.12207735 0.11002427 -0.07035492 -0.021370456 -0.051750664 0.03410429
0.07534848 -0.048173368 -0.028822195 0.12744576 -0.09711817 0.06794868 0.032711808 -0.08388308
0.07409792 0.09673411 0.018780125 0.021246284 -0.11101602 0.13366699 -0.07944742 -0.0117968535
0.097925685 0.038570423 -0.032543026 0.124075755 -0.08638025 -0.08603884 0.14313379 -0.121270694
-0.040717527 0.1257913 0.10879402 -0.04460889 0.012163556 0.09827736 0.12147623 -0.13332844
-0.07641505 0.12794203 0.14304037 -0.103234276 -0.12485216 -0.028550168 -0.06403368 0.08873738
-0.07779585 0.04264106 0.11091766 -0.07658363 0.10553995 -0.025806662 -0.026987486 0.04126145
-0.01686805 0.012221293 -0.09008506 -0.1284175 0.058798 0.087683305 0.031899855 0.05008712
0.11713623 0.06973849 0.056767907 -0.025637655 0.12190435 0.013521966 0.11662563 0.11578621
0.09263929 0.048969053 -0.13733874 -0.07588277 -0.13560168 0.10721689 -0.0383864 -0.079179294
-0.052895676 0.09272407 -0.03327217 -0.1159259 0.10265186 -0.048219927 -0.10190225 -0.079717435
0.102906644 0.020600064 -0.083026506 -0.11604474 -0.121970944 -0.018254451 0.10595384 -0.111330554

fc4.weight f4 [48, 96]
00000000: 3bf6 5a3d 67bd 243d a10e 0b3d e44d 2a3d
00000010: f874 4f3c b135 363d f057 b23d cf00 c93d
00000020: 0bbf 2cbd f8b5 d3bc 452d c9bb f2d9 523c
00000030: 0ccb 843c 81ce aa3c f5ae 82bc b0e0 9d3d
00000040: a0e7 6ebc fd89 f0bc 0b70 10bd 90cf fb3c
00000050: d0b7 89bd 7f92 c73d 1e62 a139 a42e 9dbd
00000060: aea3 bcbd 6088 1f3c b56f 143d 76eb 8d3d
00000070: 13c3 72bb 1f1e 28bd c5ac c43d 13f8 36bd
00000080: 1de3 f73c b5d2 bfbd 0858 e3bb 0229 04bd
00000090: efcc c9bc c3e3 2abd 4e1d 41bc f71f f9bb
000000a0: 3751 9f3d 5b3f 2ebd edfb dfbc f895 d0bd
000000b0: 32f2 7dbc 74b3 14bd aea4 923d c726 16bd
000000c0: 28b6 c13c cf87 123b af96 1c3d fb74 683d
000000d0: c51b cdbd 076c ac3d 2f86 9ebd 4ff7 7fbd
000000e0: be76 ed3a 558f ae3d ce9b a63d 6ecd 423d
000000f0: 7cc7 003d 4d7a 57bd 3e9a 63bd 397d 9f3c
00000100: 2166 ba3b b5b0 043d d698 0e3d e85d fabc
00000110: 496b 923d 3176 3d3b 3cff 873d a677 743d
00000120: fcbb cebd d136 543a 4ea9 9ebd 62dd 103d
00000130: 7cb8 66bc 1487 a8bd e819 bc3d da89 63bd
00000140: 87fe be3d 20db e2bc 9d6a 76bd 56f3 9abd
00000150: 7edc 503d db54 173d 59c0 f4bc 09ec 31bd
00000160: b63d c63d 3d2d 45bd 78e6 0e3c 68be c0bc
00000170: 845d 783d 2742 58bd 1e3f fa3c 91b9 493c
00000180: a587 a73d 8117 0c3d c251 e63c b7b1 44bd
00000190: a429 303d eefd bcbd db02 e03c e54a c93d
000001a0: 1de8 0fbd 1cec af3c 2632 a43d c074 a63d
000001b0: aa0c bfbd fe24 e2bc 0d8f debc d8ae d0bd
000001c0: 66a9 a43d b014 c63b 77b6 c7bd 3056 263d
000001d0: f18d 95bd 990a 0b3d 8793 c2bd 09d6 8d3d
000001e0: adfd a23c 5b61 b6bd 35b6 68bd 51ec ec3b
000001f0: 339c be3d ae6b b0bd 6b2f bc3c f663 28bd
00000200: 3080 913b b5ef ba3d 029f a6b8 987a 533d
00000210: 1b7c 5ebd eeb7 a73d 8ac2 dcbc 99fb af3d
00000220: 8cc4 5e3d c48f cbbc daae b2bc 7c16 943d
00000230: 3c60 abbd fca3 0f3b 86f1 833d 245d bfbc
00000240: aafb 8dbc c0cf 7d3c a8f2 cb3d 6039 b53d
00000250: f099 5ebc 6885 b83d ea05 29bd 1533 b2bd
00000260: 199b 99bd 3b89 803d ec5d 6cbd 68c4 2cbc
00000270: c457 c3bd ac61 abbd 469e 2abc 49ff 353d
00000280: f5b4 30bd 2773 3ebc 963e 6d3d d822 3b3d
00000290: 7990 b73d 7dd5 a33d a99f c53d a26e a93d
000002a0: 8b99 f03c 34f5 d0bd 4132 a5bd 4854 6d3d
000002b0: d1ad eeb9 e6dd cbbd ce4c b5bd 61c3 98bd
000002c0: 4e64 a33d c48a 1ebd be01 a83d d539 27bd
000002d0: 0e08 e63c d686 363d aca0 02bd 8572 c8bd
000002e0: c863 fa3c 03cb afbd ebda 3abd fd0a bb3d
000002f0: b0e9 5a3c edab babd 3c99 533c 9160 c13d
00000300: 625f 783d 15ee 893d 1d1f c73d dc3b a63c
00000310: f091 3f3d 9888 6c3a dbdb 7dbd a32f 09bd
00000320: 2775 a13d e0f6 9dbd 682d 3ebb d20c 57bd
00000330: d831 943d 810e 9d3b af37 e93c 1cc6 8d3d
00000340: c874 bd3d 6a46 8bbd 2a49 b8ba fe64 0ebd
00000350: b8eb be3c 521c c83d 118d bfbd fcb1 c5bd
00000360: d642 32bd 22d2 07bb 687c 253d f1b1 6cbd
00000370: 0f9c 4bbd 4269 c6bd 5711 9ebb f04d 8b3b
00000380: 5abb 9dbb 3b70 73bd 9cfc f63c 12a5 79bb
00000390: c53b c13d 9508 363c 1c9c 633d 9973 abbd
000003a0: ae02 b7bd 8c8b 283c 1922 98bb 8b94 5d3c
000003b0: b823 773d a29b 78bd 5691 8e3d 105e 443c
000003c0: e68e bcbd 5fba 8cbc 9b20 d0bd e836 4cbd
000003d0: b80f a73d c1cf be3c fef6 c23d e2b5 c53d
000003e0: 0830 cabd 65ca b93d 5f21 b8bc 57cf bcbd
000003f0: 90c7 ab3b 70c5 a13c 6411 963c 7e70 903c
0.05345748 0.04021969 0.033949498 0.04157819 0.012662165 0.044484798 0.08708179 0.09814607
-0.04217438 -0.025843605 -0.0061394298 0.012869345 0.016210102 0.020850422 -0.015952567 0.07708871
-0.014581591 -0.029362673 -0.035263103 0.030738622 -0.067245126 0.09744739 0.00030781416 -0.076749116
-0.09210907 0.009737104 0.036239345 0.06929676 -0.0037042543 -0.04104435 0.09603266 -0.044670176
0.030259663 -0.09366361 -0.0069379844 -0.03226567 -0.024633853 -0.041721117 -0.011786772 -0.0076026875
0.077791624 -0.04254089 -0.027341807 -0.10184854 -0.015499638 -0.036303952 0.071603164 -0.036658075
0.02364643 0.002235878 0.03822964 0.056752186 -0.10015062 0.08419042 -0.07740437 -0.06249171
0.0018117053 0.08523432 0.08135186 0.047559194 0.031440243 -0.05260687 -0.05556702 0.01946889
0.0056884442 0.032395083 0.034813724 -0.030562356 0.07149369 0.002890956 0.06640479 0.05968442
-0.10094449 0.00080953265 -0.07747136 0.035367377 -0.01408207 -0.08228889 0.09184629 -0.055551387
0.09325891 -0.027692378 -0.060160268 -0.07565944 0.050991528 0.03694616 -0.029876875 -0.04343799
0.09679739 -0.048138846 0.00872194 -0.023528293 0.06063606 -0.052797463 0.030547675 0.012312309
0.08180169 0.034202103 0.028115157 -0.048021045 0.04300846 -0.09228121 0.027345112 0.09828738
-0.03513347 0.02147489 0.080173776 0.08127737 -0.09328587 -0.02760553 -0.027167821 -0.10189599
0.08040123 0.0060449466 -0.09751599 0.04060954 -0.07302464 0.033945654 -0.09500795 0.069255896
0.019896353 -0.08905288 -0.05681439 0.0072303195 0.093071364 -0.08614288 0.02297183 -0.041110955
0.00444033 0.09127752 -7.945114e-05 0.051630586 -0.054317575 0.08189379 -0.026948232 0.0859291
0.05438666 -0.024848826 -0.021811891 0.07230851 -0.083679646 0.002191781 0.06442551 -0.023359843
-0.017331917 0.015491426 0.099583924 0.08848834 -0.013586506 0.0900982 -0.041265406 -0.087011494
-0.07500286 0.06276175 -0.05770676 -0.010544874 -0.09538224 -0.08368239 -0.010413712 0.044432912
-0.043141324 -0.011624134 0.057921015 0.045687526 0.08963103 0.07999704 0.096495934 0.08273055
0.02937009 -0.10203019 -0.08066226 0.057941705 -0.000455244 -0.09954433 -0.0885254 -0.074591406
0.07978116 -0.038706556 0.08203457 -0.040826637 0.028080013 0.044562183 -0.03189151 -0.09787468
0.030565158 -0.08583643 -0.045618933 0.09132955 0.0133613795 -0.091148235 0.012914952 0.09442247
0.06063784 0.06734864 0.09722731 0.020292215 0.046770036 0.00090230396 -0.06197725 -0.033492696
0.07883673 -0.07713103 -0.0029018763 -0.05250246 0.072360694 0.0047929888 0.028468935 0.06922552
0.0925079 -0.0680054 -0.001405989 -0.034764282 0.023305759 0.09771027 -0.09353078 -0.096530885
-0.04352077 -0.0020724614 0.040401846 -0.057786886 -0.049709376 -0.09688045 -0.0048238444 0.0042512342
-0.004813594 -0.059433203 0.03014975 -0.0038092774 0.09435228 0.011110445 0.0555688 -0.08371658
-0.08936058 0.010287177 -0.0046427366 0.013524185 0.0603368 -0.060695298 0.069613144 0.011985317
-0.09206943 -0.017178712 -0.10162469 -0.04985705 0.08157295 0.023292424 0.09519766 0.09653832
-0.098724425 0.09071807 -0.02247685 -0.092192344 0.0052422956 0.019747466 0.01831884 0.017631765

fc4.bias f4 [48]
00000000: 46f7 9b3d 3562 e4bc f3bb a73b 8362 ccbd
00000010: 408e a03d dc7e 753d fdcd 913c e01d e4bc
00000020: 1b91 9e3d 69b9 54bd 60b3 093d 2b29 98bc
00000030: c635 b4bc c431 bfbd 42bf 873d 7a9d 553d
00000040: 2194 9bbd fe77 053d d023 923d 224c a43d
00000050: 66f3 97bd 6203 7a3c aec9 acbd bf42 883d
00000060: dfef b3bd 7ae1 d13d 4d63 ab3c 3fa2 af3d
00000070: cbdc 78bd fe0e e9bc 853d 88bd 017a bdbd
00000080: c014 70bd f30e 66bc 0849 b23d 1804 01bc
00000090: 78b0 f9bc ae5c 97bd f1ce 913d 6a7a b7bd
000000a0: 0b64 5a3c 890a d43c 3939 633d 3be0 043c
000000b0: 3401 853d bbac c93c e2ab 853d 78b7 623d
0.07615523 -0.02787886 0.005118841 -0.09979727 0.07839632 0.059935436 0.017798418 -0.027846277
0.077425204 -0.051934633 0.03361833 -0.018574318 -0.021998297 -0.09335664 0.066282764 0.052152134
-0.07596613 0.032585137 0.07135737 0.08022334 -0.074194714 0.015259596 -0.08436905 0.06653356
-0.08785986 0.10248084 0.020921374 0.08575868 -0.06075744 -0.028449532 -0.06652359 -0.09251786
-0.05861354 -0.01404165 0.08705336 -0.007874511 -0.030479655 -0.07390724 0.07119549 -0.089588955
0.013329516 0.02588393 0.055474494 0.008110101 0.0649437 0.024618497 0.06526925 0.05535075

fc5.weight f4 [24, 48]
00000000: 4852 e6bd 6b3e 003d c64f dcb8 2832 0d3e
00000010: 285b 3f3d bdfa 123e a38a cbbb 9ad0 0b3e
00000020: d03b 0ebd f262 08be 1f5f 11be d897 913c
00000030: 62fc dc3d 1ee3 5ebd 012a 4ebd 8833 b6bd
00000040: 584b 493d 14fc c33d 5f63 793d 81f2 fd3d
00000050: ba12 0d3e 3db7 8fbb ac35 78bc 63a2 f8bd
00000060: b6fb 42bd 4f74 04be b5bc a43d 5e22 8abd
00000070: c353 1d3d b832 1e3d 00c6 24bd 89d8 a93d
00000080: ce3e b53d b521 013d 8483 9b3d 0e10 8a3d
00000090: 47c8 143d ced9 11be eb49 ab3d 1e31 11be
000000a0: aac3 96bd 4411 09bd d14a d43d 62db 0fbe
000000b0: a516 b8bd ee54 e8bc dabf 913d 733e dabd
000000c0: f520 27bc 722f 123e 74ec d63d d3cc dcbd
000000d0: c20e a1bd 57eb 80bc 68b7 febd 27c4 87bd
000000e0: 1d59 ae3d e97d 9f3d 60fc 3c3d 8ad3 06be
000000f0: d258 f2bb 4424 ff3d 5f37 90bd 94f6 dabc
00000100: 3dbd 0bbe cbbd d03d 9567 db3d ecf0 cdbd
00000110: 042f c53d 75e0 d5bc 9c0c 5e3d c21b 533d
00000120: 14ab f03d 4e4e c7bd 4ab1 cbbb b2ca 283d
00000130: 069e eb3d 02c7 063d f618 083e 0998 123e
00000140: 70c3 dd3c 4bd0 e73d c7d9 b0bc 4a12 79bd
00000150: 0432 bbbd 5cd5 743d 80c1 babd 8e06 123e
00000160: 008a 13bd 4ed9 8dbd 8ec3 eabd 0ea9 86bc
00000170: 5fa5 d1bd 56c8 2cbd d026 3ebc d420 babc
00000180: 7f1b 17bd c261 63bd add1 48bd adb6 8bbd
00000190: 5c8f 92bd dc0d edbd d91f 24bd 2078 983d
000001a0: 2303 f53d b704 0b3e 1a8e 8cbd 5078 a83c
000001b0: 890d 06be 1478 743d d8aa 1c3d 2ec3 1cbd
000001c0: 4743 0e3c 29b8 cebd 4eed d1bc ad8b f13d
000001d0: e805 c13c 4033 f63b 9962 963d a595 0f3e
000001e0: a599 acbd 112f c6bd 151a ef3d 1dd7 c93d
000001f0: 575f 03be f522 e83d ff80 c63d f347 a3bc
00000200: 0b8c bebd ae1c f33c dc0b 0fbd 5001 783c
00000210: 9ed0 b4bd c099 be3b fc81 6cbd d8de 723d
00000220: d719 c4bd fe9a f3bd 686a 723d f3a7 34bd
00000230: 87bd dabd 1472 773d 604c 3fbc e23b c9bd
00000240: 7424 d33d 8495 323d d1f4 8d3d 4565 cdbd
00000250: d0d4 613d 50aa 2b3d 75e7 0f3d e2ca fabd
00000260: 39d1 f7bd d8c9 16bd e4bf 573d f70e 8fbd
00000270: 6751 bc3d 7cd4 0e3e 1bc3 743c 58ae 9d3c
00000280: 5bed 9abd b38b 9ebd 805b 00bd d0fc 9bbd
00000290: 5e40 9abd 0bc0 9ebd 0193 033d 1a13 a93d
000002a0: e641 0d3e cc3f 42bd 5c3a 4c3d d828 ecbd
000002b0: 7537 f9bd 05e3 b13c ab63 eabd 1387 60bd
000002c0: d37a 12be f443 0f3e 04fe 10be 7070 b93d
000002d0: fbba 87bb a4b6 753d 1f72 97bd abb0 22bd
000002e0: 6e8a 93bd c67c 0a3c 6dea 113e f1e2 59bd
000002f0: ffd2 e4bd 831f 1b3d 3066 6bbd 899f f53d
00000300: 9937 fe3d 13dc 7d3d fdaf 483d 3cce a3bb
00000310: f0f8 9b3d e349 e3bd 2874 f53c 7036 0b3d
00000320: bb8f e03d 4f27 1d3d fe22 73bd c6e8 503c
00000330: 7a25 fc3c c7d2 81bc f431 76bd 3f3f 1d3c
00000340: f0a6 173c a0fd d4bd 9964 d73d af88 abbd
00000350: c8d4 0f3e 3636 193d 5e11 ba3d 2d30 a4bd
00000360: 9211 053e c2d3 9239 ee1c 123b 95b2 0b3e
00000370: 97e9 293d d783 053e 4857 123e 90ea 633c
00000380: 5815 dd3d 3672 0fbe db88 133d fc38 ba3d
00000390: 1432 d7bd 770b e2bd f5de debb fbfc c1bd
000003a0: e86d 91bd 8386 523d 6bb6 ce3d 0fad d83c
000003b0: 9d2a 8d3c b4a6 373c f18b e63c 106c f93b
000003c0: d7a5 d83d 35a2 ffbd 2ff8 10be 804c e93c
000003d0: c0f5 5fbc 0951 75bc 6bdd 06be a45e 6a3d
000003e0: e490 babd 0b3e 9b3d 84ce af3d c829 603d
000003f0: a57d 01be 807b a93d 0984 e73d 00f6 623b
-0.11246163 0.031309526 -0.000105052764 0.13788664 0.046717793 0.14353462 -0.006211595 0.13653794
-0.03472501 -0.13318995 -0.14196442 0.0177726 0.10790326 -0.054415815 -0.050333027 -0.088965476
0.04914412 0.095695645 0.060885783 0.123997696 0.13776675 -0.0043858574 -0.015149515 -0.12140348
-0.04760333 -0.12934993 0.080438055 -0.06744836 0.03840996 0.038622588 -0.04022789 0.08293254
0.0884987 0.031526286 0.07593444 0.067413434 0.03632381 -0.14243242 0.08363708 -0.14178893
-0.07361539 -0.03346373 0.103658326 -0.14048532 -0.08988694 -0.02836081 0.07116671 -0.106564425
-0.010200729 0.14275911 0.104943186 -0.107812546 -0.07864143 -0.015737219 -0.12437326 -0.0662921
0.08513091 0.07787687 0.04613912 -0.13166633 -0.007395842 0.12458089 -0.07041811 -0.026728906
-0.13646407 0.1019245 0.10713116 -0.10055718 0.09628108 -0.026108006 0.054211244 0.051540144
0.117513806 -0.09731732 -0.006216203 0.04120893 0.1150475 0.032904632 0.13290772 0.1431581
0.02707073 0.113190256 -0.02158822 -0.060808457 -0.09140399 0.059773788 -0.091189384 0.14260313
-0.03602028 -0.06926213 -0.1146308 -0.016438033 -0.1023662 -0.042183243 -0.011605933 -0.022720732
-0.036891457 -0.05551315 -0.049028087 -0.06821952 -0.0715625 -0.11574909 -0.040069435 0.07444787
0.11963489 0.13576017 -0.06863041 0.020565182 -0.13091101 0.059684828 0.038248867 -0.038272075
0.008683032 -0.100937195 -0.025625851 0.11794219 0.023562387 0.0075134337 0.07343025 0.14021929
-0.08427743 -0.09676946 0.11674897 0.09855483 -0.12829338 0.113347925 0.09692573 -0.019931769
-0.09304055 0.029676761 -0.03492342 0.015137032 -0.08828853 0.0058166683 -0.05774115 0.05929455
-0.09575241 -0.11894797 0.05918351 -0.04410548 -0.10680681 0.060411528 -0.011675924 -0.09825875
0.10309687 0.04359962 0.06931461 -0.10029081 0.055134594 0.04191047 0.035132844 -0.12245728
-0.12100453 -0.036813587 0.052673236 -0.06985276 0.09195214 0.13948244 0.014939095 0.019248173
-0.07564803 -0.07741489 -0.03133726 -0.076165795 -0.07531808 -0.07751473 0.032122616 0.082555965
0.1379467 -0.047424123 0.049860343 -0.11531228 -0.12168781 0.021714697 -0.114447914 -0.054816317
-0.14304666 0.13990766 -0.141594 0.09054649 -0.004142163 0.059988633 -0.07394814 -0.039719265
-0.07204138 0.0084526 0.14249583 -0.053194944 -0.11173057 0.03787185 -0.0574705 0.119933195
0.12412948 0.061977457 0.04899596 -0.0049989503 0.076158404 -0.11098077 0.029962614 0.033987463
0.109649144 0.038367566 -0.059359543 0.01275081 0.030779589 -0.015847577 -0.060106233 0.009597599
0.00925611 -0.10399938 0.10517234 -0.0837568 0.14046013 0.037405215 0.09085344 -0.08017001
0.12994984 0.00028005062 0.0022295075 0.13642342 0.041482534 0.13038574 0.14291108 0.0139109045
0.107950866 -0.14008412 0.036019187 0.090929 -0.105075985 -0.11037343 -0.006801481 -0.0947208
-0.07101041 0.05139781 0.10093387 0.026449708 0.017232234 0.011209179 0.028142901 0.007611759
0.105785064 -0.124821104 -0.14157175 0.02847886 -0.013669431 -0.014972934 -0.13170402 0.057219163
-0.09109667 0.07580193 0.085843116 0.054727346 -0.12645586 0.08275509 0.113044806 0.003463149

fc5.bias f4 [24]
00000000: cdb6 c13d 6734 93bd 8a05 01bd 5995 373d
00000010: cb51 a4bd c092 ebbd 18a5 043d 70f1 a93d
00000020: ef58 10be 478d 90bd c5ef b63d 9146 e83d
00000030: 3b9d 6dbd 6aa9 9e3d 0317 543d 7da9 61bd
00000040: 9176 bb3b c601 0e3e 38b5 64bd 5ad7 d93d
00000050: 8721 bb3d 4f44 c43d 1cb5 55bd caa2 48bd
0.094586946 -0.07187729 -0.031499423 0.044820163 -0.08023413 -0.115026 0.03238401 0.08298004
-0.14096425 -0.070581965 0.08932451 0.113415845 -0.058011275 0.07747157 0.05177976 -0.055093277
0.0057209213 0.13867864 -0.055836886 0.10636778 0.09137254 0.09583341 -0.052174672 -0.048983373

fc6.weight f4 [5, 24]
00000000: fdd6 10be 4ae7 aabd 07c5 acbd dcc3 30be
00000010: 5eeb 91bd 01eb 00bd 5232 a8bd 820d 413d
00000020: 07c3 033e 8aad 4d3e 84e6 1b3e 26bc c43c
00000030: c35e 2e3e 8014 353e 95de f93c 7220 ac3c
00000040: 25cd a8bd e8bb 78bd 3f81 4e3d 42fe 173d
00000050: e89b 433d c55c fdbd cf43 edbd a4d9 15be
00000060: 4b45 1c3e 071d bbbd 73c9 35be 1c0c 1fbc
00000070: 53b1 9a3d d0c0 08be f02a 8f3d 6216 20be
00000080: 9ea0 07bd 463b a83d cf84 66bd 7263 63bd
00000090: 334b 20be e95b bdbc bec6 eb3d 039c 74bd
000000a0: b11c 4a3e 14ad 7dbd 35f5 473e e90f 22be
000000b0: f481 1b3e 382d fc3d 52e7 863d 953e 7b3c
000000c0: e271 873d dd13 01be f3c8 37be 5053 d8bd
000000d0: 62d5 673d 08ff 0bbc e067 3ebd 1d98 8d3d
000000e0: 9619 2f3e 6826 51bd 28d0 8dbb a2e6 cfbd
000000f0: 000d ecbb 8e60 3bbe 984d 2b3e 87be 2d3d
00000100: 92fb 023e a1bb 02bd 2759 223e 5d19 3abe
00000110: bcde c63d a776 483e bc83 753d d47c ac3d
00000120: 84da 473e 66b4 12be 09cb 19be 08d9 e43d
00000130: ea64 7d3d 9e1c b43d b2e5 ec3d c5bf 03bd
00000140: 2169 00bd db02 38be fb52 02be c985 7dbd
00000150: 6094 c2bc 1c72 123e e0e3 e4bd 4c62 903d
00000160: 85e6 073e dcd0 463e c155 5abd 6bf7 1a3e
00000170: 17db cd3d b32c 443d e025 2dba b18c ffbc
00000180: d41a eabc 9408 bf3a e65b fb3c b67d 043e
00000190: 1ae1 74bd d530 47be 2502 30be a4d9 113e
000001a0: bb05 dcbc 7c82 92bc 593c 12be 797f 1fbe
000001b0: 7de7 eebd 927e 22be f782 733d 3267 09bd
000001c0: ae5d 003d 96b4 8dbc fb09 263e 0d6c 3cbd
000001d0: 167b 7c3c df04 66bd 79c3 9a3d a0a7 adbc
-0.14144512 -0.08344896 -0.084360175 -0.17262214 -0.07124971 -0.031474117 -0.08212723 0.047132023
0.12867366 0.20085731 0.15224653 0.024015497 0.17028336 0.17683601 0.030501643 0.021011565
-0.08242253 -0.060726076 0.050416227 0.037107714 0.047756106 -0.1237121 -0.11585199 -0.14633805
0.15260808 -0.09136396 -0.17752628 -0.009707477 0.07553353 -0.13354802 0.069906116 -0.15633538
-0.03311216 0.082144305 -0.056279 -0.05551476 -0.15653686 -0.023115115 0.115125164 -0.059719097
0.19737507 -0.06193264 0.19527133 -0.15826382 0.15186292 0.12313312 0.065870896 0.015334745
0.06613518 -0.12605233 -0.1794775 -0.105627656 0.056599982 -0.008544691 -0.04648578 0.06913779
0.17099604 -0.051062018 -0.0043277927 -0.101514116 -0.007203698 -0.18298551 0.16728818 0.04241803
0.12791279 -0.031917218 0.15854321 -0.18173738 0.09710452 0.19576512 0.059940085 0.084222466
0.19516951 -0.14326629 -0.15018858 0.11174208 0.061863817 0.08794521 0.115672484 -0.032165308
-0.03135026 -0.1796984 -0.12726967 -0.061895166 -0.023752391 0.14301342 -0.11176276 0.07049999
0.1327153 0.19415611 -0.053304438 0.15133445 0.10051554 0.04789419 -0.000660507 -0.031195017
-0.028577246 0.00145747 0.030683469 0.1293858 -0.059784986 -0.19452222 -0.17188318 0.1424318
-0.026858201 -0.017884485 -0.14280833 -0.1557597 -0.11665247 -0.15868595 0.05945107 -0.03354568
0.03133934 -0.017298024 0.16214745 -0.046001483 0.015410205 -0.05615699 0.07556815 -0.021198094

fc6.bias f4 [5]
00000000: c828 bdbd e9cf 35be af22 32be 4a43 f73d
00000010: b831 013d
-0.09236294 -0.17755093 -0.17396043 0.12073381 0.031541556

fc1.weight f4 [24, 10]
00000000: 4036 bdbd e82c 9a3d b10e 873e d1b6 93be
00000010: 23fe 7ebe 0e30 6ebe ae0e 7fbe 5da0 42be
00000020: c8c6 d63d 4029 1ebd d6a9 4c3e b6bb 743e
00000030: 80f6 8e3d 679d 91be f062 3f3d 500b 983d
00000040: 4025 7bbd 2078 253d e4a3 03be 9283 6f3e
00000050: d374 9fbe dbd9 90be a214 513e b6f8 503e
00000060: e8f0 123e 0a88 8ebd 786f 2fbd 7553 803e
00000070: ab9a 26be 19a6 8b3e 3c82 da3d d22d 25be
00000080: 882b 193d 254e 843e 38ce 093e 8c59 933d
00000090: c0f1 f4bd 5ad2 773e 307e f33c a5a4 83be
000000a0: 34fe 833d 5301 83be da51 41be e704 92be
000000b0: f120 9a3e f53f 1ebe 48a8 83be 1b72 2dbe
000000c0: 1cf0 83be 8012 8fbb 9270 373e 70d4 f43c
000000d0: d4a4 cb3d 44c0 51be 98b5 083d 889f 59bd
000000e0: 686d 3b3e 4c2d 49be aeea e4bd cf9b a03e
000000f0: b888 f73d 6d03 64be 6e88 0f3e 84a9 223e
00000100: 9a71 3f3e 98a6 a83d b8be c7bd f8f3 f4bd
00000110: 5822 a13d 1164 853e 6af5 90be 55af 923e
00000120: 911e 23be c413 8d3d 29e8 90be a041 b53d
00000130: 1f18 903e c49f b6bd 5243 4d3e a28f 183e
00000140: cd7e 90be 40d3 7cbd 542a 06be daca 53be
00000150: d445 7dbe 1a72 e5bd c62a 2d3e 047f 99be
00000160: 828c 00be 88bc 8b3d 7aea 9abe 64c6 cbbd
00000170: 007d 953b f3a2 803e 582a 10bd e06e e33d
00000180: a35f 9b3e d0cd 9fbe 28d4 b5bd 3c02 b53d
00000190: 32ab 603e f3ea 963e 655c 833e 4071 9e3d
000001a0: 90cb 46bd 00e0 96b9 3760 86be 73a7 8b3e
000001b0: 10a3 3fbd 2881 383d 34bf 6abe 5c66 cd3d
000001c0: 1165 9bbe 8070 84be 7a39 793e 40d7 ff3b
000001d0: 8d78 02be 37b1 8a3e 97c5 8fbe 5a9d 3d3e
000001e0: 3dcd 93be 3ec8 80be c83b 3cbd 280c 76bd
000001f0: 16e0 573e 04fe b8bd 808c 333c 077c 89be
00000200: 127a 3c3e 226f 5f3e c0d3 953c e00d 29be
00000210: 001b 99bc a17c 973e 2228 5b3e 14b4 f23d
00000220: cc49 ef3d e33b 9b3e 10d3 9b3d 8671 193e
00000230: d8e0 0b3d 448f a63d 126f bdbd 9a36 413e
00000240: 2a84 61be 2827 0fbd 2c07 5cbe b6ac 5bbe
00000250: f07c c83d b616 48be b549 9bbe 200a 0e3c
00000260: 00dc 2dbb 1e8e 263e a086 c3bd 241c 0b3e
00000270: ceaa eebd d00b 523d e0da 713c 1471 953d
00000280: 2619 2c3e ba5c 93bd 246d 89be 619d 0dbe
00000290: 18a8 493d 6069 51bd 5b6c 44be a6b0 7e3e
000002a0: 9529 893e da75 a0be ea12 36be 3dd3 6ebe
000002b0: 76e1 8abe c4f2 68be f8c3 f03d 6407 39be
000002c0: 6481 c33d eec2 583e 4a45 5f3e 3cb1 54be
000002d0: 6a61 1c3e 58fa a23d d6cd 293e 67d2 3ebe
000002e0: 6058 71be 70d1 2d3e 8a7e 653e 8889 82be
000002f0: d5f9 863e 18fd a03d df58 843e 73ac 8cbe
00000300: 3026 bc3d 3cbd a63d d0d6 89be 3444 15be
00000310: f6b8 023e d0df 3d3d d961 38be 389c 5bbe
00000320: 4079 a33c 8eb5 82be 6849 3abd 7026 0c3e
00000330: 60d8 fe3c 449c 323e 2072 e03d decc 26be
00000340: 12c3 85be 606c a83c 68ba 89bd b8bc 0f3e
00000350: 9e69 dbbd e5d0 863e 809a 423c 3025 db3c
00000360: 0ea4 b6bd 103e 16be 70f3 a23d a583 9d3e
00000370: c614 75be d5f7 a0be 672e 8b3e b29f 5e3e
00000380: 145e 46be 8dd4 95be 9e68 0b3e c887 703d
00000390: 2367 1fbe a69c 9fbe 60f6 57be 005f 34bc
000003a0: 467b 793e 37d2 16be 96aa bebd 7641 0e3e
000003b0: 7a74 633e 9b6d 8d3e d015 a53d 1035 58bd
-0.09238863 0.075280964 0.26378396 -0.28850415 -0.24901633 -0.23260519 -0.24907944 -0.19006486
0.10487133 -0.038613558 0.19986662 0.23899731 0.0698061 -0.284404 0.046725214 0.07424033
-0.06131482 0.040397763 -0.12855488 0.23390034 -0.31143817 -0.2829121 0.20418027 0.20407376
0.14349711 -0.06959541 -0.042830914 0.25063673 -0.16269939 0.2727516 0.106693715 -0.1613076
0.03739503 0.2584087 0.13457572 0.07194814 -0.11960173 0.24201337 0.029723257 -0.2571155
0.0644497 -0.25586948 -0.1887888 -0.28519365 0.30103257 -0.15454085 -0.25714326 -0.16938059
-0.25769126 -0.004366219 0.17914036 0.029886454 0.09943548 -0.204835 0.033376306 -0.053130656
0.18303454 -0.19646186 -0.11177574 0.31368873 0.12086624 -0.22266932 0.14016888 0.15884978
0.1869568 0.082349 -0.097531736 -0.11960596 0.07867879 0.26052907 -0.28312236 0.28649393
-0.15929629 0.068885356 -0.28302124 0.088504076 0.28143403 -0.089171916 0.20045212 0.14898542
-0.2822174 -0.0617249 -0.13102084 -0.2068285 -0.24733669 -0.11203404 0.16910848 -0.29979718
-0.125536 0.06823069 -0.30257016 -0.099499494 0.0045620203 0.2512432 -0.035196632 0.11105132
0.30346403 -0.3121171 -0.08878356 0.08838317 0.21940306 0.29476127 0.2565643 0.077364445
-0.048533976 -0.00028777122 -0.2624528 0.2727619 -0.046786368 0.045045048 -0.229245 0.10029289
-0.30350545 -0.2586708 0.24338332 0.007807642 -0.12741299 0.2708833 -0.28080437 0.18517056
-0.28867522 -0.25152773 -0.04595545 -0.060070187 0.21081576 -0.09032825 0.010958791 -0.26852438
0.18405941 0.21819738 0.018289447 -0.16509199 -0.018689632 0.29587272 0.21402028 0.118507534
0.116839975 0.30319127 0.07608616 0.14984712 0.034149975 0.081327945 -0.092497006 0.18868485
-0.22023073 -0.03494945 -0.21487111 -0.21452603 0.09789455 -0.19539914 -0.30329672 0.008669406
-0.0026528835 0.16265151 -0.09547162 0.13584954 -0.11653672 0.051280797 0.0147616565 0.072969586
0.16806468 -0.071954206 -0.2684108 -0.13829567 0.049232572 -0.051125884 -0.1918196 0.24872074
0.26789537 -0.31339914 -0.17780653 -0.23322769 -0.27125138 -0.22748858 0.11756128 -0.18069226
0.09546164 0.2116811 0.21803775 -0.20770735 0.15271536 0.079579055 0.16582426 -0.1863495
-0.23568869 0.16974425 0.22411552 -0.25495553 0.26362482 0.07860774 0.25849053 -0.27475318
0.09186971 0.08141562 -0.269217 -0.14576799 0.1276587 0.046356022 -0.18006076 -0.21446311
0.019955277 -0.2552914 -0.045480162 0.13686538 0.031109035 0.17442423 0.109592676 -0.16289088
-0.2612539 0.02055949 -0.06725007 0.14036834 -0.10713504 0.2633125 0.011877656 0.02675113
-0.0891801 -0.14672112 0.07956588 0.307645 -0.23933706 -0.3143908 0.2718384 0.21740606
-0.19371825 -0.29263726 0.13614127 0.05872324 -0.15566687 -0.311742 -0.21090078 -0.011008978
0.24363431 -0.14728628 -0.093098804 0.13892159 0.22212401 0.27622685 0.08060801 -0.05278498

fc1.bias f4 [24]
00000000: 2a2e 6abe 4e66 80be e88b 32be e085 07bd
00000010: 9a09 64be 9ece 643e c0c5 b83d 3f44 07be
00000020: aa38 5b3e 20d9 2abc 3fcd 893e 40f5 1ebc
00000030: 1cf6 80be 306a 60be 96ec 503e e089 b03c
00000040: 9100 6abe 7e53 613e 9ee8 19be f3d0 2bbe
00000050: 142e 0d3e 4061 9fbd 924a 31be 20b8 c8bd
-0.22869173 -0.25078052 -0.17436182 -0.033086658 -0.22269288 0.22344443 0.09022093 -0.13209628
0.21408334 -0.010427743 0.26914403 -0.009702027 -0.25187767 -0.21915507 0.2040275 0.021550119
-0.22851779 0.22004506 -0.15030143 -0.16778927 0.13787109 -0.07782221 -0.17313603 -0.09800744
